60.pt (torch, 598370 bytes, 785 tensors)

conv1.conv.weight f4 [8, 1, 3, 3]
0	0xbea6d351	-0.32583097
1	0xbe2d11dd	-0.16901346
2	0xbf0f6536	-0.5601381
3	0xbc8f7895	-0.017513553
4	0xbdb4d08b	-0.08828839
5	0x3c12ce73	0.008960354
6	0x3de0014a	0.10937746
7	0xbe98ef81	-0.29870227
8	0x3d99e2d6	0.07513969
9	0x3e429e79	0.19005765
10	0xbe85e904	-0.2615434
11	0x3e85addc	0.26109207
12	0xbe2b975c	-0.16756958
13	0x3e105870	0.14096236
14	0x38451ef3	4.6997284e-05
15	0x3e50429d	0.20337911
16	0xbdd8b4ab	-0.10581335
17	0x3e0ed5b8	0.13948715
18	0x3e1351d6	0.14386687
19	0x3d122655	0.035681088
20	0x3e7d58f7	0.24740969
21	0x3ee057ac	0.43816888
22	0x3dc8a149	0.09796388
23	0x3d316e3b	0.043318015
24	0x3d9acd9c	0.07558748
25	0xbc9222c3	-0.017838841
26	0xbcee5676	-0.029093962
27	0x3e415094	0.18878394
28	0xbdb1dabc	-0.086842984
29	0x3e23d7d0	0.16000295
30	0x3f05cc0a	0.52264464
31	0x3e67db24	0.2264219
32	0xbc9799ee	-0.018506017
33	0x3e2da14a	0.16956058
34	0x3e186c9c	0.14885181
35	0x3dcfb576	0.10142033
36	0x3de68a49	0.112568446
37	0xbd9dfd27	-0.077143006
38	0x3d220a4d	0.039560605
39	0xbf0875a4	-0.53304505
40	0x3e1bc132	0.15210417
41	0xbc6d7c44	-0.014494959
42	0xbd8b4b58	-0.0680148
43	0x3e343cf3	0.17601375
44	0xbd008229	-0.03137413
45	0x3db2614b	0.087099634
46	0xbcc6d2e6	-0.024270486
47	0x3e7a8c02	0.24467471
48	0x3d963f50	0.07336295
49	0x3ea2d73e	0.31804842
50	0xbad27e73	-0.0016059413
51	0x3d26f89d	0.04076444
52	0x3cef2c2f	0.029195873
53	0xbaecc63d	-0.0018064451
54	0x3c7ad8c6	0.015310472
55	0x3e5ad0bb	0.21368687
56	0x3e080265	0.13282163
57	0xbea66f5b	-0.32506832
58	0xbecba667	-0.39775392
59	0x3da7272b	0.081617676
60	0x3e1358f2	0.14389399
61	0xbe53f467	-0.20698701
62	0xbdcfd8a2	-0.10148741
63	0xbdfa4978	-0.12221044
64	0x3de19675	0.110150255
65	0xbe91ed0c	-0.28501165
66	0xbe1bfad0	-0.15232396
67	0xbdc0ce9f	-0.0941441
68	0x3d03532a	0.032061733
69	0x3d7b161d	0.061300386
70	0xbde60c06	-0.11232762
71	0x3dd2e2a7	0.10297137

conv1.bn.weight f4 [8]
0	0x3f2d53b4	0.67705846
1	0x3ec4a2a1	0.38405326
2	0x3f1e6d04	0.61885095
3	0x3f35f0fa	0.71070826
4	0x3f1b89de	0.60757244
5	0x3f1e08ce	0.61732185
6	0x3eba8329	0.36428192
7	0x3f38c14b	0.7216994

conv1.bn.bias f4 [8]
0	0x3f032763	0.51231974
1	0x3e1f7814	0.1557315
2	0x3eadbf3a	0.33934957
3	0x3f04278e	0.51622856
4	0x3e8b51f2	0.27210957
5	0x3de45ebd	0.111508824
6	0x3ea48614	0.32133543
7	0x3e748eae	0.23882553

conv1.bn.running_mean f4 [8]
0	0xc297440b	-75.6329
1	0x41bfd9ab	23.981283
2	0x427746aa	61.819008
3	0x42a878a9	84.235664
4	0xc15fdef7	-13.991935
5	0x42363d6c	45.559982
6	0xc1d45411	-26.541048
7	0xc1dcabef	-27.583952

conv1.bn.running_var f4 [8]
0	0x439c0215	312.01627
1	0x42d8fcea	108.49397
2	0x43364204	182.25787
3	0x43997157	306.88547
4	0x43045010	132.31274
5	0x42cabee6	101.37285
6	0x431d38e7	157.22227
7	0x429110f1	72.53309

conv2.conv1.weight f4 [8, 8, 1, 1]
0	0xbeb267aa	-0.34844714
1	0x3e1153f8	0.14192188
2	0x3e17dbee	0.1482999
3	0xbd610a31	-0.05494136
4	0x3e841d3c	0.25803554
5	0xbe03dcf0	-0.1287725
6	0xbd2a68c7	-0.04160383
7	0x3de83bf8	0.11339563
8	0xbb249c04	-0.0025117407
9	0xbe1762d6	-0.14783797
10	0xbdeed223	-0.11661174
11	0x3d1771c2	0.036973722
12	0xbe8f85a7	-0.28031656
13	0xbda9c1d1	-0.08288921
14	0xbe095c02	-0.13414004
15	0x3e59002a	0.21191469
16	0xbebf0e1c	-0.37315452
17	0x3d5de5a0	0.054174066
18	0x3c15c745	0.009141748
19	0x3d8de0e7	0.06927662
20	0xbe085e50	-0.13317227
21	0x3e3bc94d	0.18338509
22	0xbebe8a17	-0.3721473
23	0xbe00c382	-0.1257458
24	0xbdc55272	-0.09634866
25	0x3daa9e77	0.08331006
26	0xbd834cac	-0.064111084
27	0xbe477900	-0.19479752
28	0x3ee288b8	0.44244933
29	0x3e571a4a	0.21006122
30	0x3e824fd0	0.25451517
31	0xbd78a8ac	-0.060707733
32	0xbe62661c	-0.22109264
33	0x3f0c1804	0.54724145
34	0x3e56147d	0.20906253
35	0x3c5b044d	0.013367725
36	0x3ecd99df	0.40156457
37	0xbc28482c	-0.010271113
38	0xbd32e27a	-0.043673016
39	0x3d76e0b1	0.060272876
40	0x3ed5f521	0.4178858
41	0xbe0d7fce	-0.13818285
42	0x3e857fc7	0.2607405
43	0xbe124020	-0.14282274
44	0xbda7b257	-0.081883125
45	0x3e18d452	0.14924744
46	0x3d9ba5a0	0.0759995
47	0x3dd48549	0.103769846
48	0x3d5541c2	0.052064665
49	0x3e9cdb91	0.30636266
50	0xbeaae48d	-0.33377495
51	0xbe40c24b	-0.18824117
52	0xbe1ebee7	-0.15502511
53	0x3e1c4dc7	0.15264045
54	0xbe4a8644	-0.19777781
55	0x3d1a5d40	0.037686586
56	0xbea799d1	-0.3273454
57	0x3e1ff682	0.15621379
58	0x3e0691f1	0.1314161
59	0xbddeb533	-0.10874405
60	0x3e7b073c	0.24514478
61	0x3dd8f333	0.105932616
62	0x3ddd85a9	0.10816509
63	0x3e124ccd	0.1428711

conv2.conv1.bias f4 [8]
0	0xbe92e60b	-0.28691134
1	0x3d1000e6	0.035157107
2	0x3e9ed93b	0.3102511
3	0x3ce77ed0	0.028258711
4	0xbe263833	-0.16232376
5	0x3ebbcc1f	0.3667917
6	0xbe886c47	-0.2664511
7	0x3e41b810	0.1891787

conv2.bn1.weight f4 [8]
0	0x3f1a71aa	0.6032969
1	0x3f4a9b64	0.7914336
2	0x3f5278fc	0.8221586
3	0x3f24faaf	0.6444501
4	0x3f3e82fb	0.7441861
5	0x3f2cbf6b	0.6747958
6	0x3f1cc319	0.61235195
7	0x3f40f0ce	0.7536744

conv2.bn1.bias f4 [8]
0	0xbd63e199	-0.05563507
1	0xbe76e550	-0.24110913
2	0xbdeb9622	-0.11503245
3	0x3d40ca8f	0.047068175
4	0x3e86f502	0.263588
5	0x3d93b352	0.07211937
6	0x3e745c48	0.23863328
7	0xbe06a605	-0.13149269

conv2.bn1.running_mean f4 [8]
0	0xbeab16fe	-0.3341598
1	0xbd654390	-0.055972636
2	0x3d9c622c	0.07635912
3	0x3d953211	0.0728494
4	0xbcc2ba01	-0.023770334
5	0x3f147bbb	0.580013
6	0xbedbdfca	-0.42944175
7	0x3e490112	0.19629315

conv2.bn1.running_var f4 [8]
0	0x3a6bd254	0.000899588
1	0x3a3736d0	0.00069890637
2	0x3c18d26b	0.009327511
3	0x3a9f0449	0.0012132014
4	0x3b2e7112	0.0026617688
5	0x3ad1f002	0.0016016962
6	0x3ae51529	0.001747762
7	0x3aa16c1d	0.0012315545

conv2.conv_h.weight f4 [8, 8, 1, 1]
0	0x3e879e5b	0.26488003
1	0x3dd87a9e	0.10570262
2	0xbdf6efb3	-0.12057438
3	0xbe1b9389	-0.15192999
4	0x3e0f3006	0.13983163
5	0x3dfed2ba	0.12442537
6	0xbe59a56f	-0.21254514
7	0xbdaa3cf1	-0.08312405
8	0xbd36e064	-0.04464759
9	0xbd9355cb	-0.07194098
10	0xbcb6e806	-0.022327434
11	0xbd3b90a6	-0.045792244
12	0x3d17e388	0.037082225
13	0x3e203472	0.15645006
14	0xbcadefd6	-0.021232527
15	0xbd697521	-0.05699647
16	0x3dbb8747	0.091566615
17	0xbdf16980	-0.11787701
18	0x3df0714f	0.11740362
19	0x3d0f177a	0.0349345
20	0x3cc97360	0.024591148
21	0x3df46b34	0.1193451
22	0x3d87db5d	0.06633637
23	0xbe295905	-0.16537865
24	0x3ea91b70	0.33028746
25	0xbd8fe570	-0.070261836
26	0xbe5493fb	-0.20759575
27	0xbd89a263	-0.06720426
28	0x3d4f8d4e	0.050671868
29	0x3dcfb829	0.10142548
30	0x3dea614e	0.11444341
31	0xbd9be350	-0.07611716
32	0xbdae4da1	-0.085109
33	0xbe6d9974	-0.23203069
34	0xbe3d1511	-0.18465067
35	0xbc98aadc	-0.01863616
36	0x3e87e06c	0.26538408
37	0x3e442749	0.19155611
38	0x3e4faf6e	0.20281765
39	0xb9b36601	-0.0003421754
40	0x3e3b3725	0.18282755
41	0xbeb96318	-0.36208415
42	0xbca36648	-0.019946232
43	0xbe13e5c8	-0.14443123
44	0xbb244e78	-0.0025071185
45	0x3e491bfc	0.19639581
46	0x3def595e	0.11686967
47	0x3d2b2295	0.041781027
48	0xbd4368d4	-0.047707394
49	0x3cb5f05b	0.022209337
50	0x3d57cfb3	0.05268831
51	0x3bf0203a	0.0073280605
52	0x3e39626b	0.1810395
53	0xbba063fd	-0.004894732
54	0x3d9a0b8f	0.07521736
55	0xbe15ec1e	-0.14640853
56	0x3c628b75	0.013827194
57	0xbe08ce82	-0.13360026
58	0xbd9aac16	-0.07552354
59	0xbe9a4c66	-0.30136412
60	0xbd6d4abc	-0.0579326
61	0xbd85a296	-0.065251514
62	0xbd814172	-0.06311311
63	0x3e41f2e0	0.18940306

conv2.conv_h.bias f4 [8]
0	0x3d8ab6f4	0.06773177
1	0xbe650469	-0.22364964
2	0x3caf8787	0.02142693
3	0x3e0c7da1	0.13719799
4	0xbda6ad33	-0.08138504
5	0x3e4dd76c	0.20101708
6	0x3dda503b	0.10659834
7	0xbd044a8b	-0.032297652

conv2.conv_w.weight f4 [8, 8, 1, 1]
0	0xbe2f5868	-0.17123568
1	0x3d801b69	0.06255228
2	0x3df80484	0.12110236
3	0x3df5967e	0.11991595
4	0xbd385e8d	-0.045012046
5	0xbd795a45	-0.060877103
6	0xbd36a3d6	-0.04458984
7	0xbdea0cb8	-0.11428207
8	0x3e5ef593	0.21773367
9	0x3dc0f7c2	0.09422256
10	0xbd41ba4d	-0.04729681
11	0x3d8b0f27	0.067899995
12	0x3c6514b4	0.013981987
13	0x3de53d63	0.11193349
14	0x3a1e9ec8	0.0006050882
15	0xbe0d5ab2	-0.13804129
16	0x3b263198	0.002535915
17	0xbd803af1	-0.06261242
18	0x3d26ce83	0.04072429
19	0x3e24c677	0.16091333
20	0x3db0246d	0.08600698
21	0x3cfa849d	0.030580813
22	0x3ac46772	0.0014984442
23	0xbe5aab9c	-0.21354526
24	0xbd21ab01	-0.039469723
25	0x3d5304c5	0.05151822
26	0xbe73d86f	-0.23813032
27	0xbe6a3b2c	-0.22874135
28	0x3db6dbec	0.089286655
29	0x3ca15481	0.019693615
30	0xbccb9aae	-0.02485403
31	0x3e99ba93	0.30025157
32	0x3e2feeaf	0.17180894
33	0xbde1002b	-0.1098636
34	0xbe28b65e	-0.16475818
35	0xbe3d8ca2	-0.18510678
36	0x3e716fff	0.2357788
37	0x3e04a2d2	0.12952736
38	0x3daea54a	0.0852762
39	0xbdfca0e8	-0.12335378
40	0x3d579016	0.052627645
41	0xbe1f38f2	-0.15549067
42	0xbe008ed2	-0.12554482
43	0x3d56d655	0.052450497
44	0x3e3d28a7	0.18472539
45	0x3e2088ec	0.15677232
46	0xb9880b48	-0.00025948347
47	0x3db9c571	0.09070862
48	0xbe7c69de	-0.2464976
49	0x3e43e575	0.191305
50	0x3cb1a11f	0.021683274
51	0x3dcc0b00	0.099630356
52	0x3d0fddb3	0.03512354
53	0xbe246c46	-0.16056928
54	0xbdf95d57	-0.12176006
55	0x3db2b2b1	0.08725489
56	0x3ea6dd7f	0.32590863
57	0x3e45b597	0.19307552
58	0xbe46e837	-0.1942452
59	0xbe116c93	-0.14201574
60	0x3dd2aa89	0.10286433
61	0x3d3fa049	0.04678372
62	0xbd9dbfe7	-0.07702618
63	0xbd940674	-0.07227793

conv2.conv_w.bias f4 [8]
0	0xbcba69f2	-0.022755597
1	0xbdf10648	-0.11768776
2	0x3c0d51a3	0.008625421
3	0x3d7f4a2f	0.062326606
4	0x3d46fbb1	0.048579875
5	0x3ea6f0bf	0.3260555
6	0x3e5aafed	0.21356173
7	0x3e3c6d31	0.18401028

conv3.cv1.conv.weight f4 [16, 8, 1, 1]
0	0xbdeabd25	-0.11461858
1	0xbc95cbe5	-0.018285701
2	0xbe57435b	-0.21021788
3	0x3e6b41b4	0.22974283
4	0x3e4bd5c1	0.1990576
5	0x3d983139	0.074312635
6	0x3ea832b5	0.32851186
7	0x3caa1c9a	0.020765591
8	0xbe2351b7	-0.1594914
9	0x3dd8fb13	0.105947636
10	0x3d0e6114	0.03476055
11	0xbd799619	-0.06093416
12	0x3e979fa5	0.29613987
13	0x3d172d78	0.036908597
14	0x3e81c91b	0.25348744
15	0x3e68c497	0.22731243
16	0xbbb964d0	-0.0056577697
17	0x3deeccc3	0.11660149
18	0x3e84f60b	0.25968966
19	0xbe129c47	-0.14317428
20	0xbe5906de	-0.21194026
21	0xbf0ba5e2	-0.5454999
22	0x3d6a7aa4	0.057245865
23	0x3e459803	0.19296269
24	0x3e895b0c	0.26827276
25	0x3d51f3f9	0.05125806
26	0x3db37f15	0.08764473
27	0x3e55fe41	0.20897771
28	0x3dfd9744	0.12382367
29	0xbde61a8b	-0.112355314
30	0xbecab245	-0.39589134
31	0xbe534c02	-0.20634463
32	0x3e67c83d	0.22634979
33	0xbd3bde90	-0.04586655
34	0xbf0485ca	-0.51766646
35	0x3e2d71a1	0.16937877
36	0x3e565cd6	0.20933852
37	0x3de21713	0.11039557
38	0x3c600cca	0.013674924
39	0xbd91221c	-0.07086584
40	0x3e473250	0.19452786
41	0x3cdb58fb	0.026775828
42	0x3e229c77	0.15879999
43	0x3e832edd	0.2562169
44	0xbea39b5a	-0.3195446
45	0x3ea40ec0	0.32042503
46	0x3eb21271	0.34779695
47	0x3e75031c	0.23926967
48	0x3df2e705	0.1186047
49	0x3dad677c	0.08467004
50	0xbe3a1f17	-0.18175922
51	0x3e3a662a	0.18203035
52	0xbda9e39e	-0.08295368
53	0x3e367fdc	0.17822212
54	0xbed785d9	-0.42094305
55	0x3d8c60e0	0.06854415
56	0xbe85069e	-0.2598161
57	0xbe1caa73	-0.15299396
58	0xbd7e38ae	-0.062065773
59	0x3ccb10a6	0.024788212
60	0xbbee4e7b	-0.007272539
61	0xbe2fa012	-0.17150906
62	0x3ea4ad6e	0.32163566
63	0x3e1b3b2d	0.15159293
64	0x3b62f8ed	0.0034633235
65	0xbd89095f	-0.066912405
66	0xbc2a12c2	-0.010380449
67	0x3deb09cf	0.1147648
68	0x3db67b47	0.08910232
69	0x3e880010	0.26562548
70	0xbdd26cec	-0.102746814
71	0xbdc78b42	-0.09743358
72	0xbd419b81	-0.04726744
73	0x3e578b6a	0.21049276
74	0x3e4e5ea8	0.20153296
75	0xbe59e8e1	-0.21280243
76	0xbecea458	-0.4035976
77	0x3d459bce	0.04824429
78	0x3dffe818	0.1249544
79	0x3e2e277a	0.17007247
80	0x3dfc138c	0.12308416
81	0xbe290fb2	-0.16509894
82	0xbe783172	-0.24237612
83	0x3d8534e0	0.06504226
84	0x3e92b010	0.2864995
85	0xbe6c351b	-0.23067133
86	0x3de4f94c	0.11180362
87	0x3e7fb955	0.24973042
88	0x3df23a29	0.118274994
89	0xbdfd3b64	-0.123648435
90	0xbe75b8c8	-0.2399627
91	0xbc8aaabe	-0.01692712
92	0xbd4b80d8	-0.04968342
93	0x3ebd5475	0.36978498
94	0x3db286f9	0.0871715
95	0xbdf82816	-0.12117021
96	0x3e9d4eb9	0.30724123
97	0xbe66393c	-0.2248277
98	0x3ea916ef	0.3302531
99	0x3e176a1c	0.14786571
100	0x3e378a8c	0.17923945
101	0x3ddb4e25	0.10708264
102	0xbd147a01	-0.036249164
103	0xbd97a909	-0.07405288
104	0xbe3d993d	-0.18515487
105	0xbef810d0	-0.48450327
106	0xbe3fba3e	-0.1872339
107	0x3deabf37	0.114622526
108	0xbe9465ae	-0.28983825
109	0x3da84969	0.08217127
110	0xbdbca0c9	-0.09210355
111	0x3df4e626	0.1195796
112	0x3d5477fb	0.051872235
113	0x3e1b6b5a	0.1517767
114	0xbe8e7ff8	-0.27832007
115	0xbdbd774f	-0.09251272
116	0x3eab606c	0.33472002
117	0x3e888fae	0.2667212
118	0x3ea465db	0.3210896
119	0x3df73736	0.120710775
120	0xbc82390a	-0.015896339
121	0xbeb92d9f	-0.3616762
122	0x3e9e97f9	0.3097532
123	0x3e191989	0.14951147
124	0xbebbd078	-0.36682487
125	0xbe97f3d0	-0.29678202
126	0xbe4e71f8	-0.20160663
127	0xbdaf6ec5	-0.085660495

conv3.cv1.bn.weight f4 [16]
0	0x3f74667a	0.95468867
1	0x3f646c66	0.892279
2	0x3f80f957	1.0076092
3	0x3f82c8a5	1.0217482
4	0x3f6ed8f1	0.93299776
5	0x3f709ce7	0.93989414
6	0x3f6f02b0	0.93363476
7	0x3f8120f0	1.0088177
8	0x3f887b1c	1.066257
9	0x3f6640d9	0.899427
10	0x3f4bc3a8	0.7959542
11	0x3f80456c	1.0021186
12	0x3f6cf868	0.9256654
13	0x3f67f71b	0.9061143
14	0x3f844177	1.0332478
15	0x3f92107f	1.1411284

conv3.cv1.bn.bias f4 [16]
0	0x3ddc7829	0.10765106
1	0x3da140f9	0.07873721
2	0xbd36f6e1	-0.044669036
3	0x3dda14d8	0.10648507
4	0x3dc8a3c6	0.09796862
5	0xbd0a6d63	-0.033795726
6	0xbdbec2c1	-0.0931449
7	0x3dddb9ce	0.10826455
8	0x3e51ead8	0.20499742
9	0x3e6ba490	0.23011994
10	0xbdd7c1e5	-0.10535029
11	0x3d6ec6f7	0.058295216
12	0x3e3d7ff9	0.18505849
13	0x3c3d8a12	0.011568563
14	0x3dd14e0b	0.10219964
15	0x3e17ec93	0.1483634

conv3.cv1.bn.running_mean f4 [16]
0	0x3d198965	0.037484545
1	0x3d068daf	0.032849964
2	0xbca2e476	-0.01988433
3	0x3cc60ae3	0.024175113
4	0x3c99e3a6	0.018785309
5	0x3dc4bd32	0.09606399
6	0x3b6f02ff	0.0036470292
7	0xbc3d200a	-0.011543283
8	0x3c91cb2b	0.017797073
9	0xbc673938	-0.014112763
10	0x3ce367e9	0.02775951
11	0x3b3151d5	0.0027056832
12	0x3da00acb	0.078145586
13	0xbd35a011	-0.044342104
14	0x3d24d53d	0.040242422
15	0xbcda9466	-0.02668209

conv3.cv1.bn.running_var f4 [16]
0	0x3a9f91b4	0.001217416
1	0x3b3a545e	0.0028431634
2	0x3bcfa5f6	0.0063369228
3	0x3b37c754	0.0028042393
4	0x3b436316	0.0029813698
5	0x3bc6e5a9	0.006069858
6	0x3b294a91	0.0025831799
7	0x3b011884	0.001969845
8	0x3b4ce66f	0.0031265279
9	0x3af20b24	0.0018466455
10	0x3c1c513a	0.00954085
11	0x3a017a21	0.0004939158
12	0x3b11b45e	0.0022232751
13	0x3ad7b157	0.001645605
14	0x3bbb6466	0.0057187555
15	0x3bd75858	0.0065718107

conv3.cv2.0.cv1.conv.weight f4 [4, 8, 1, 1]
0	0xbdff7cd7	-0.12474983
1	0xbdbd712d	-0.09250102
2	0x3d4eab26	0.05045619
3	0x3d18c585	0.037297744
4	0xbe0dc301	-0.1384392
5	0xbe69128b	-0.2276098
6	0x3e6a4e5c	0.22881454
7	0x3e0f1163	0.13971476
8	0x3e2b9931	0.16757657
9	0x3e178b88	0.1479932
10	0xbe543d62	-0.2072654
11	0xbdddf7c0	-0.1083827
12	0xbe8f22ef	-0.2795634
13	0x3e533f89	0.20629705
14	0x3eca0f66	0.39464873
15	0xbcd0ff99	-0.025512503
16	0xbdc39653	-0.095501564
17	0xbe0a5374	-0.13508397
18	0xbdb6e361	-0.08930088
19	0x3ddfc06b	0.10925373
20	0x3ea43c22	0.32077128
21	0x3d2a134d	0.041522313
22	0xbe4a6959	-0.1976675
23	0x3e8d89b9	0.27644137
24	0xbd2552b1	-0.040362064
25	0x3e7eae6a	0.24871221
26	0xbd9b41d5	-0.07580916
27	0xbd2c2651	-0.04202873
28	0x3e803777	0.25042316
29	0xbc525025	-0.012836491
30	0xbe1e28b0	-0.15445209
31	0x3e9a3ced	0.30124608

conv3.cv2.0.cv1.bn.weight f4 [4]
0	0x3f8ffabc	1.1248393
1	0x3f6892c4	0.90848947
2	0x3f6dd671	0.92905337
3	0x3f805bf6	1.0028064

conv3.cv2.0.cv1.bn.bias f4 [4]
0	0x3e2f3d37	0.17113195
1	0x3de03e01	0.10949326
2	0xbd04b8c6	-0.032402776
3	0x3e6d1e27	0.23156033

conv3.cv2.0.cv1.bn.running_mean f4 [4]
0	0xbca5f23a	-0.020257104
1	0x3df3a18d	0.11896048
2	0x3da257c8	0.07926899
3	0x3e2f1c11	0.1710055

conv3.cv2.0.cv1.bn.running_var f4 [4]
0	0x3da22a75	0.07918254
1	0x3d8193f1	0.06327046
2	0x3e43ccc1	0.19121076
3	0x3e39845b	0.18116896

conv3.cv2.0.cv2.conv.weight f4 [4, 8, 1, 1]
0	0xbe4f943f	-0.20271395
1	0x3ea0d1a1	0.31409934
2	0xbe24b9f4	-0.1608656
3	0xbdfcd967	-0.12346154
4	0x3a2cd673	0.0006593235
5	0x3c9541dc	0.01821988
6	0x3d992b57	0.074789695
7	0x3e509c9c	0.20372242
8	0xbe9a0f84	-0.30089962
9	0xbea4a23a	-0.3215502
10	0x3e973440	0.2953205
11	0xbe291aaa	-0.16514078
12	0x3e24b684	0.16085249
13	0xbebf52b8	-0.37367797
14	0x3e8dcd81	0.2769585
15	0xbe4ea8e5	-0.20181616
16	0x3d946ec4	0.07247689
17	0xbe9c06d6	-0.30473965
18	0x3e6bc8eb	0.23025863
19	0xbbc5d94d	-0.006037867
20	0x3e1083e5	0.14112814
21	0xbd9034d6	-0.07041328
22	0xbeaefe9d	-0.3417863
23	0x3e342656	0.17592749
24	0xbd11d9f6	-0.035608254
25	0x3ed8694b	0.42267832
26	0x3df38006	0.11889653
27	0x3dc96dba	0.09835382
28	0xbe3fcb3b	-0.1872987
29	0xbe485466	-0.19563445
30	0xbdf6560d	-0.12028132
31	0x3e8a5891	0.27020696

conv3.cv2.0.cv2.bn.weight f4 [4]
0	0x3f8404ec	1.0314002
1	0x3f884e1d	1.0648838
2	0x3f7db692	0.99106705
3	0x3f7fc0d0	0.99903584

conv3.cv2.0.cv2.bn.bias f4 [4]
0	0x3e7ac96d	0.244909
1	0x3c970e9e	0.018439587
2	0xbd564e2d	-0.052320648
3	0x3e133b49	0.14378084

conv3.cv2.0.cv2.bn.running_mean f4 [4]
0	0x3d9d7ff6	0.07690422
1	0xbe64561b	-0.22298472
2	0xbd64485b	-0.055733066
3	0x3dfd2f33	0.12362518

conv3.cv2.0.cv2.bn.running_var f4 [4]
0	0x3dbcf7e7	0.09226971
1	0x3ebb312f	0.36560962
2	0x3dd2c570	0.102915645
3	0x3d998c70	0.074974895

conv3.cv2.0.cv3.conv.weight f4 [8, 8, 1, 1]
0	0x3e27e9ae	0.16397735
1	0xbd14b379	-0.03630397
2	0x3c2e0212	0.010620611
3	0x3e845a6d	0.2585024
4	0x3ee9b08e	0.45642513
5	0xbeda1a1b	-0.42598042
6	0xbe36f520	-0.17866945
7	0x3efb5b8e	0.49093288
8	0xbe8a7c94	-0.2704817
9	0x3e8c0e19	0.27354506
10	0xbdbeee09	-0.09322745
11	0x3dd9043b	0.1059651
12	0xbe3436c2	-0.17599013
13	0xbe613e62	-0.21996453
14	0xbe8fa5d8	-0.28056216
15	0x3de18639	0.11011929
16	0x3e656e6e	0.22405407
17	0x3e8e833a	0.27834493
18	0xbe6ac9a3	-0.22928481
19	0x3d7d49e5	0.06183805
20	0x39dd98c3	0.0004226622
21	0x3e80fc19	0.25192335
22	0xbe516183	-0.20447354
23	0x3dc9a133	0.098451994
24	0xbeae1414	-0.33999693
25	0xbde54c27	-0.111961655
26	0x3eaeb151	0.34119657
27	0xbe9b9c7c	-0.30392826
28	0xbe975f3f	-0.29564855
29	0xbd6f2fec	-0.05839531
30	0x3e7616e3	0.24032168
31	0xbe83694d	-0.25666276
32	0x3eb563dc	0.3542775
33	0x3e4a8be4	0.19779927
34	0x3e0b0392	0.1357558
35	0x3d81ea32	0.06343497
36	0x3e72a14a	0.2369434
37	0x3e93aae3	0.28841314
38	0xbe880000	-0.265625
39	0xbe584520	-0.21120119
40	0x3ebbce94	0.36681044
41	0xbe47c4f1	-0.19508721
42	0x3e4b5e5f	0.19860218
43	0x3dbdaa4a	0.09260996
44	0xbe97a2e8	-0.29616475
45	0xbe9f8d75	-0.3116261
46	0x3e0d5406	0.13801584
47	0x3e3df845	0.18551739
48	0xbccc591f	-0.02494484
49	0xbd7c2679	-0.061560128
50	0x3e502812	0.20327786
51	0x3e7b052f	0.24513696
52	0xbe4ce0cd	-0.2000763
53	0x3e53dbf9	0.20689382
54	0x3db5b88b	0.088730894
55	0x3e76dfb3	0.24108772
56	0xbdf745f0	-0.120738864
57	0x3e39fd2c	0.18162984
58	0x3da770b9	0.08175797
59	0x3e623e04	0.2209397
60	0x3e8f8f68	0.28039098
61	0x3da92b82	0.082602516
62	0x3d98d61d	0.07462714
63	0xbe435763	-0.19076304

conv3.cv2.0.cv3.bn.weight f4 [8]
0	0x3f87c336	1.0606449
1	0x3f5dac92	0.86591446
2	0x3f8fd573	1.1237015
3	0x3f8551d6	1.0415599
4	0x3f84cd91	1.0375234
5	0x3f71065a	0.94150317
6	0x3f6e9fbb	0.9321248
7	0x3f71e965	0.94496757

conv3.cv2.0.cv3.bn.bias f4 [8]
0	0x3e04c5aa	0.12966028
1	0x3d99b418	0.07505053
2	0x3dc0719f	0.093966715
3	0x3ca3ebba	0.020009864
4	0x3daf80c4	0.08569482
5	0xba81ac5f	-0.000989329
6	0xba825dee	-0.0009946206
7	0x3cba7131	0.022759052

conv3.cv2.0.cv3.bn.running_mean f4 [8]
0	0x3ec73727	0.38909265
1	0xbdffd816	-0.12492387
2	0x3e80e5c5	0.251753
3	0xbedea87b	-0.43487915
4	0x3ed386b6	0.41313714
5	0x3e03a7dc	0.12857002
6	0x3e773c50	0.24144101
7	0x3e83d0ff	0.2574539

conv3.cv2.0.cv3.bn.running_var f4 [8]
0	0x3f323c0a	0.6962286
1	0x3e112eec	0.14178056
2	0x3f0768be	0.528942
3	0x3ee56dd5	0.44810358
4	0x3eb40acc	0.35164487
5	0x3ec13b64	0.37740624
6	0x3e1432a0	0.14472437
7	0x3dd55b38	0.10417789

conv3.cv2.0.m.0.cv1.conv1.conv.weight f4 [4, 4, 3, 3]
0	0xbeabdec6	-0.335684
1	0xbe7c683f	-0.24649142
2	0xbd55c416	-0.052188955
3	0xbe1048ce	-0.14090273
4	0xbd8abdc7	-0.067744784
5	0xbe937e77	-0.28807423
6	0xbdf51fce	-0.11968957
7	0xbbe8b52d	-0.007101676
8	0xbd33e13a	-0.043915965
9	0xbc8120de	-0.015762743
10	0xbe8df989	-0.27729443
11	0xbe1866a4	-0.14882904
12	0xbe648a72	-0.22318438
13	0xbdae9f53	-0.085264824
14	0xbe0775d2	-0.13228539
15	0xbe4263e7	-0.18983422
16	0xbe02eaf7	-0.12784944
17	0xbe103da1	-0.1408601
18	0x3ce2c450	0.0276815
19	0x3c73929e	0.014866499
20	0xbdbe5192	-0.09292902
21	0xbd1f213a	-0.038850047
22	0xbda91f7c	-0.08257958
23	0x3dafc9c3	0.08583405
24	0xbb4360ba	-0.0029812292
25	0xbc0edeca	-0.008720109
26	0x3d5148e9	0.051094923
27	0x3d234de4	0.039869204
28	0xbd0e2bbc	-0.034709677
29	0x3df1eba4	0.11812523
30	0xbdc6ce81	-0.09707356
31	0xbee3506a	-0.4439729
32	0xbe1bc4a1	-0.15211727
33	0xbdc0492a	-0.09388955
34	0xbd7fd39f	-0.062457677
35	0xbd897bb6	-0.06713049
36	0x3e0bb5dd	0.13643594
37	0x3ded8c18	0.115989864
38	0xbda7888f	-0.08180343
39	0x3dfadfea	0.122497395
40	0x3e77d1a8	0.24201071
41	0x3dd29271	0.10281838
42	0x3ccf80cf	0.025329975
43	0x3def717a	0.11691566
44	0x3d7c0e31	0.06153697
45	0xbc053c91	-0.008132116
46	0x3c958ae8	0.018254712
47	0x3badd33e	0.005304723
48	0x3da38599	0.07984466
49	0x3e5d1373	0.2158945
50	0xbcaeef97	-0.02135448
51	0x3dcab1f6	0.098972246
52	0x3de6733b	0.11252447
53	0x3d93705e	0.07199167
54	0xbe36dec7	-0.1785842
55	0xbe44eef4	-0.19231778
56	0xbe37f1a7	-0.17963277
57	0x3df8aee4	0.12142733
58	0xbd5d17df	-0.053977843
59	0x3de16c3b	0.110069714
60	0xbd39c484	-0.045353428
61	0xbe095b2e	-0.13413689
62	0x3cecbacf	0.028897671
63	0xbc11a421	-0.008889229
64	0xbb957bc2	-0.004561872
65	0xbe017f28	-0.12646163
66	0x3db1be73	0.086789034
67	0xbd19a749	-0.03751305
68	0x3dcc4a1c	0.09975073
69	0xbd30b813	-0.043144297
70	0xbdb95502	-0.09049417
71	0xbd930261	-0.07178188
72	0x3db8704d	0.09005795
73	0x3df6cdfa	0.12051006
74	0x3df5ddc0	0.12005186
75	0x3d967486	0.07346444
76	0x3e729ac4	0.23691851
77	0xbdcab3de	-0.09897588
78	0xbd6a9721	-0.057273034
79	0xbc6fddbb	-0.014640267
80	0xbdc372bf	-0.095433705
81	0xbbc5de2a	-0.006038447
82	0xbc8ea429	-0.017412262
83	0x3cdfbc07	0.027311338
84	0xbccf302c	-0.025291525
85	0x3ba4b39b	0.0050262935
86	0xbd143565	-0.036183733
87	0xbde80516	-0.11329095
88	0xbe0fe07a	-0.14050475
89	0xbd5a1458	-0.053242058
90	0xbc24cc0a	-0.010058412
91	0x3df97fa6	0.1218255
92	0x3d807f2d	0.06274257
93	0x3e03717a	0.12836257
94	0xbe1020b0	-0.1407497
95	0x3c7cadb1	0.015422271
96	0xbdc1e4fa	-0.09467502
97	0xbd6c9a35	-0.05776425
98	0xbbaca3e6	-0.0052685617
99	0x3d174e65	0.036939997
100	0xbd3e3aed	-0.046442915
101	0x3e25aaec	0.16178483
102	0xbc643e0b	-0.013930808
103	0x3d26cc80	0.04072237
104	0x3dc3f741	0.09568644
105	0xba954031	-0.0011386928
106	0xbde37ff3	-0.11108389
107	0xbc7ce997	-0.0154365515
108	0xbdb56f74	-0.088591486
109	0xbd3d70af	-0.04625004
110	0x3dc5f363	0.09665563
111	0xbe1a4b0d	-0.15067692
112	0xbe50ea1e	-0.20401809
113	0xbe7edada	-0.24888173
114	0x3d8c5bd1	0.0685345
115	0x3d81698c	0.063189596
116	0x3e36370b	0.17794435
117	0x3de847e2	0.113418356
118	0x3c82075e	0.015872654
119	0x3cec0aa7	0.028813673
120	0x3dd25c9a	0.102715686
121	0x3e69f33b	0.22846691
122	0x3d6cdabe	0.057825796
123	0xbd830fef	-0.063995235
124	0x3d14f735	0.036368567
125	0x39bce772	0.00036030594
126	0xbdaf8f34	-0.08572236
127	0xbc0ba514	-0.008523244
128	0xbccaa085	-0.024734745
129	0xbd5c6071	-0.05380291
130	0x3c92e4ed	0.017931426
131	0xbc0f9729	-0.008764067
132	0xbb81e944	-0.003964575
133	0xbe183c44	-0.1486674
134	0xbd63453f	-0.05548596
135	0xbe1cc967	-0.15311204
136	0xbdef6246	-0.11688666
137	0x3cf14e07	0.029456152
138	0x3a3ffa14	0.00073233363
139	0xbcfb1eb2	-0.030654285
140	0x3dbfc68b	0.09364041
141	0xbd6e14e9	-0.05812541
142	0xbe42e6e9	-0.19033398
143	0x3d96a74c	0.07356128

conv3.cv2.0.m.0.cv1.conv1.bn.weight f4 [4]
0	0x3f7d95f3	0.9905693
1	0x3f83eb87	1.0306252
2	0x3f5b545a	0.85675585
3	0x3f71f8a1	0.9452

conv3.cv2.0.m.0.cv1.conv1.bn.bias f4 [4]
0	0xbc8e7641	-0.017390372
1	0x3d14d7db	0.03633867
2	0x3d20dfe9	0.039276037
3	0x3d59ef20	0.053206563

conv3.cv2.0.m.0.cv1.conv1.bn.running_mean f4 [4]
0	0xbf7e4257	-0.99319977
1	0x3e833760	0.25628185
2	0x3dd57d9d	0.104243495
3	0xbe3ae692	-0.18252018

conv3.cv2.0.m.0.cv1.conv1.bn.running_var f4 [4]
0	0x3ecd38c1	0.40082362
1	0x3efa4c32	0.48886257
2	0x3db1dfa3	0.086852334
3	0x3e2ee883	0.17080884

conv3.cv2.0.m.0.cv1.conv2.conv.weight f4 [4, 4, 1, 1]
0	0xbefe2d13	-0.49643764
1	0x3e439eee	0.19103596
2	0x3ebd7e93	0.3701063
3	0x3e1d7d50	0.15379834
4	0xbe9bc29c	-0.30421913
5	0xbe5ab82d	-0.2135932
6	0x3eb83245	0.35975853
7	0xbe61284e	-0.21988031
8	0x3e7503b6	0.23927197
9	0x3db2517b	0.087069474
10	0x3ec39c0a	0.38204986
11	0xbe1ed543	-0.1551104
12	0xbe815589	-0.2526057
13	0xbe15ea53	-0.14640169
14	0xbd89c2f1	-0.06726635
15	0xbdb90a89	-0.090352125

conv3.cv2.0.m.0.cv1.conv2.bn.weight f4 [4]
0	0x3f623272	0.88358223
1	0x3f643be4	0.89153886
2	0x3f6f420b	0.9346015
3	0x3f68e04a	0.9096724

conv3.cv2.0.m.0.cv1.conv2.bn.bias f4 [4]
0	0xbc8e7641	-0.017390372
1	0x3d14d7db	0.03633867
2	0x3d20dfe9	0.039276037
3	0x3d59ef20	0.053206563

conv3.cv2.0.m.0.cv1.conv2.bn.running_mean f4 [4]
0	0xbc5a212f	-0.013313576
1	0xbe27907d	-0.16363712
2	0x3dde8643	0.10865452
3	0xbe20d3a3	-0.15705733

conv3.cv2.0.m.0.cv1.conv2.bn.running_var f4 [4]
0	0x3e7c6ad2	0.24650124
1	0x3e01d9b3	0.12680702
2	0x3d1ebe16	0.0387555
3	0x3d2586f6	0.040411912

conv3.cv2.0.m.0.cv2.conv.weight f4 [4, 4, 3, 3]
0	0x3dbc6c7f	0.092003815
1	0x3d870a9b	0.0659382
2	0x3e426043	0.18982033
3	0xbd246d62	-0.040143378
4	0x3e062330	0.1309936
5	0x3d523836	0.05132314
6	0x3caa0ba9	0.020757513
7	0xbc595466	-0.013264751
8	0x3c9c4453	0.019075548
9	0xbc3dcc36	-0.011584332
10	0x3d2e044d	0.04248457
11	0x3db1d085	0.0868235
12	0xbe143d0c	-0.14476413
13	0xbda03b00	-0.07823753
14	0xbbe2ed03	-0.0069252267
15	0x3cad298f	0.02113798
16	0x3d93c1a5	0.07214669
17	0xbdd58d00	-0.10427284
18	0x3d8a5499	0.06754417
19	0x3c105d78	0.008811347
20	0x3d7f5c4e	0.062343888
21	0x3ccf3ea9	0.025298433
22	0xbdc49aa7	-0.0959981
23	0xbd9aabb0	-0.07552278
24	0x3beb1652	0.0071742916
25	0xbc066aa1	-0.008204133
26	0x3c9b21d6	0.018937033
27	0x380ff623	3.432309e-05
28	0xbd91e121	-0.07123018
29	0xbdcec28e	-0.10095702
30	0x3d609aea	0.054835238
31	0x3cb9175b	0.022594145
32	0xbe46593c	-0.19369978
33	0xbd76348c	-0.060108706
34	0xbe007a20	-0.12546587
35	0xbd9bb975	-0.076037325
36	0xbdafb54f	-0.08579504
37	0x3ce868f6	0.028370362
38	0xbdfe7cc1	-0.12426139
39	0xbe125452	-0.14289978
40	0x3d46fbb2	0.04857988
41	0x3d046084	0.032318607
42	0x3dc575a1	0.096415766
43	0x3d1aba20	0.03777516
44	0xbdc61834	-0.09672585
45	0xbde016d5	-0.10941855
46	0xbda3ebdc	-0.08003971
47	0xbc26834f	-0.010163142
48	0x3dae280f	0.08503734
49	0x3d3a9d94	0.045560434
50	0x3dbc06bb	0.09180971
51	0xbdaab2ae	-0.08334862
52	0xb8f85d5a	-0.000118429496
53	0x3e0dd778	0.13851726
54	0xbd49e817	-0.049293604
55	0xbcbc9adf	-0.023023067
56	0xbd0c0558	-0.034184784
57	0xbd9254fd	-0.071451165
58	0x3ea23636	0.31681985
59	0x3db337d6	0.08750884
60	0x3dcdff0f	0.10058414
61	0x3d65bfb5	0.05609103
62	0x3cd27513	0.025690591
63	0x3d5517a2	0.05202449
64	0x3d318d61	0.04334772
65	0x3e08a721	0.13345005
66	0xbde1067c	-0.10987565
67	0xbeb97b98	-0.36227107
68	0xbd9ac8dc	-0.07557842
69	0xbd335960	-0.043786407
70	0x3c96ba1c	0.01839929
71	0xbcf69b53	-0.030103361
72	0x3d8f1edb	0.06988307
73	0x3e36451e	0.17799804
74	0x3d357872	0.04430432
75	0x3cd49538	0.02595006
76	0x3db6cbe6	0.08925609
77	0xbd39a3c5	-0.0453222
78	0x3e2492de	0.1607165
79	0x3ba11309	0.0049155992
80	0x3e0c3c3b	0.13694851
81	0x3d9e8a25	0.07741193
82	0xbdea7499	-0.114480205
83	0xb9fc2a1a	-0.00048096554
84	0xbd6f99c7	-0.058496263
85	0xbe23d322	-0.1599851
86	0xbe8dbae8	-0.2768166
87	0x3d626345	0.055270452
88	0xbdaa882b	-0.08326753
89	0xbe1fdd5d	-0.15611787
90	0x3de3fb2d	0.11131892
91	0x3c0a7ffc	0.008453365
92	0x3d3d31fc	0.046190247
93	0xbd2bae6a	-0.04191438
94	0xbc68bdaf	-0.01420538
95	0x3d7f5ca8	0.062344223
96	0x3c62211a	0.013801837
97	0x3c13f31f	0.009030133
98	0x3c84559c	0.016154103
99	0xbe161969	-0.1465813
100	0xbe75049c	-0.2392754
101	0xbf120eff	-0.5705413
102	0xbbab8ffc	-0.00523567
103	0xbea5e864	-0.32403862
104	0xbe918755	-0.28423563
105	0xbd0c037d	-0.034183014
106	0xbed8aa2e	-0.42317337
107	0xbe9ea00c	-0.3098148
108	0x3c1f5d9d	0.009726909
109	0xbdd4db5c	-0.10393402
110	0x3bc12bfd	0.0058951364
111	0x3e251239	0.16120233
112	0x3dc747fb	0.09730526
113	0xbdacf5f3	-0.084453486
114	0xbdf3cb87	-0.11904054
115	0x3b15ccd9	0.0022857694
116	0xbd9fa5c6	-0.07795291
117	0xbc1c7efe	-0.009551762
118	0xbe23ba59	-0.15989055
119	0x3df5d36c	0.12003216
120	0x3d82dc7f	0.063897125
121	0x3e54ec2d	0.20793219
122	0x3df9368f	0.12168609
123	0xbc95a8b8	-0.018268928
124	0x3df5fe8d	0.12011442
125	0x3d7cc1a1	0.061708096
126	0xbd02e5f6	-0.03195759
127	0xbd72d74b	-0.05928735
128	0xbd17b026	-0.037033223
129	0xb9e1b65f	-0.0004305122
130	0x3d95bb0a	0.073110655
131	0xbdb20397	-0.08692091
132	0xbd20ae1d	-0.039228547
133	0xbc0d05f7	-0.008607379
134	0x3cbe0881	0.023197414
135	0x3d465139	0.048417304
136	0xbca8449c	-0.020540528
137	0x3d91abb1	0.07112826
138	0x3d02361f	0.031789895
139	0xbd66acc5	-0.05631711
140	0x3d6a5cc0	0.05721736
141	0xbc87d2c5	-0.016579995
142	0x3d88118b	0.06643971
143	0xbde7e70e	-0.11323367

conv3.cv2.0.m.0.cv2.bn.weight f4 [4]
0	0x3f661414	0.89874387
1	0x3f811908	1.0085764
2	0x3f802a0f	1.0012835
3	0x3f6be9a1	0.92153364

conv3.cv2.0.m.0.cv2.bn.bias f4 [4]
0	0x3d7d3d8b	0.06182627
1	0x3df6615a	0.12030287
2	0x3c324f27	0.010883129
3	0x3e102b77	0.1407908

conv3.cv2.0.m.0.cv2.bn.running_mean f4 [4]
0	0xbd6cb7b3	-0.057792377
1	0xbbfd2b57	-0.007726114
2	0xbf36681b	-0.712526
3	0x3c936914	0.017994441

conv3.cv2.0.m.0.cv2.bn.running_var f4 [4]
0	0x3e74b9cf	0.23899005
1	0x3ec998d8	0.39374423
2	0x3f9c54a9	1.2213336
3	0x3d984a76	0.07436077

conv3.cv2.1.conv.weight f4 [8, 8, 3, 3]
0	0xbc4668a4	-0.012109909
1	0x3db73d93	0.08947291
2	0xbd2c79a3	-0.04210819
3	0xbd17dc94	-0.037075594
4	0x3c07d6cb	0.008290957
5	0xbc6486d7	-0.013948164
6	0x3c26d69e	0.010183005
7	0xbdc35f8e	-0.0953971
8	0xba766ff1	-0.0009400836
9	0x3d04eb6f	0.03245109
10	0xbc848f8a	-0.016181726
11	0x3c95b5a5	0.018275091
12	0xbd99eb15	-0.075155415
13	0x3d236870	0.03989452
14	0xbcc124c1	-0.023577096
15	0xbb6d85fb	-0.0036243189
16	0xbe40e430	-0.18837047
17	0xbd55d2ef	-0.052203115
18	0xbd6bb100	-0.057541847
19	0x3cb2da84	0.021832712
20	0xbdf74753	-0.12074151
21	0xbcab7dcb	-0.020934006
22	0x3db9ea0a	0.090778425
23	0x3dd9b7bd	0.106307484
24	0x3957610a	0.00020540148
25	0x3a28d0e5	0.0006439819
26	0xbd7d4cb7	-0.06184074
27	0x3da682ad	0.08130393
28	0x3dc40e07	0.09572988
29	0x3ded94ca	0.11600645
30	0x3d513db8	0.05108425
31	0x3b8cabbf	0.0042929347
32	0x3d3acaa5	0.045603413
33	0xbd330bea	-0.043712534
34	0xbc22a442	-0.009926857
35	0x3b6d7e19	0.003623849
36	0x3d315303	0.043292057
37	0xbd415bc7	-0.047206666
38	0x3db3bda1	0.08776403
39	0xbd3b5897	-0.045738783
40	0x3d3bdf4a	0.045867242
41	0x3e672869	0.22574009
42	0xbd2ef9ec	-0.042718813
43	0x3d0aba90	0.033869326
44	0x3bf7c91e	0.007561817
45	0x3dac2b69	0.08406717
46	0x3e0795ec	0.13240784
47	0x3cf605e5	0.030032108
48	0xbaae9020	-0.0013318099
49	0xbbfe4493	-0.0077596395
50	0x3dff8c03	0.12477877
51	0x3cb1a0bb	0.021683088
52	0x3d95765a	0.072979644
53	0x3dddf27a	0.10837264
54	0xbd541f42	-0.051787622
55	0xbca3031a	-0.01989894
56	0xbce8f752	-0.028438244
57	0x3cb50371	0.022096368
58	0xbe037327	-0.12836896
59	0xbd1d2266	-0.038362883
60	0xbc93dffd	-0.018051142
61	0x3ca3c42f	0.019991009
62	0xbd2dd0af	-0.042435344
63	0x3ae814f0	0.0017706435
64	0x3da9eafd	0.082967736
65	0xbdbe2f2f	-0.09286343
66	0xbdecb714	-0.11558357
67	0xbe232b33	-0.15934448
68	0x3d0673c6	0.032825254
69	0xbd380d39	-0.044934485
70	0x3dc5ffad	0.09667907
71	0x3c4081ca	0.011749694
72	0xbe0bac55	-0.13639958
73	0xbdcb9624	-0.099407464
74	0x3cd33bf2	0.02578542
75	0xbda799ab	-0.08183607
76	0xbe88e61a	-0.26738054
77	0xbdd0b767	-0.10191231
78	0xbd3a2f71	-0.0454554
79	0xbc57b5b9	-0.013165885
80	0xbd7d7143	-0.061875593
81	0xbd9a263c	-0.07526824
82	0xbd9710e3	-0.07376268
83	0xbd95549d	-0.07291529
84	0xbc08ccca	-0.008349607
85	0x3d44cced	0.048046995
86	0x3c607cda	0.013701642
87	0xbd44cc34	-0.048046306
88	0xbdfa9415	-0.12235276
89	0xbc88b0b7	-0.016685827
90	0xbe35cbee	-0.17753574
91	0xbe12fc00	-0.14353943
92	0xbda857fd	-0.082199074
93	0xbcb22a1d	-0.021748597
94	0xbcc19dcf	-0.02363482
95	0xbb177fbc	-0.0023116907
96	0xbe017cd0	-0.12645268
97	0xbe6a8056	-0.22900519
98	0xbdb5c535	-0.08875505
99	0xbcfa9291	-0.030587466
100	0x3c81692b	0.015797218
101	0x3cf81b24	0.03028638
102	0xbbaa27e3	-0.005192743
103	0xbcdc1184	-0.02686382
104	0xbc2b8370	-0.010468349
105	0x3d90bbce	0.07067071
106	0xbd547291	-0.05186707
107	0x3d5633ee	0.052295618
108	0x3c191223	0.009342703
109	0xbe5ba8aa	-0.21451059
110	0xbcbd2f0c	-0.023093723
111	0x3cedc6c8	0.02902545
112	0x3cb2334a	0.021752972
113	0xbd0697d4	-0.03285964
114	0x3e0e5765	0.13900526
115	0xbd2750bb	-0.040848475
116	0x3c6b6bde	0.014368979
117	0x3c876cd8	0.016531393
118	0x3cffeeca	0.031241793
119	0x3bb05f5a	0.0053824605
120	0xbd337209	-0.043809924
121	0xbdd4e5ef	-0.10395419
122	0x3dae973d	0.0852494
123	0x3e05ba91	0.1305945
124	0x3d0a1c3e	0.03371834
125	0x3dd26637	0.10273402
126	0xbcce76d9	-0.025203155
127	0x3db95da0	0.09051061
128	0xbb7f7d1a	-0.0038984478
129	0x3d6cf115	0.0578471
130	0x3e2e7873	0.17038135
131	0x3dd0fc3b	0.10204359
132	0x3d84f3a8	0.06491786
133	0x3b9f6a9f	0.004865005
134	0x3def9257	0.11697834
135	0xbd40d891	-0.047081534
136	0x3d5a45cb	0.053289216
137	0xbd69132b	-0.056903046
138	0x3d84eced	0.064905025
139	0x3d97ffeb	0.07421859
140	0x3e14a050	0.1451428
141	0x3c465887	0.0121060675
142	0xbd1cc409	-0.03827289
143	0xbd864c91	-0.06557573
144	0xbe10902b	-0.14117496
145	0xbe360824	-0.17776543
146	0x3c97bf79	0.018523918
147	0xbcba5284	-0.022744425
148	0xbe980a45	-0.29695335
149	0xbc605982	-0.013693215
150	0xbded2c25	-0.115806855
151	0xbd823696	-0.06358068
152	0x3c722717	0.014779828
153	0x3d08b579	0.03337619
154	0xbdf44a57	-0.11928242
155	0xbe0e8d8d	-0.13921185
156	0x3ddb3fdb	0.10705539
157	0x3cc5f3d7	0.024164123
158	0xbe77abb7	-0.24186598
159	0x3d8845d5	0.066539444
160	0xbdbfd9eb	-0.093677364
161	0xbd12150f	-0.035664614
162	0x3c611591	0.013738052
163	0xbe6b5e3c	-0.22985166
164	0xbdd5bcbf	-0.10436391
165	0x3cfd6313	0.030931031
166	0xbe399653	-0.1812375
167	0xbdfc0bec	-0.123069614
168	0xbcb304cf	-0.021852879
169	0xbe3ddc66	-0.18541107
170	0xbdb1ef51	-0.08688224
171	0x3e15c318	0.14625204
172	0x3e8b7f83	0.2724572
173	0x3e224972	0.1584833
174	0xbbac33a6	-0.0052551804
175	0x3e2c815d	0.16846223
176	0x3dd7a339	0.10529179
177	0x3e4b85c4	0.19875246
178	0x3e28a643	0.16469674
179	0x3e18fc4d	0.14939995
180	0xbce4a07d	-0.027908558
181	0xbd88a694	-0.06672397
182	0x3b40015d	0.0029297688
183	0xb980de16	-0.0002457953
184	0xbd37b0d7	-0.044846382
185	0xbce2529c	-0.027627282
186	0x3d86ef3c	0.06588599
187	0xbc832dc9	-0.016013043
188	0x3da2b8fb	0.079454385
189	0x3da5bf29	0.080931015
190	0x3d4382cc	0.04773216
191	0x3e4c7c56	0.19969305
192	0x3d982c1d	0.07430289
193	0x3e20582a	0.15658632
194	0x3dd60ed8	0.1045205
195	0x3e0bccae	0.13652298
196	0x3d27d768	0.04097691
197	0x3df1b2f5	0.118017115
198	0xbd30584f	-0.043052968
199	0x3dd75b3b	0.10515448
200	0x3db0d40b	0.08634194
201	0xbc4be04c	-0.012443613
202	0xbd7bff17	-0.06152257
203	0x3e048f22	0.12945226
204	0x3c917251	0.017754706
205	0x3c02675b	0.007959212
206	0x3d88e2f4	0.06683913
207	0x3d9eff81	0.07763577
208	0x3d95ad82	0.073084846
209	0x3d839370	0.06424606
210	0xbd6634b4	-0.056202605
211	0xbdbe2bd9	-0.09285707
212	0xbd17f598	-0.03709945
213	0xbd01434f	-0.03155833
214	0xbd347615	-0.044057924
215	0x3c9102d2	0.01770154
216	0xbd22af67	-0.039718058
217	0xbe70d16f	-0.23517393
218	0xbe0972a0	-0.13422632
219	0xbd6f2576	-0.058385335
220	0xbec8e930	-0.39240408
221	0xbd37d347	-0.044879224
222	0xbce2b518	-0.027674243
223	0xbdc64aeb	-0.09682258
224	0xbdbfa95d	-0.09358475
225	0xbd93fd92	-0.07226099
226	0xbc934759	-0.017978357
227	0x3ce62f7d	0.028098816
228	0xbdb2cf03	-0.087308906
229	0xbde66c21	-0.11251093
230	0x3d30502c	0.043045208
231	0xbd874260	-0.06604457
232	0x3c5e3912	0.013563411
233	0x3d8b236c	0.067938656
234	0xbc689b9d	-0.014197257
235	0xbcba7b3f	-0.022763846
236	0x3d35b792	0.04436452
237	0xbc513767	-0.012769557
238	0x3cb8f11d	0.02257591
239	0xbd2ba900	-0.041909218
240	0xbcaf3fd6	-0.021392744
241	0xbd7ecbcc	-0.062206075
242	0x3bc30687	0.005951706
243	0xbe1fd0e9	-0.15607037
244	0xbdbc6f11	-0.09200872
245	0xbdb6c3b2	-0.08924045
246	0xbe3ffa26	-0.18747768
247	0xbe1e841e	-0.15480086
248	0xbd72ac2d	-0.05924623
249	0xbd4bfbd1	-0.049800698
250	0xbd3d71d9	-0.04625115
251	0xbd9e2ab9	-0.077229924
252	0x3d7c1d4f	0.06155139
253	0x3dcb7233	0.09933891
254	0x3d8e0cc4	0.069360286
255	0xbca89e88	-0.020583406

conv3.cv2.1.bn.weight f4 [8]
0	0x3f6aa584	0.91658807
1	0x3f743368	0.9539094
2	0x3f8a1173	1.0786575
3	0x3f6c6b73	0.92351454
4	0x3f8f4ee4	1.119595
5	0x3f77bb7b	0.9677045
6	0x3f814084	1.0097814
7	0x3f8040a3	1.0019726

conv3.cv2.1.bn.bias f4 [8]
0	0xbc2b93ee	-0.010472281
1	0x3b6e67ad	0.0036377714
2	0x3c0b78aa	0.008512655
3	0x3ac5ab0f	0.0015080887
4	0x3d69fcde	0.05712592
5	0x3ce72723	0.028216904
6	0xbbced62e	-0.0063121533
7	0x3cba1623	0.022715634

conv3.cv2.1.bn.running_mean f4 [8]
0	0x3d8eed96	0.0697891
1	0xbec53150	-0.38514185
2	0xbd0cfe9e	-0.03442251
3	0xbf03464d	-0.51279145
4	0x3e81062d	0.25200024
5	0xbe04ff4b	-0.12988012
6	0x3d348c2d	0.044078995
7	0xbf00c33b	-0.502979

conv3.cv2.1.bn.running_var f4 [8]
0	0x3eb44981	0.3521233
1	0x3f6d4ad1	0.92692286
2	0x404dbcbc	3.2146444
3	0x3e89cb62	0.2691298
4	0x3f055bb7	0.5209307
5	0x3ec18bd3	0.3780199
6	0x3ee71c9c	0.45139015
7	0x3ee445a3	0.4458438

conv3.cv3.0.cv1.conv.weight f4 [4, 8, 1, 1]
0	0x3df5767f	0.11985492
1	0xbe67c267	-0.22632752
2	0x3ebb861f	0.36625764
3	0xbe06c649	-0.13161577
4	0x3e40be92	0.18822697
5	0xbc9e5f8e	-0.019332673
6	0xbebae600	-0.365036
7	0x3e7603b0	0.24024844
8	0xbe960215	-0.29298463
9	0x3e650e0c	0.2236864
10	0xbe9c88cb	-0.30573115
11	0x3d9dc143	0.07702877
12	0x3e69275d	0.22768922
13	0x3d93a322	0.072088495
14	0xbe18b606	-0.14913186
15	0xbdefdbdc	-0.11711857
16	0xbece6261	-0.40309432
17	0x3ec674c1	0.3876095
18	0xbe80ce13	-0.25157222
19	0x3dac8fca	0.08425863
20	0x3c56d128	0.01311139
21	0x3dcf1a15	0.10112397
22	0xbd5e7911	-0.054314677
23	0xbe4767db	-0.19473211
24	0x3e10bb99	0.14134063
25	0x3e447dca	0.1918861
26	0xbeae6bc8	-0.34066606
27	0xb9d39dd5	-0.0004036265
28	0xbddd8a09	-0.10817344
29	0xbe449173	-0.1919611
30	0xbdcb757c	-0.09934518
31	0x3e88b4fe	0.26700586

conv3.cv3.0.cv1.bn.weight f4 [4]
0	0x3f770b3a	0.96501505
1	0x3f61c2e8	0.8818803
2	0x3f8146d4	1.009974
3	0x3f7bbc2b	0.98333997

conv3.cv3.0.cv1.bn.bias f4 [4]
0	0xbc90764e	-0.017634537
1	0xbd39a30a	-0.0453215
2	0xbd8c42c8	-0.06848675
3	0x3d363e7c	0.044493183

conv3.cv3.0.cv1.bn.running_mean f4 [4]
0	0x3d7b5024	0.061355725
1	0xbd20e4e9	-0.039280806
2	0xbd856599	-0.06513519
3	0xbd22ce1a	-0.039747335

conv3.cv3.0.cv1.bn.running_var f4 [4]
0	0x3e6ce196	0.23132929
1	0x3da65595	0.08121792
2	0x3debb1d4	0.115085274
3	0x3cfb910b	0.03070881

conv3.cv3.0.cv2.conv.weight f4 [4, 8, 1, 1]
0	0x3e904e8d	0.2818493
1	0x3bb9b489	0.0056672734
2	0xbeb74d0e	-0.35800976
3	0x3e910283	0.2832223
4	0x3eb039aa	0.34418994
5	0x3d34ef68	0.044173628
6	0x3ec91394	0.3927275
7	0xbd673781	-0.056449417
8	0x3e313b3d	0.17307754
9	0x3e871aa8	0.26387525
10	0xbebb0e9f	-0.36534593
11	0x3dc52761	0.096266516
12	0xbeb1660a	-0.34648162
13	0xbda8a41c	-0.082344264
14	0xbe0c56cf	-0.1370499
15	0x3df02c15	0.11727158
16	0xbda28a7e	-0.079365715
17	0x3ee3da86	0.44502658
18	0x3f018d96	0.5060667
19	0xbe5e64cd	-0.2171814
20	0x3da6513f	0.08120965
21	0x3f0b04d1	0.54304224
22	0xbe75a66a	-0.23989263
23	0x3ef6bd63	0.48191366
24	0x3dd56321	0.10419298
25	0xbceb1d9e	-0.028700646
26	0x3e3613af	0.17780946
27	0xbd843c9a	-0.06456871
28	0x3ddacc08	0.10683447
29	0xbe40b127	-0.18817578
30	0x3cdeb586	0.027186166
31	0xbeae76df	-0.34075066

conv3.cv3.0.cv2.bn.weight f4 [4]
0	0x3f93ea15	1.1555811
1	0x3f8414b3	1.0318817
2	0x3f983821	1.1892129
3	0x3f70b8e4	0.9403212

conv3.cv3.0.cv2.bn.bias f4 [4]
0	0x3d58273f	0.052771803
1	0xbc4ca05d	-0.012489405
2	0x3e39e78f	0.18154739
3	0xbd912378	-0.07086843

conv3.cv3.0.cv2.bn.running_mean f4 [4]
0	0x3e352b3f	0.17692278
1	0xbdb571ef	-0.08859622
2	0x3ea0aaa7	0.31380197
3	0xbd23148e	-0.039814524

conv3.cv3.0.cv2.bn.running_var f4 [4]
0	0x3efa6ef2	0.4891277
1	0x3dfd7543	0.123758815
2	0x3f5a9d59	0.85396343
3	0x3d89e445	0.06732992

conv3.cv3.0.cv3.conv.weight f4 [8, 8, 1, 1]
0	0xbeae2050	-0.34009027
1	0x3ea96ebd	0.330923
2	0xbe46d9cb	-0.19419019
3	0x3e909381	0.28237537
4	0x3c58f8ca	0.01324291
5	0xbeaea365	-0.34109035
6	0xbe6eb873	-0.2331255
7	0x3dfaebe8	0.12252027
8	0xbe1ddd17	-0.1541637
9	0xbee5bd18	-0.4487083
10	0x3e9341c1	0.28761104
11	0xbe83aed3	-0.25719318
12	0x3e02c1ce	0.12769243
13	0x3e321d3d	0.17393966
14	0xbe3f0152	-0.18652847
15	0xbd65f8b1	-0.056145374
16	0x3e2f2d5a	0.17107144
17	0x3de26b6c	0.11055645
18	0xbe9736c7	-0.2953398
19	0xbe2ccd26	-0.16875133
20	0x3f075531	0.52864367
21	0xbf172b14	-0.59050107
22	0x3e923563	0.28556356
23	0x3e030641	0.12795354
24	0xbda3c9a3	-0.079974435
25	0x3ea70cf5	0.32627073
26	0xbdc84ec5	-0.09780649
27	0x3e52a1cb	0.20569532
28	0x3d997edb	0.07494899
29	0x3dfe56c1	0.12418891
30	0xbe0e9ae4	-0.13926274
31	0xbeaa4ae3	-0.3326026
32	0xbea0048c	-0.3125347
33	0x3eb0a38a	0.3449977
34	0x3e8ed5d7	0.27897522
35	0x3e3e7e10	0.18602777
36	0xbe02d6b8	-0.12777221
37	0x3ebecac7	0.37264082
38	0xbe04e573	-0.12978153
39	0xbea8e544	-0.32987416
40	0x3ea3ff7f	0.32030866
41	0x3e8400ba	0.25781804
42	0xbdaca181	-0.08429242
43	0xbd858f08	-0.06521422
44	0xbeeb1829	-0.4591687
45	0xbd8eb673	-0.06968393
46	0x3e5ce0b4	0.21570092
47	0xbe3807ee	-0.17971775
48	0xbe6c8de4	-0.23101002
49	0x3d8d7685	0.069073714
50	0x3caf6437	0.02141009
51	0x3ec46166	0.3835556
52	0xbdd9efc3	-0.10641434
53	0x3e1fabce	0.15592882
54	0x3d3a4a55	0.045481045
55	0xbd283a5a	-0.041071273
56	0xbe89bcc1	-0.2690182
57	0x3ed578d0	0.41693735
58	0x3e061391	0.13093401
59	0x3e0049ad	0.12528105
60	0x3e867cf9	0.26267222
61	0x3e2398f0	0.1597631
62	0xbe4b88f7	-0.19876467
63	0x3ea4558e	0.32096523

conv3.cv3.0.cv3.bn.weight f4 [8]
0	0x3f83a003	1.0283207
1	0x3f6b7ba6	0.9198555
2	0x3f97e831	1.1867734
3	0x3f6e2081	0.9301835
4	0x3f7d3514	0.98909116
5	0x3f8bfc19	1.0936309
6	0x3f8bba31	1.0916196
7	0x3f845c53	1.0340675

conv3.cv3.0.cv3.bn.bias f4 [8]
0	0x3d3a8519	0.045537088
1	0xbe27e580	-0.16396141
2	0x3d00532a	0.03132931
3	0xbdd8d57e	-0.105875954
4	0xbdf39ca5	-0.11895112
5	0x3d2ed6c9	0.042685304
6	0x3d0b129e	0.0339533
7	0xbdd7cf1c	-0.1053755

conv3.cv3.0.cv3.bn.running_mean f4 [8]
0	0xbe004544	-0.12526423
1	0xbe78bfbc	-0.24291891
2	0x3dd8ccf1	0.105859645
3	0x3d592fd2	0.05302412
4	0x3cef320c	0.029198669
5	0x3df0677d	0.11738489
6	0x3d916feb	0.07101425
7	0x3e04f79e	0.12985083

conv3.cv3.0.cv3.bn.running_var f4 [8]
0	0x3f07cbe5	0.53045493
1	0x3f2fb4ba	0.6863514
2	0x3f51fe30	0.82028484
3	0x3e8ee230	0.27906942
4	0x3f2f88b6	0.6856798
5	0x3f7e52db	0.9934518
6	0x3ea3133c	0.31850612
7	0x3f14e525	0.58162147

conv3.cv3.0.m.0.cv1.conv1.conv.weight f4 [4, 4, 3, 3]
0	0xbe25412f	-0.16138147
1	0x3ba1c5e7	0.004936922
2	0xbe285100	-0.16437149
3	0xbde8538a	-0.11344059
4	0xbe5c4f8d	-0.21514721
5	0xbdb3664f	-0.08759748
6	0xbe05fb92	-0.13084248
7	0x3c5ea82f	0.013589903
8	0xbd563b66	-0.05230274
9	0xbd9e40d8	-0.07727212
10	0xbd5e7036	-0.05430623
11	0xbd9b0395	-0.075690426
12	0x3c9f33c5	0.019433865
13	0xbdb7c10d	-0.089723684
14	0xbde80a87	-0.11330133
15	0xbc996cd8	-0.018728659
16	0x3df25caa	0.118340805
17	0x3d645b0c	0.05575089
18	0xbe214105	-0.15747459
19	0x3b03c382	0.0020105545
20	0xbdd462e2	-0.10370423
21	0x3df7ab9e	0.1209328
22	0xbe015960	-0.1263175
23	0xbc925c64	-0.01786632
24	0xbd9cfeef	-0.07665812
25	0x3de419cf	0.11137735
26	0x3e387f55	0.18017323
27	0xbdb9f344	-0.09079602
28	0x3db634e1	0.088968046
29	0xbe684987	-0.22684298
30	0xbe4f8ec1	-0.202693
31	0xbe84dbf2	-0.25949055
32	0x3d96c8c3	0.07362511
33	0x3c8dbe17	0.017302556
34	0x3dce2200	0.10065079
35	0xbd8f7d1a	-0.07006283
36	0x3da6eeef	0.08151042
37	0x3d069a1e	0.03286182
38	0x3c7435e9	0.014905431
39	0xbd0fbac1	-0.03509021
40	0xbda61d23	-0.08111026
41	0xbe36d115	-0.17853196
42	0x3c618ed3	0.013766962
43	0xbdd53023	-0.10409572
44	0xbda6b201	-0.0813942
45	0xbe24e7be	-0.16104028
46	0xbd687eb6	-0.056761466
47	0xbd8a5d6f	-0.06756102
48	0x3d2b9bad	0.04189651
49	0x3c496a02	0.012293341
50	0xbd3cfd5b	-0.046140056
51	0xbcb057cb	-0.021526238
52	0xbd2789e3	-0.040902983
53	0x3e1dcd74	0.15410405
54	0x3dd418f9	0.10356326
55	0x3d215bdd	0.03939425
56	0xbc774ee6	-0.015094494
57	0xbd5ec5a4	-0.054387704
58	0xbd5eb9a4	-0.05437626
59	0xbe11716e	-0.14203426
60	0x3d3fea7b	0.046854477
61	0xbdc4125a	-0.09573813
62	0xbd4ffd92	-0.050778933
63	0x3da0d99b	0.07854005
64	0x3def35fd	0.11680219
65	0x3c95c43b	0.018282047
66	0x3e124dce	0.14287493
67	0xbd88f492	-0.06687273
68	0x3e439698	0.19100416
69	0x3d0761ba	0.033052184
70	0x3e247f25	0.16064127
71	0xbdb34493	-0.08753314
72	0xbcb38888	-0.02191569
73	0x3e367d89	0.17821325
74	0xbc51114d	-0.0127604725
75	0x3e387841	0.18014623
76	0x3de028c3	0.10945275
77	0x3db411b9	0.08792443
78	0x3e1a461a	0.15065804
79	0x3de2afc6	0.110686824
80	0xbcebe265	-0.028794477
81	0xbdad29d8	-0.08455247
82	0xbcadc27d	-0.021210903
83	0xbe190a7e	-0.14945409
84	0xbe5a8b25	-0.21342142
85	0xbd960767	-0.07325631
86	0xbdc1a37b	-0.094550095
87	0xbd8e4d92	-0.06948389
88	0xbd294257	-0.041323032
89	0xbca5ebaf	-0.020253984
90	0x3c7f0c81	0.015566946
91	0x3de031fd	0.109470345
92	0xbe48d483	-0.19612317
93	0x3c5f2f80	0.013622165
94	0x3cd11578	0.025522932
95	0xbd84eff6	-0.064910814
96	0xbdcada4b	-0.09904917
97	0xbdcc8434	-0.09986153
98	0xbe37df32	-0.17956236
99	0x3dc1bd20	0.09459901
100	0x3db720bb	0.0894179
101	0x3ce00644	0.027346738
102	0x3e005be2	0.1253505
103	0x3d313eeb	0.043272894
104	0x3bab5183	0.005228223
105	0x3ccb1a67	0.024792863
106	0x3a9e131b	0.0012060137
107	0xbd0d5b91	-0.034511153
108	0x3dcd976d	0.10038648
109	0xbdb3a4b4	-0.08771649
110	0x3e0294fa	0.12752143
111	0x3c1ddd83	0.009635332
112	0x3dac7d08	0.08422285
113	0xbd3b6f1d	-0.045760263
114	0xbd04be20	-0.03240788
115	0xbcc64aef	-0.024205653
116	0xbc0db54e	-0.008649183
117	0x3dc86972	0.09785737
118	0x3e115e11	0.1419604
119	0x3d143b7a	0.036189534
120	0x3bf2b7c4	0.0074071605
121	0xb9dcda0b	-0.00042124125
122	0x3dae1a47	0.08501106
123	0xbe6464c6	-0.22304067
124	0x3d19c482	0.03754092
125	0x3e2d8b50	0.16947675
126	0x3cf92d27	0.030417038
127	0xbe1da37c	-0.15394396
128	0x3d8b4ec1	0.068021305
129	0x3e5069f3	0.20352916
130	0x3e3e24c6	0.18568715
131	0x3e70cddf	0.23516034
132	0xbd990da1	-0.07473303
133	0xbd986a6d	-0.07442174
134	0xbd874de2	-0.06606652
135	0xbd85137b	-0.06497856
136	0xbdbd6194	-0.09247127
137	0xbe1e3445	-0.15449627
138	0x3e2971cf	0.16547321
139	0xbd828d35	-0.06374589
140	0x3ddaf787	0.10691743
141	0x3d8460ef	0.06463801
142	0x3dd39f04	0.10333064
143	0x3dcd0d6e	0.10012327

conv3.cv3.0.m.0.cv1.conv1.bn.weight f4 [4]
0	0x3f7d47e5	0.9893783
1	0x3f7a5c8a	0.97797453
2	0x3f86d62e	1.0534112
3	0x3f804825	1.0022017

conv3.cv3.0.m.0.cv1.conv1.bn.bias f4 [4]
0	0xbde1ea79	-0.1103105
1	0x3d6f9ea9	0.05850092
2	0x3d295ca9	0.041348133
3	0xbda0e15b	-0.07855483

conv3.cv3.0.m.0.cv1.conv1.bn.running_mean f4 [4]
0	0xbe991241	-0.2989674
1	0x3ca724ff	0.020403383
2	0x3d5cc384	0.053897396
3	0x3e0c3d42	0.13695243

conv3.cv3.0.m.0.cv1.conv1.bn.running_var f4 [4]
0	0x3ee933ec	0.45547426
1	0x3dcb3d3f	0.09923791
2	0x3efb686e	0.4910311
3	0x3dc61362	0.09671666

conv3.cv3.0.m.0.cv1.conv2.conv.weight f4 [4, 4, 1, 1]
0	0x3e4bb037	0.1989144
1	0x3edbfd94	0.42966902
2	0xbe5cd3e6	-0.21565208
3	0xbf14a69f	-0.58066744
4	0xbe7c7181	-0.24652673
5	0x3dd0b2b7	0.10190337
6	0xbda0fffc	-0.07861325
7	0x3ee73e7d	0.45164862
8	0xbec30441	-0.38089183
9	0xbe8eca9f	-0.27888963
10	0xbebf8672	-0.3740726
11	0xbe8b5ec3	-0.27220735
12	0x3e91df54	0.28490698
13	0x3e99c0f1	0.30030015
14	0x3dac6604	0.084178954
15	0x3e42fc87	0.19041644

conv3.cv3.0.m.0.cv1.conv2.bn.weight f4 [4]
0	0x3f7596e0	0.9593334
1	0x3f732396	0.94976175
2	0x3f54a5a6	0.8306526
3	0x3f80a15f	1.0049247

conv3.cv3.0.m.0.cv1.conv2.bn.bias f4 [4]
0	0xbde1ea79	-0.1103105
1	0x3d6f9ea9	0.05850092
2	0x3d295ca9	0.041348133
3	0xbda0e15b	-0.07855483

conv3.cv3.0.m.0.cv1.conv2.bn.running_mean f4 [4]
0	0xbd93623d	-0.07196472
1	0x3d6556c7	0.05599096
2	0xbe488e35	-0.19585498
3	0x3e026635	0.12734301

conv3.cv3.0.m.0.cv1.conv2.bn.running_var f4 [4]
0	0x3dc18595	0.09449307
1	0x3da3f8e4	0.080064565
2	0x3e025ebf	0.12731455
3	0x3d6c8055	0.057739574

conv3.cv3.0.m.0.cv2.conv.weight f4 [4, 4, 3, 3]
0	0x3cfa453b	0.03055059
1	0x3d629ef8	0.055327386
2	0xbbc5c736	-0.0060357107
3	0x3cd4cea5	0.025977442
4	0x3b6a1698	0.0035719033
5	0x3bedfa95	0.0072625377
6	0xbdee8e2b	-0.1164821
7	0x3d24d8df	0.040245887
8	0xbda22bff	-0.07918548
9	0x3df1548e	0.11783706
10	0x3dd6891f	0.104753725
11	0x3e46d6ab	0.19417827
12	0x3da6df00	0.081480026
13	0x3e81e623	0.25370893
14	0x3cd5659a	0.026049424
15	0x3da923bc	0.08258769
16	0x3daae34f	0.08344137
17	0x3e150d89	0.14555945
18	0x3cfddf86	0.030990373
19	0x3df455d0	0.1193043
20	0x3e318b8d	0.1733839
21	0x3e3323ab	0.17494075
22	0x3db1bdf3	0.08678808
23	0x3de4a75f	0.11164736
24	0x3e42e1a7	0.19031392
25	0x3e8d23e3	0.27566442
26	0x3e522c18	0.20524633
27	0xbde7ccb1	-0.11318339
28	0x3d0460b4	0.032318786
29	0xbd6f3084	-0.058395877
30	0x3d917962	0.0710323
31	0xbd9824e1	-0.07428909
32	0x3b72a426	0.003702411
33	0xbda12131	-0.07867659
34	0x3e27f224	0.16400963
35	0x3e451d4b	0.19249456
36	0xbd97b868	-0.074082196
37	0xbe6a400d	-0.22875996
38	0xbe48a6b2	-0.19594839
39	0xbe3f4c89	-0.1868154
40	0xbe3d3517	-0.18477283
41	0xbe17314a	-0.14764896
42	0xbd1803f9	-0.037113164
43	0xbe39acbc	-0.18132299
44	0xbe545b6c	-0.20738
45	0xbd75b8c1	-0.05999065
46	0x3e184437	0.14869772
47	0xbd409cbe	-0.04702448
48	0x3d7c5424	0.06160368
49	0xbd16b0a2	-0.036789544
50	0x3e2fa631	0.1715324
51	0xbcf6fd82	-0.030150179
52	0xbde93147	-0.11386352
53	0x3d9c6c44	0.076378375
54	0xbd9686f1	-0.07349957
55	0xbd22d50a	-0.03975395
56	0xbdf81831	-0.12113989
57	0x3c802fad	0.015647734
58	0x3df68f7e	0.12039088
59	0xbde407e2	-0.11134316
60	0xbd1f894b	-0.038949292
61	0x3d3df0f1	0.046372358
62	0x3e696921	0.2279401
63	0x3d77ba92	0.06048066
64	0x3dc94cc9	0.09829099
65	0xbe2d38df	-0.16916226
66	0x3e42f53d	0.19038863
67	0x3e05f5c8	0.1308204
68	0xbd22ae9a	-0.039717294
69	0x3e6b1829	0.22958435
70	0x3d8504b0	0.06495035
71	0x3e5d1a80	0.2159214
72	0xbda58506	-0.08082013
73	0xbe0b4402	-0.13600162
74	0xbd8050b2	-0.062653914
75	0xbe194c9a	-0.14970627
76	0xbe2b9d5f	-0.16759251
77	0x3cacf52c	0.021113
78	0xbc8f52db	-0.017495563
79	0xbce5bc22	-0.02804381
80	0xbd17d21a	-0.037065603
81	0x3d084ec7	0.033278253
82	0xbd663b34	-0.056208804
83	0x3ce08f8a	0.027412195
84	0xbd463a92	-0.0483957
85	0xbd5cd5aa	-0.053914703
86	0x3cc8cd68	0.024512008
87	0xbdb8f2b7	-0.09030669
88	0x3dd69008	0.104766905
89	0xbda69599	-0.08134002
90	0x3d6e6ecf	0.058211144
91	0xbcb687f8	-0.022281632
92	0xbdbed589	-0.09318072
93	0x3dc8375e	0.097761855
94	0x3e0f9355	0.14021046
95	0xbe0383a1	-0.12843181
96	0x3d9a44a3	0.07532623
97	0x3d83c4d1	0.06434024
98	0xbcd18c86	-0.025579702
99	0x3e06b8cc	0.13156432
100	0xbc6f35d8	-0.01460024
101	0xbdc9d909	-0.09855849
102	0x3c79fe82	0.015258433
103	0xbe0dc07e	-0.13842961
104	0x3c499eb2	0.012305902
105	0xbe3540d6	-0.17700514
106	0x3d5e9348	0.054339677
107	0x3dfed1ed	0.12442384
108	0x3d208f2d	0.039199043
109	0x3daf70fa	0.085664704
110	0xbdca3c8d	-0.098748304
111	0x3d31b79a	0.043387987
112	0xbe13951b	-0.14412348
113	0x3dca6af9	0.09883685
114	0xbcac60e1	-0.02104229
115	0x3dac1694	0.08402744
116	0x3d09b7cc	0.033622548
117	0x3d906b6a	0.070517376
118	0xbdc6d100	-0.09707832
119	0xbc65f357	-0.0140350675
120	0xbdd6c71c	-0.10487196
121	0xbe741de1	-0.23839523
122	0x3e1691d0	0.1470406
123	0x3dedc5a7	0.11609965
124	0xbd675469	-0.056476984
125	0x3da3bf79	0.07995505
126	0xbde64420	-0.112434626
127	0xbdd9e1a8	-0.10638744
128	0xbe97773c	-0.29583156
129	0xbe5b8f14	-0.21441299
130	0x3d7198a2	0.058983453
131	0xbe273305	-0.16328056
132	0xbdeae91a	-0.11470242
133	0xbdce90f0	-0.100862384
134	0xbcae4843	-0.021274691
135	0xbdc6d4c0	-0.097085476
136	0x3c6a7227	0.014309443
137	0x3e10c489	0.14137472
138	0x3e23aab7	0.15983091
139	0x3d7dead9	0.061991546
140	0x3d972a19	0.07381076
141	0xbddf3217	-0.10898226
142	0xbc92de65	-0.017928312
143	0xbda1db53	-0.07903161

conv3.cv3.0.m.0.cv2.bn.weight f4 [4]
0	0x3f8e50c1	1.1118394
1	0x3f857e04	1.0429082
2	0x3f5d5a04	0.8646548
3	0x3f8bed5f	1.0931815

conv3.cv3.0.m.0.cv2.bn.bias f4 [4]
0	0x3e45f003	0.19329838
1	0x3d28cb0e	0.041209273
2	0xbcf2ff8a	-0.029662866
3	0x3d2dd491	0.042439047

conv3.cv3.0.m.0.cv2.bn.running_mean f4 [4]
0	0x3f2d2685	0.676369
1	0xbdca7465	-0.09885482
2	0xbe18e15f	-0.14929722
3	0xbe2f405e	-0.17114398

conv3.cv3.0.m.0.cv2.bn.running_var f4 [4]
0	0x3f1e0a99	0.6173492
1	0x3f466439	0.7749668
2	0x3dac6d06	0.08419232
3	0x3ec76155	0.38941446
