runs/40.pt (torch, 156610 bytes, 38 tensors)

weight f4 [8, 1, 3, 3]
000000 cd ec 8f be d1 8e a3 bd a8 40 94 be 1b 0e 84 3d
       -0.28110352 -0.079862244 -0.2895558 0.06448003
000010 48 6a c5 3d 1b bb 74 3e b8 62 60 3e 99 13 97 be
       0.09639412 0.238995 0.21912658 -0.2950714
000020 8d 69 7e 3e b9 3b 59 3e c1 85 9a be b2 8e 96 3e
       0.24844952 0.21214189 -0.3018017 0.29405743
000030 10 af 41 be 05 d8 b1 3d b3 bf 22 be 78 af 51 3e
       -0.18914437 0.086837806 -0.1589344 0.20477092
000040 a1 7d 7e be 03 2d 26 3e 06 9b a0 3c 7e 2e 90 bd
       -0.24852611 0.16228108 0.019605171 -0.07040118
000050 d2 76 ff 3d de b9 37 3d 73 21 5f be fe ae 2c bd
       0.12473835 0.04485499 -0.21790104 -0.042159073
000060 b0 9b 59 ba fb cc 4f be c3 ab 8d be b0 c6 a4 3d
       -0.00083010923 -0.20293038 -0.27670106 0.08045709
000070 db dd 4d be b6 85 28 3e cd f0 75 3e ce e4 ac 3c
       -0.20104162 0.16457257 0.2401764 0.021105196
000080 66 8d 2b be e1 a5 ec 3d 18 1a b5 3d b8 1d a6 3d
       -0.16753158 0.115550764 0.088428676 0.08111137
000090 64 2a a1 3e ab 07 d7 bd 63 4f b8 3d 6c ed 82 be
       0.31477654 -0.104995094 0.08999517 -0.25571764
0000a0 9b 0b 55 3e 60 39 04 3e 60 7d 87 bd 44 f9 a3 3e
       0.20805208 0.12912512 -0.0661571 0.32026112
0000b0 6f f8 61 be a9 a5 5e 3c 78 4d 4b be 87 1d 82 3e
       -0.22067426 0.013589301 -0.1985377 0.25413153
0000c0 da b3 70 3b 73 a5 40 3e 33 c5 a3 bd 9f 40 8e 3d
       0.0036728294 0.18813114 -0.07996597 0.06945919
0000d0 d0 ee 52 3b f0 43 bd bd 62 94 b5 3d b3 7c a2 3e
       0.00321858 -0.09241474 0.088661924 0.31735763
0000e0 ef bb a7 3e 24 5d 0c be fe 1b 9b be 0c 5a 8e 3e
       0.3276057 -0.13707405 -0.30294794 0.27803075
0000f0 6c 86 a9 3e 41 76 37 be 38 a9 7b bd 30 33 76 be
       0.33110368 -0.17916204 -0.061440676 -0.24042964
000100 80 94 90 3e 7e 22 aa be 73 cd 4b be c3 06 ea bd
       0.28238297 -0.3322944 -0.19902591 -0.11427071
000110 2b 99 a0 3d b3 8f 55 3e db c9 86 bd 36 d5 5d 3e
       0.078417145 0.20855598 -0.065814696 0.21663365

bias f4 [8]
000000 64 d3 8c be f0 c0 ae bc b8 90 88 3e 26 e5 bd 3d
       -0.27505028 -0.021332234 0.26672912 0.09272222
000010 2e 36 11 3d 8b 1d 8c bd 8d c8 b1 bd db 64 95 bd
       0.03545206 -0.068415724 -0.0868083 -0.07294627

weight f4 [8, 8, 3, 3]
000000 df 2f d0 bc c9 1d 43 3c 49 05 bc bc 2d 17 8d 3c
       -0.025413452 0.011908957 -0.022951739 0.017222965
000010 9d 9a 79 bd 4b 50 1a bb 84 b6 45 bd 7c 6d cd 3d
       -0.060938466 -0.0023546393 -0.048269764 0.10030648
000020 f1 c8 27 bd ed b1 a4 3b ef e0 5d ba 7e 7b 8d 3d
       -0.040963117 0.005026093 -0.00084639987 0.0690832
000030 2c f2 93 bd e5 6b ed 3d b8 cd ed bd f8 c6 0f 3c
       -0.07223925 0.11592845 -0.11611503 0.008775465
000040 46 84 17 bc b6 a9 59 3d 0f ea 18 3d dc 2d 9f bd
       -0.009247845 0.053140365 0.03733259 -0.07772419
000050 e2 ed cd 3d 21 2b a8 3d e8 78 66 3d 0b b9 3f bd
       0.10055138 0.08211351 0.05626765 -0.04680733
000060 67 fc f3 bc 70 a6 ee 3d d0 da 79 3d 25 1d b7 3d
       -0.02978344 0.11652839 0.06099969 0.08941106
000070 80 d2 bf 3d cc 1e 9b 3d ee 41 d3 bc 71 95 f3 3c
       0.093663216 0.075742334 -0.025788274 0.029734345
000080 11 7c 94 3d d4 ca 11 bd 30 f3 48 3d 37 6d 96 bd
       0.07250226 -0.035593823 0.049060047 -0.0734505
000090 68 0a f3 3c b8 cd 02 3d 5f 09 c8 3d 11 af b5 3d
       0.029668048 0.03193447 0.097674124 0.08871282
0000a0 e0 62 dc bc 63 3a 81 3d 60 2a f0 bd e0 4e be bd
       -0.026902616 0.063099645 -0.117268324 -0.09292388
0000b0 a5 b4 4d bd c1 22 6a 3d 1b b8 95 3b 26 e2 31 bd
       -0.050221104 0.05716205 0.004569066 -0.043428563
0000c0 be cb d3 bd 28 04 51 3d 27 a6 81 3d a8 85 fb bc
       -0.10341595 0.051029354 0.06330519 -0.03070338
0000d0 bd f0 8a 3c 01 8e 8e 3d fa 9b 71 3d 5b b0 8d 3c
       0.016960496 0.06960679 0.05898664 0.017296007
0000e0 cd ac 6b bd 80 54 a4 3c f9 9e f0 3d 4b 27 d8 3b
       -0.057537843 0.020059824 0.11749072 0.006596481
0000f0 eb 81 44 bd 80 96 e9 3d 68 00 e0 bd 8b 0e 32 3d
       -0.047975462 0.11405659 -0.109375775 0.0434709
000100 56 5f ea 3d 7e 39 bf 3d da b0 5d 3a a4 54 98 bd
       0.11443965 0.09337138 0.0008456834 -0.07438019
000110 83 07 23 3d 20 e1 92 3d dd 2f b1 bd 89 bf e9 bc
       0.039802086 0.071718454 -0.08651707 -0.028533714
000120 07 e4 be 3c 20 48 f9 3c 9a cf 79 3d 47 ee 04 bc
       0.023302091 0.0304299 0.060989 -0.00811345
000130 a7 78 d1 3c 43 d4 65 3d ab fc c2 3b 09 a9 54 3d
       0.025570227 0.05611063 0.0059505305 0.051919017
000140 14 fa 90 bc 34 b7 32 bd c7 3f c2 3d 60 40 05 3c
       -0.017697372 -0.043631747 0.09484821 0.008133024
000150 11 31 1d 3c aa b4 29 bd 24 01 14 3d 7a 31 d9 bd
       0.009594218 -0.04143206 0.0361339 -0.1060514
000160 e6 ca ea 3d 1a 17 25 3c 67 08 cd bd 16 c3 11 3d
       0.11464481 0.010076309 -0.10011368 0.03558644
000170 d8 cf aa bc 54 9c b1 3d 00 07 bc 3d 23 ae 35 bd
       -0.02085106 0.08672395 0.09181023 -0.044355523
000180 93 68 5c bd 7e ea af bd 21 23 0f bd 72 02 cb bd
       -0.053810667 -0.08589648 -0.03494561 -0.09912576
000190 09 68 60 3c b0 85 c4 bc 1a 55 9d 3c 87 ce 55 bd
       0.013696679 -0.023989528 0.019205619 -0.052198913
0001a0 4b ed bb 3d 8a be dc bd 24 43 3b 3d 7e 67 b9 bd
       0.091761194 -0.1077853 0.045718327 -0.09052943
0001b0 68 d8 c5 3c 93 0c 7d 3d 78 40 00 3c d8 45 f0 3c
       0.024151042 0.06177957 0.007827871 0.02933018
0001c0 57 ee e7 bd 7c fb 1a bc 6b b3 e6 3c 45 c9 ec 3d
       -0.113247566 -0.009459373 0.028161725 0.115618266
0001d0 ee 36 cc 3d 07 86 ea 3c ab 28 05 3d 30 7f 56 bd
       0.099714145 0.028628362 0.032509487 -0.05236739
0001e0 0b cd a6 bd 3d 3d 7b bd 98 c5 64 bd 21 85 2e bd
       -0.081445776 -0.0613377 -0.055852503 -0.04260743
0001f0 e9 93 da 3a b2 83 22 bd 81 74 c1 3d 06 16 27 3d
       0.0016676161 -0.039676376 0.094460495 0.040792488
000200 4e 5f 83 3d 1e 3a ea bd 70 e6 ff bc e6 17 71 3d
       0.06414662 -0.11436866 -0.03123781 0.058860682
000210 e8 29 b6 bd 19 0e 72 3c 03 f2 cc bc b0 12 e4 bc
       -0.08894712 0.014773869 -0.025017744 -0.027840942
000220 84 d1 d6 bd 79 4f a5 bc b0 f4 37 3c 9a 05 c6 bd
       -0.10489181 -0.020179497 0.011227772 -0.09669037
000230 ac 99 3b bd 97 8d 81 bd 4e 20 8a bd 2e 48 b3 bd
       -0.04580085 -0.06325834 -0.06744443 -0.087540016
000240 71 a8 c3 3d f8 d0 5e bd 88 d6 e0 bd 24 27 39 3d
       0.09553612 -0.054398507 -0.109784186 0.045203343
000250 dd 9f 3c 3c 98 ab 52 3d 23 22 9a bd 99 67 6d 3b
       0.011512724 0.051433176 -0.07526042 0.003622508
000260 76 1a 25 3d f9 2f 7f 3d e0 ed 1a bc 94 fb ce 3d
       0.04030844 0.06230161 -0.009456128 0.101065785
000270 0f 1e da ba e6 57 e8 3b 66 ac 88 bd 4c ea 96 bd
       -0.0016641038 0.0070905564 -0.066735074 -0.07368907
000280 ee ae af bd fa 3b b3 3d a1 ea eb bd 3d f9 4f 3c
       -0.08578287 0.08751674 -0.11519361 0.0126937
000290 60 c1 c9 38 e7 ea db 3c 1b 8d a4 3d e1 d5 ae 3d
       9.620446e-05 0.026845409 0.08034726 0.08536888
0002a0 f1 9f 1c 3d 6c 07 bc bd 75 6a 94 bc 15 f2 95 bd
       0.03823847 -0.09181103 -0.018117169 -0.07321564
0002b0 c6 c2 e3 3d 46 87 e1 3d 86 80 82 3d 1a f3 6b bd
       0.111211345 0.110121295 0.0637217 -0.057604887
0002c0 61 2b 54 3d 92 9a ba bd a3 96 c1 bd 1d 13 9b 3a
       0.05179918 -0.09111513 -0.0945256 0.0011831258
0002d0 2f 2d f2 bc 54 30 0f bc 1b 3c 70 3d c0 e9 0e bd
       -0.02956256 -0.00873955 0.05865107 -0.03489089
0002e0 1b 13 b7 bd 8c aa 4b 3d d2 d5 e5 3d cc 3f eb bc
       -0.08939191 0.049723193 0.112224236 -0.028716944
0002f0 7a b3 84 3d 8f 0a ed bd 3d ab 7d 3c ea 75 f8 3c
       0.06479545 -0.115742795 0.015482721 0.030329663
000300 b0 6c aa 3c 3b ea 86 bd c7 6d ee bd 44 42 7e bd
       0.02080378 -0.06587645 -0.11642032 -0.062074915
000310 b8 7c f8 3b cc cc 8c bd 80 96 ad bc 9c b6 de bd
       0.007583227 -0.068749994 -0.021189928 -0.10874674
000320 5d b9 49 bb c5 42 95 bd 06 c0 05 bd 0e ef b4 3c
       -0.003078065 -0.07288126 -0.03265383 0.022086646
000330 b3 c3 54 bd 2b fa be 3d aa 45 9d 3c 80 20 51 3d
       -0.051944446 0.093250595 0.019198257 0.051056385
000340 2b a5 d0 3c 4f ee 49 3d 04 20 9e bd c8 72 9b 3d
       0.025469383 0.049299534 -0.0772095 0.07590252
000350 42 30 7c 3d 5a be ff ba f8 0c e3 3d 36 b5 92 bb
       0.06156946 -0.0019511685 0.11086458 -0.0044771684
000360 18 8a 9b bd 37 68 84 3d c5 15 a6 3d 1e 17 0d bd
       -0.07594699 0.0646519 0.08109621 -0.034445874
000370 9b 73 3c 3d 4d 1f 84 3c e5 18 d3 3d 32 46 12 3c
       0.046008687 0.016128207 0.10307483 0.008927869
000380 a2 6b 46 3c db 08 af 3d b1 97 f1 3c 4f e6 c8 3c
       0.012110623 0.08546611 0.029491277 0.024523882
000390 a4 9c 4e bd d1 14 88 bd b4 db 24 bd b4 fc 98 3d
       -0.050442353 -0.066445954 -0.040248588 0.07470074
0003a0 4b 99 76 3d ad 06 98 3c 89 c3 6e bd 42 eb df 3d
       0.060204785 0.01855787 -0.058291946 0.10933544
0003b0 c4 f2 87 3d 60 26 69 39 dd ea 92 bd d3 83 53 bd
       0.06638101 0.00022234907 -0.07173703 -0.05163939
0003c0 c4 9b eb 3d 47 36 95 bd 83 fc b5 bd 46 17 43 3d
       0.11504319 -0.07285743 -0.088860534 0.047629617
0003d0 89 f0 ee 3d a2 e8 7c bb c4 4d 17 3c 95 dc 2e bc
       0.11666972 -0.0038590808 0.009234849 -0.010672708
0003e0 34 4f da 3d e3 b7 5b 3d fd 82 2a 3d ea 6d a5 3d
       0.10659638 0.053642165 0.041628826 0.08077605
0003f0 6a 94 99 bd 16 e9 df 3d e4 aa d7 3d 02 e1 d4 3d
       -0.07499011 0.109331295 0.10530642 0.10394479

bias f4 [8]
000000 45 9b c1 bd b4 72 c9 bd 09 b0 dc 3d 93 5e 17 3d
       -0.094534434 -0.09836331 0.107757635 0.036955427
000010 19 f4 bc 3d f9 a5 e4 3d 1d ff 96 3c 5b 63 28 bd
       0.092262454 0.11164469 0.018432194 -0.041110378

weight f4 [16, 8, 3, 3]
000000 91 02 a9 3d 42 46 e1 3d 81 b4 ea 3d b1 73 de 3c
       0.08252443 0.10999729 0.1146021 0.027154775
000010 80 92 13 3d e0 2d ef bc 3a e5 8f bb bf f4 6a 3d
       0.036028385 -0.02919668 -0.0043913396 0.057362314
000020 07 48 da 3b 71 64 79 bd 13 5e d9 ba 7d 56 14 bd
       0.0066614184 -0.060886804 -0.0016583822 -0.036215294
000030 70 1d 5c 3d 69 d7 fe bc 81 a3 1d 3d 38 94 bc bd
       0.05373901 -0.031108575 0.038486008 -0.09207958
000040 0e 78 10 3d 97 80 32 3d 57 b6 51 bd 94 d6 96 3d
       0.035270743 0.043579664 -0.051199283 0.07365146
000050 00 33 a7 3d a2 28 36 bc 6f 91 dd bd 5b f1 bf 3d
       0.08164024 -0.011118086 -0.10818755 0.09372207
000060 dc 40 b1 bd ee 26 98 3d 8a 78 a2 3d cb 12 c7 3d
       -0.08654949 0.074293 0.07933147 0.09720381
000070 bb 0d b1 bd 0b 83 8b bd c6 bd b0 3d 3c 19 3a bd
       -0.08645197 -0.06812104 0.086299464 -0.04543422
000080 97 1d bf 3c 53 87 33 3d 66 cd e5 3d 51 a6 2c bd
       0.02332954 0.043830227 0.11220817 -0.0421508
000090 7b a9 40 bd 5f 5b 61 bd fd 59 72 bc 97 ba c5 3c
       -0.04703663 -0.05501878 -0.014791963 0.024136825
0000a0 48 52 39 bc d0 ce 2c bd dd 76 41 3d e2 04 d4 bd
       -0.011311121 -0.04218942 0.047232497 -0.10352494
0000b0 bd 2d 81 3d fb 0f 01 3b 31 cf 34 bd 7f c4 82 bd
       0.06307552 0.0019693363 -0.044142906 -0.06385135
0000c0 bd 7f f5 3c 59 24 72 bd 77 01 3b 3c 37 ce 79 3d
       0.029968137 -0.059116695 0.011413923 0.060987677
0000d0 ca 6c a7 bd ff 89 a5 bd 3f 51 e8 3d 72 11 d1 3c
       -0.08175047 -0.08082961 0.113436215 0.025521014
0000e0 94 70 de 3d aa ee 9a bd 75 b6 38 3d c5 6a a6 3d
       0.10861316 -0.07565053 0.04509588 0.081258334
0000f0 a6 5d 28 3d 2f 9b d4 bc a1 37 aa bd d4 bf 92 bd
       0.041104935 -0.025952904 -0.083113916 -0.071654946
000100 d6 91 e9 bd 9c f0 92 3b ed c7 d4 3d 96 23 28 bd
       -0.11404769 0.0044842493 0.10389695 -0.041049562
000110 37 65 6a bd 1c 2a 72 3c 6b a7 bd 3d 8a 9b 83 3d
       -0.057225432 0.0147805475 0.09260448 0.06426151
000120 95 64 87 bd 33 46 91 bd 2b 19 cb bc 64 04 8a bd
       -0.066109814 -0.070934676 -0.024792274 -0.06739119
000130 ef 0a c8 bd 35 4b 84 3c ac 02 8a bd a4 20 e1 bd
       -0.097677104 0.016149143 -0.06738791 -0.10992554
000140 32 32 c3 3d 94 86 54 3d d6 5e a4 3d 83 47 8e 3d
       0.09531058 0.051886156 0.08025901 0.069472335
000150 28 5c 10 39 cd 78 c8 bd 1a ec 43 bd cc 98 51 3d
       0.00013767241 -0.09788666 -0.047832586 0.05117111
000160 bf 68 67 3d 18 b3 00 3d c2 44 74 b8 7c c3 7c 3c
       0.056496378 0.031420797 -5.823817e-05 0.0154274665
000170 b7 e0 80 3c 44 40 ea 3d 48 91 5b 3d d8 99 b0 bd
       0.015732152 0.11438039 0.053605348 -0.08623093
000180 e8 72 b7 3c 03 3b 4e bd 47 d4 d5 3d 93 06 af 3d
       0.022393659 -0.050349247 0.10440879 0.08546176
000190 95 b6 e2 3d a1 63 02 3b af db a8 3d 21 60 e6 bd
       0.11069981 0.001989581 0.08245026 -0.11248804
0001a0 3b 84 e0 3d 19 c2 6e 3d 69 08 d1 bd 7b aa 47 bd
       0.10962721 0.058290575 -0.10206682 -0.048746567
0001b0 16 09 87 bd 37 42 10 bb 07 08 89 bb 86 1a 8e bd
       -0.0659353 -0.0022012123 -0.004181865 -0.06938653
0001c0 c7 11 f6 bc 63 f8 84 3d c3 eb f8 bb 90 b7 05 bd
       -0.030037774 0.064926885 -0.0075964644 -0.032645762
0001d0 77 dd a9 bc 4b 20 ad bd bf 5a 06 3d 85 22 9c bd
       -0.020735485 -0.08453425 0.032801386 -0.076237716
0001e0 8f 08 04 3d b9 08 93 3d 27 21 0b bd 40 9c 08 3b
       0.032234725 0.07179398 -0.033967163 0.0020845085
0001f0 49 39 36 bd 33 9f bb 3d 81 45 3d bd ae d1 cd 3d
       -0.044488225 0.09161224 -0.046208862 0.10049759
000200 ab 89 ea 3d 5b dc 6a bd fd 3a bf 3d 5a b3 c0 3c
       0.11452039 -0.057339054 0.09337423 0.023523021
000210 67 77 26 3d 73 51 ce bd 6a c4 7b 3c b6 99 9a 3c
       0.040641215 -0.10074129 0.015366653 0.018872123
000220 67 4c ce bd b6 b7 4b bd ed 41 58 bc 76 95 cb bd
       -0.10073166 -0.049735747 -0.013199312 -0.09940617
000230 0d 09 59 3d c6 0b af bd 16 55 c5 3d 6c 0c d4 bc
       0.052987147 -0.085471675 0.096353695 -0.02588483
000240 b1 25 39 bd 4c 0c cf 3d 8e 4c c0 bd 24 6f ba bd
       -0.04520196 0.10109767 -0.09389602 -0.0910323
000250 b9 38 9a 3a 21 e5 ad bd d9 c7 43 bc f2 ca 52 3d
       0.0011766172 -0.084909685 -0.011949503 0.051463075
000260 1a 69 a2 3c 11 77 82 bd 49 7c c9 bd 68 fe 54 3d
       0.019825507 -0.06370366 -0.09838159 0.052000433
000270 a7 51 1d 3c 79 1e ee bc 41 e4 d1 bd 84 0d e0 3c
       0.009601987 -0.029067265 -0.10248614 0.027350195
000280 b0 1c a6 3c e6 46 d2 3d 36 53 b1 3d 14 08 54 3d
       0.020277351 0.10267429 0.08658449 0.051765516
000290 cb d2 de 3d 4f 9a ad 3d df d9 27 3d ae 94 11 3d
       0.10880049 0.08476698 0.040979262 0.035542183
0002a0 48 44 6a bd 05 6a 3e bd 09 90 aa 3d f0 c0 ea bd
       -0.057194024 -0.046487827 0.08328254 -0.11462581
0002b0 3c d2 a6 bd a2 51 9c 3c 30 b6 93 3d e0 8a 9e bd
       -0.08145568 0.019081894 0.07212484 -0.07741332
0002c0 9e 24 bf 3d c3 e0 79 bc 10 81 a8 3d ef 14 ca bd
       0.09333156 -0.015251341 0.08227742 -0.09867274
0002d0 23 e6 8d 3d f7 65 c8 3c f6 c7 df 3d 6e 9e e9 bd
       0.06928661 0.024462683 0.109268114 -0.11407171
0002e0 f7 6f c1 bc 03 5c ac 3d a1 5c 4a bd d8 64 53 bd
       -0.02361296 0.08415987 -0.049404744 -0.051609844
0002f0 c6 8f db bb 86 35 45 3d 18 00 37 bc 92 c6 cd bd
       -0.0067004887 0.048146747 -0.011169456 -0.1004764
000300 eb 7d fa 3c 3e ad cc 3d 19 9b 7f 3d 91 e4 c7 3d
       0.03057762 0.09993981 0.062403772 0.097603925
000310 22 3c 8d bd b8 d8 46 3d 46 36 b0 bd bb 5c 57 3d
       -0.06896235 0.048546523 -0.08604102 0.05257867
000320 75 04 e6 bd 9a f7 10 3c 6c df ef bd 12 d4 75 3c
       -0.11231319 0.008848095 -0.11712536 0.015004175
000330 6f e5 e9 bd 39 8e 88 bd bf 6a a5 3d 38 ea d3 3c
       -0.11420714 -0.06667752 0.08077001 0.02586852
000340 c5 60 1e 3b 3e 84 a6 3d 43 0a c7 3c 22 b8 a4 3d
       0.0024166566 0.08130692 0.024296885 0.08042933
000350 bf fe 22 3c 5c 1e e3 3d 97 c1 81 3d 89 d7 7d bd
       0.0099484315 0.11089775 0.063357525 -0.06197313
000360 fc 97 25 3d 58 f7 1f bd 04 22 88 bd 75 6d 4b bd
       0.040428147 -0.039054245 -0.06647113 -0.049664933
000370 9c 5f 4c bc 79 0d 6e bd 35 42 66 3d 09 7f c3 bc
       -0.012473967 -0.058118317 0.056215484 -0.023864286
000380 57 e9 4e 3d 4d e7 eb 3d 22 34 e2 bd 56 20 d7 3c
       0.0505155 0.115187265 -0.110451 0.026260536
000390 66 66 e0 3b ad 49 eb 3d 13 be a1 3d 03 92 ab bd
       0.0068481443 0.11488662 0.07897582 -0.08377459
0003a0 49 f9 b7 bd eb e6 92 bd cc 40 d1 3d 5f 51 22 bd
       -0.08983094 -0.0717295 0.10217437 -0.039628383
0003b0 84 88 97 bc a5 b9 c7 3d 5d f5 69 bd 98 8b c4 bd
       -0.018497713 0.09752206 -0.057118762 -0.09596938
0003c0 bb 65 bb bd a6 8e 19 3d 6f 64 85 bd 0c 27 a8 bd
       -0.09150263 0.037489556 -0.06513297 -0.082105726
0003d0 9b 03 23 3d 0d eb 42 3c ae d9 22 bd e3 40 cf bd
       0.03979836 0.011896861 -0.039758377 -0.10119798
0003e0 5e 90 a0 3d 5f 99 a9 bd ee 6f dd bd 0a 88 8f bd
       0.07840036 -0.08281206 -0.108123645 -0.07008369
0003f0 15 a3 8e bc 76 22 c8 bd 46 ec 9c 3c b4 50 2d 3d
       -0.017411748 -0.09772198 0.019155633 0.042313293

bias f4 [16]
000000 04 35 14 3d 64 7a 34 bd 85 a1 80 3d cf 31 82 3d
       0.036183372 -0.044062033 0.062808074 0.063571565
000010 d7 6d 16 3b 99 f5 2a 3d 8b 70 54 bd 44 2a a7 3d
       0.0022953653 0.041738126 -0.05186514 0.081623584
000020 98 5b 9f bd d9 55 0a bc cb 82 cc bc 91 fe 48 3c
       -0.07781142 -0.008443319 -0.02496471 0.012267725
000030 b8 7d 6e 3c 0e b0 cc 3c 4f 7b ec bd 17 f4 21 bd
       0.014556341 0.024986293 -0.11546957 -0.039539423

weight f4 [8, 16, 1, 1]
000000 54 aa d2 bd 66 0a 6f be ba 4f 74 3e ae 2c 31 3e
       -0.10286394 -0.2334381 0.23858538 0.173022
000010 d9 44 33 be 94 8c 70 3e 13 39 e6 3d 9b 9e ad 3d
       -0.17506732 0.23491126 0.11241355 0.08477517
000020 75 31 65 be 4c 2e 71 be 3a 15 24 3e 2d 9a 32 be
       -0.22382148 -0.23552817 0.16023722 -0.17441626
000030 22 23 8f 3d b3 1a a6 3d 9d 0f 04 3c 61 7f 38 be
       0.06989123 0.08110561 0.008060363 -0.18017341
000040 d6 02 2f bd b1 d8 23 3e 03 8d 3a 3e 38 62 a2 3c
       -0.042727314 0.1600063 0.18217854 0.019822225
000050 17 ef a9 bd c1 3f 08 be 7e c3 39 be 76 5f 96 bd
       -0.08297556 -0.1330557 -0.1814098 -0.073424265
000060 24 f4 da bc 12 02 33 3e 23 07 4a bd 28 50 7d 3d
       -0.026727743 0.17481259 -0.049323212 0.06184402
000070 a9 59 b3 3d 02 88 37 be f5 21 b0 3d 10 e0 69 be
       0.08757336 -0.17922977 0.08600227 -0.2283938
000080 a1 da 52 3b 3b 06 55 be 7e 3f 3b 3e fa cb 2d be
       0.003217377 -0.20803158 0.18285939 -0.16972342
000090 4a 5c f8 bd 9c c5 5f 3e 0f a9 06 3d f1 cd 0e be
       -0.12126978 0.21852726 0.03287607 -0.13945748
0000a0 49 b7 67 be c5 c4 cc 3c 0e ff 20 3e 6d 01 55 be
       -0.22628511 0.02499617 0.15722296 -0.20801325
0000b0 09 f4 4d be f1 b5 3f 3e 42 78 2f bd c6 6c 41 3e
       -0.20112623 0.18721749 -0.042839296 0.1888915
0000c0 80 ee 1d be 72 98 06 3e b8 52 0e bd 18 12 6e 3d
       -0.15423012 0.13144091 -0.034746855 0.058122724
0000d0 11 2a 22 be 9d 86 11 be 0d 3b ce 3d 12 22 19 3e
       -0.1583636 -0.14211507 0.10069857 0.14954403
0000e0 14 55 4d 3b d4 87 0e 3e af 30 1d 3e cb 5c 49 be
       0.0031331228 0.13919002 0.15350603 -0.19664304
0000f0 17 c9 0a bd 1e 28 2a 3d 37 83 f1 bc 3b d9 21 3e
       -0.03388318 0.041542165 -0.029481513 0.15805523
000100 bb 3c 34 3e 26 d1 29 be 41 f6 26 3e d0 6f 5f be
       0.17601292 -0.1658369 0.16304876 -0.21819997
000110 30 a2 ba 3c b5 7d ff 3d c4 83 37 be 91 d5 05 3e
       0.022782415 0.124751486 -0.17921358 0.1306975
000120 16 e5 46 be ed 7d 56 3e 9b 79 6f 3e f9 0f 1b bc
       -0.19423327 0.20946474 0.23386233 -0.009464257
000130 ba 87 a4 3d fc 62 3a 3d d4 26 49 3d fb df 6b bd
       0.080337 0.045504555 0.049109295 -0.05758665
000140 e9 07 1b be be d1 98 3c 72 fb 9d 3d 92 b1 d5 bd
       -0.15139736 0.0186547 0.07713975 -0.104342595
000150 d5 a4 e2 bc 38 0d 0e 3e 52 86 38 be 80 d4 dc bd
       -0.027666489 0.1387223 -0.18019989 -0.10782719
000160 e1 ef 9f bc f4 4f d2 bd b5 1d 5a be 3c 06 b2 bd
       -0.019523563 -0.10269156 -0.21300395 -0.08692595
000170 1e a0 43 3e e2 1f 83 bd b3 8c 09 be 19 43 1b 3e
       0.19104049 -0.064025655 -0.13432579 0.15162314
000180 c6 95 3f be ad fe 58 3e 6f dd 0a be 66 f8 6d be
       -0.18709478 0.21190901 -0.13561033 -0.23239288
000190 60 a1 04 3e 0a cd 12 be d5 26 b2 3d b8 5d e2 3c
       0.12952185 -0.14336029 0.08698813 0.02763258
0001a0 b1 43 20 bc ec 21 32 3e 48 e3 2a be 86 8a 17 bd
       -0.009781764 0.17395753 -0.16688263 -0.03699734
0001b0 f3 8f 49 3e 70 80 fa 3d c5 e3 55 3d 5e 4c 28 3c
       0.19683819 0.12231529 0.05221917 0.010272114
0001c0 43 5e 59 3d 2a 3d 5f 3e 5f ca 6e 3e 78 cf 0d be
       0.05306841 0.21800676 0.23319386 -0.13848674
0001d0 54 4d 59 be 99 75 15 ba 94 8c d3 bb b4 fa 9f 3d
       -0.21220905 -0.00057014223 -0.006455967 0.0781149
0001e0 3e 41 40 be 33 29 07 be 95 e5 3d bd cd 37 28 be
       -0.18774888 -0.1319931 -0.046361525 -0.16427536
0001f0 20 5e 50 3e b7 df c0 3c 60 c8 71 be 6d 9d 47 be
       0.20348406 0.023544176 -0.23611593 -0.19493647

bias f4 [8]
000000 91 1a 55 3e 8f b3 18 3e 1a 50 5d 3c 6d f7 53 3e
       0.20810916 0.14912246 0.013507867 0.20699854
000010 b0 22 57 3e 38 23 74 3d db 6c 1c bd a1 a1 72 3e
       0.21009326 0.0596039 -0.03818975 0.23694469

weight f4 [8]
000000 0f dc 7f 3f 63 4e 7b 3f b5 4e 84 3f 6d 46 7c 3f
       0.9994516 0.98166484 1.033652 0.9854496
000010 7e 24 7f 3f 8b 42 82 3f 7d d8 7e 3f 84 8d 7d 3f
       0.9966506 1.0176557 0.99549085 0.9904406

bias f4 [8]
000000 c1 95 07 b9 ff 86 e9 b9 52 49 c9 3b 73 cd f6 ba
       -0.00012930391 -0.00044541803 0.0061427737 -0.0018829539
000010 0f c0 05 3b 34 5d 14 3b a5 38 f0 3b 1e f2 0a bc
       0.0020408665 0.0022638561 0.0073309713 -0.008480577

running_mean f4 [8]
000000 4c c3 8e c0 01 09 14 3e ad 9a 42 c0 a5 b4 2b c0
       -4.46134 0.1445656 -3.0406907 -2.6829007
000010 e3 90 6e 40 84 c3 50 c0 0e 2e 0b 3e bc 7f 4b c0
       3.7275932 -3.2619333 0.13591787 -3.1796713

running_var f4 [8]
000000 f1 e5 8a 3d a8 f4 33 3b 98 9b ee 3c 45 73 1c 3d
       0.06782139 0.002745906 0.029126927 0.038195867
000010 90 49 22 3d bd 1c 14 3d dd 98 a9 3b 41 42 23 3d
       0.039620936 0.03616022 0.0051756934 0.039858107

weight f4 [16, 8, 1, 1]
000000 28 a8 9a 3e 81 7d b5 3e ae 8d 3c be aa 9d 0c be
       0.30206418 0.35447314 -0.18413422 -0.13732019
000010 ba 8b 9d 3e c9 29 a9 3e 7f dd a2 be 46 31 02 3e
       0.30770665 0.33039692 -0.31809613 0.12714109
000020 d9 ab e0 b9 ce 80 73 be bf 1a bb bd a2 43 aa 3e
       -0.00042852646 -0.23779604 -0.09135961 0.33254725
000030 be de c5 3d 52 e2 50 3e 7b fa 78 3e 8a ac ab 3e
       0.09661625 0.20398834 0.243143 0.33530074
000040 47 49 6c bd 43 e4 4e 3e c4 9a 9e 3d 61 4b 1e 3e
       -0.05768707 0.20204262 0.07744363 0.15458442
000050 a3 b2 05 3e b3 ed 68 be f1 be 89 3e 04 78 82 3d
       0.13056426 -0.22746925 0.2690349 0.063705474
000060 ce 08 87 3e 6b eb 69 3d 61 ec 37 bb d4 c4 1e 3e
       0.26373905 0.057109278 -0.0028064477 0.15504771
000070 d5 7f 34 3d b9 12 da 3d 22 5c 15 be bf c3 8a bb
       0.044067223 0.10648102 -0.14585927 -0.0042347605
000080 be 0e 8e bd 10 25 e3 bd 63 b0 03 3d 41 c0 1a bd
       -0.069364056 -0.110910535 0.032150637 -0.037781004
000090 a1 ae af bd 5f 12 a1 3e d1 77 fc bd c5 0f 2b 3e
       -0.0857823 0.3145933 -0.12327541 0.16705234
0000a0 05 02 05 be 5e 2e 18 be 17 7e 63 3d d9 7c 4b 3e
       -0.12989052 -0.14861438 0.05554017 0.19871844
0000b0 7e ec 65 3e 16 bd 6c be 01 38 81 be 6a 38 b4 3e
       0.22453496 -0.23119006 -0.2523804 0.3519929
0000c0 39 22 6c 3e bf d1 1e ba 86 8a 3d 3e 93 24 6b 3c
       0.2305993 -0.0006058476 0.18509874 0.014351982
0000d0 20 e0 14 be ad 93 20 be 49 de 13 3d 22 c3 61 3e
       -0.14538622 -0.15681334 0.03610066 0.22047094
0000e0 28 c8 80 3d cd fb db bd 45 47 9a 3e e5 18 a7 3e
       0.06288177 -0.107413866 0.301325 0.3263618
0000f0 6c e0 22 3d 5e ad c3 3d 74 67 44 be 55 fe fe 3d
       0.039764807 0.095545515 -0.19180089 0.12450854
000100 f1 2a 8f bd 37 a5 5c be 8e 69 4c bc 90 30 c9 bd
       -0.06990612 -0.215474 -0.012476338 -0.09823716
000110 41 49 bc 3d 5f fa 87 3e c5 80 9a 3e 98 6b 70 3e
       0.091936596 0.26558205 0.30176368 0.23478544
000120 b1 6f a7 3e 68 2c 4e 3d c1 c5 9c be 6f a4 b6 bc
       0.327024 0.050335318 -0.30619624 -0.022295205
000130 c5 7a 42 be d4 1b 42 3e 0a ab 2b be a4 55 98 be
       -0.18992145 0.18955928 -0.16764465 -0.2975284
000140 7b 24 84 be 1f 16 7c be 80 df 69 3e 7d 94 0f be
       -0.25809082 -0.24617814 0.22839165 -0.14021488
000150 37 50 fe bd 15 c8 47 be dc 8b 1c 3e d8 62 e3 bd
       -0.124176435 -0.19509919 0.15287727 -0.11102837
000160 2e 1c c0 3c 9a 35 30 3d 8b 4b b6 bd 26 31 61 3e
       0.023450937 0.04301987 -0.089011274 0.21991405
000170 bd bc 07 3e e2 87 87 3d 9d 22 00 be 60 68 81 ba
       0.13255592 0.066177145 -0.12513204 -0.0009873025
000180 e5 ba 9c 3e 4c 65 82 be 79 35 b4 3e a5 b0 0c 3d
       0.3061134 -0.25467908 0.35197046 0.03434815
000190 9c 63 94 be ca e4 a2 3e a8 52 8a bc 14 75 4e 3e
       -0.28982246 0.31815177 -0.016885117 0.2016185
0001a0 5f 91 1f 3e 08 c3 e8 bc be 87 81 be 56 95 1d 3e
       0.15582798 -0.02841331 -0.25298876 0.15388998
0001b0 ef 66 3b 3e ac 0e 18 3e 42 f2 eb bd 2d 49 9b 3e
       0.18300985 0.14849347 -0.115208164 0.30329266
0001c0 17 84 49 be 30 18 4e 3e ca 1a 8b 3e 89 27 a3 3e
       -0.19679295 0.20126414 0.27168876 0.318661
0001d0 a2 b4 ab be 41 2f 29 bc 79 09 1e 3e e9 7a 98 3e
       -0.3353625 -0.010326208 0.15433301 0.29781273
0001e0 54 71 8c 3e 80 23 10 3e 73 3e e2 bb 2b 00 94 be
       0.27430212 0.14076042 -0.006904417 -0.28906378
0001f0 95 15 d9 bc 0e 1e 9b be 0c fc d6 bc 1d 27 94 be
       -0.026499549 -0.30296367 -0.026243232 -0.2893609

bias f4 [16]
000000 73 93 82 3e 38 24 26 be 4a 2a ee bb 56 5d fb 3d
       0.2550312 -0.16224754 -0.007268225 0.12273662
000010 a1 31 03 be 84 e6 bd bd 96 38 a4 be 52 48 93 3e
       -0.128119 -0.09272483 -0.32074422 0.28766114
000020 9b 26 7c be 99 ed b8 bd 95 58 a1 3e a1 b6 8d be
       -0.24624102 -0.09029693 0.31512895 -0.27678397
000030 a7 35 5c 3e 5f 42 9f 3d 5c e6 9c 3e 4d d1 92 bd
       0.21504842 0.07776331 0.306445 -0.07168827

weight f4 [16, 8, 1, 1]
000000 f4 ba 42 3e ab 93 72 be 51 43 4b 3d 41 17 9c be
       0.1901663 -0.23689143 0.049624745 -0.3048649
000010 39 31 96 be b4 03 38 bd 4f 91 52 3e c3 67 22 3a
       -0.2933443 -0.044925407 0.20563243 0.0006195271
000020 a5 57 57 3d 31 95 9b 3d 89 2c 34 be 29 88 72 3e
       0.05257382 0.075968154 -0.17595114 0.23684753
000030 d6 0f b1 3e fc 40 57 3e 23 56 1b 3e ac 15 d8 bc
       0.34582394 0.21020883 0.15169577 -0.026377521
000040 a2 f7 2f 3b 60 0d f0 bc 28 31 95 bd c3 23 48 3d
       0.0026850482 -0.029303253 -0.072847664 0.04886223
000050 59 8a b9 bc 8e 0e 05 be d9 30 99 be cd 95 4b 3e
       -0.022648977 -0.12993833 -0.2992008 0.19881363
000060 11 12 6b be 20 d6 79 3d 22 a3 24 be b7 fb ab 3e
       -0.2295611 0.06099522 -0.16077855 0.3359048
000070 a7 04 8d be d9 f6 ae 3e 7d bb 4d be 62 72 77 bd
       -0.27542612 0.34172705 -0.20091052 -0.06041182
000080 3b 3e eb 3c e7 b3 97 be 47 a1 a3 3e 3e 53 95 be
       0.028716197 -0.29629442 0.31958982 -0.2916507
000090 5d 95 4a bd 6e 5b 8c 3e 28 cd b4 3e 22 fc a4 be
       -0.04945885 0.27413505 0.35312772 -0.32223612
0000a0 a7 96 8b be 5f df 99 be 12 67 ff 3d 4f f0 2e 3e
       -0.27263376 -0.3005323 0.12470831 0.17083858
0000b0 b4 49 79 3e 35 36 46 3e 2d 92 e5 bd 11 a7 78 bd
       0.24344522 0.19356616 -0.112095214 -0.060706202
0000c0 62 f5 92 bd 5d a9 18 be 63 38 dc bc 82 20 97 3e
       -0.07175709 -0.14908357 -0.026882356 0.2951699
0000d0 1c cd 63 bd ea 4c 96 3e e9 f9 a2 be 7e 97 be bd
       -0.05561553 0.29355556 -0.3183129 -0.093062386
0000e0 cb 26 82 3e a0 ba 89 3e db 19 e5 bd c3 56 74 be
       0.25420222 0.26900196 -0.11186572 -0.23861222
0000f0 dd 54 65 3e fd 4d a0 3e e9 28 28 be c1 64 3e 3e
       0.22395654 0.313095 -0.16421856 0.18593122
000100 d6 05 d9 3d 6d e8 a7 be a7 ff 8c 3e b8 dd 3a 3e
       0.10596816 -0.32794514 0.27538797 0.18248641
000110 69 09 37 be 2d 8f 62 3e f3 d1 75 bd 46 83 b5 bd
       -0.17874683 0.2212493 -0.060014676 -0.08862929
000120 8d 38 d7 3d 40 99 9e be 8d 13 b6 3d 6f 69 87 3e
       0.10508833 -0.30976295 0.08890448 0.26447627
000130 d1 45 66 bd d7 52 6e 3e cc b7 35 3e ca 01 a1 be
       -0.056218926 0.23273788 0.17745894 -0.31446677
000140 9c 71 7d 3e 10 a3 b3 be 70 2c 9f be 7e 44 79 be
       0.2475037 -0.35085344 -0.3108859 -0.24342534
000150 90 92 aa be c2 53 9c 3e 7a 08 3a be ef 5e 83 3e
       -0.33314943 0.30532652 -0.18167296 0.25658366
000160 06 cd 5e 3e e1 37 84 bd 85 76 8f 3e b6 05 d5 3d
       0.21757898 -0.064559706 0.2802011 0.1040148
000170 e4 a6 9c 3e e0 00 33 be 8b fb 95 3e 42 ab c4 bd
       0.30596077 -0.17480803 0.29293475 -0.09602977
000180 89 1a a5 be b0 fb 7e 3d 12 48 73 be 7d 76 d2 bb
       -0.32246807 0.062251747 -0.23757961 -0.0064228163
000190 2f 29 89 bd 70 69 3a 3d 81 34 8d be bc ce 79 3e
       -0.06697308 0.04551071 -0.2757912 0.24395269
0001a0 b1 83 19 bd ea c7 33 bd d9 74 1a be 5a fb ca bd
       -0.037479106 -0.043891825 -0.15083636 -0.09911223
0001b0 65 82 0f 3e be 9f a8 be 52 9e ba bd d3 ca f7 bc
       0.14014585 -0.32934374 -0.091122285 -0.030248081
0001c0 d0 a8 d0 bd 98 a0 b0 3e e4 7b 8c be 8f 6d f1 bc
       -0.101884484 0.34497523 -0.2743827 -0.029471187
0001d0 30 b8 a3 3d 10 fb 0d 3e 1a 90 e7 bd ec f6 32 be
       0.07994115 0.13865304 -0.11306782 -0.17477006
0001e0 1f ec 4f be 7a f6 2a be 63 2a 02 3e 57 1b 65 3e
       -0.20304917 -0.16695586 0.12711482 0.2237371
0001f0 06 03 52 3d 02 ba b1 3e 85 6f a5 bc 4e 7a f7 3c
       0.051272415 0.34712225 -0.020194778 0.030209687

bias f4 [16]
000000 e0 5b 1a 3e c8 bc 8c 3e 43 e4 94 be 6c ce b0 3e
       0.1507411 0.2748778 -0.290804 0.34532487
000010 13 8b 83 be 29 b4 a0 3e 0b d8 ab 3d 6e 7f 1b be
       -0.25692043 0.3138745 0.08390816 -0.1518533
000020 7e e6 9b be 69 07 62 be 52 7a 68 3d ce f3 70 3e
       -0.3044929 -0.22073139 0.05675728 0.23530504
000030 7f 3e 07 3e 4d 24 1f be 6c 91 87 3e 05 a5 0c be
       0.13207434 -0.15541191 0.26478136 -0.13734825

weight f4 [16, 16, 3, 3]
000000 56 03 58 3d af 82 f7 3c 2d 3e 4b 3d 4a 0f 72 3d
       0.052737556 0.030213682 0.049619842 0.059096612
000010 b1 1d 6d 3d 76 15 97 3d 15 8f b6 bc bc 35 87 3d
       0.057889644 0.0737714 -0.022285024 0.06602046
000020 b0 a8 12 3d 7d 43 73 3d 3f e7 3e ba 73 32 6c bd
       0.035805404 0.059390534 -0.0007282383 -0.0576653
000030 1c 5e 2e bd 7f 7b 5e 3d 5b a7 86 3d 50 87 a0 3d
       -0.04257022 0.054316994 0.06574889 0.07838309
000040 cd e5 0d bd fa 53 73 bd d1 81 1a bc 0a a4 56 3d
       -0.034642983 -0.05940626 -0.009430365 0.052402534
000050 b3 20 17 bd aa 3c 73 bc ab 6c 5d bd 31 b7 00 bd
       -0.03689642 -0.014846006 -0.054058712 -0.031424705
000060 21 24 55 bd e1 26 75 3c f3 a2 94 bd 70 ad 68 3d
       -0.05203641 0.014962883 -0.072576426 0.056806028
000070 02 b0 83 3d 52 5d 8f 3d 83 6b 9d bd a0 03 a4 bd
       0.06430055 0.07000221 -0.07686522 -0.08008504
000080 78 19 61 3d 46 27 77 bd b6 3e 0c 3d fb fb 65 bd
       0.05495593 -0.06034019 0.034239493 -0.05614851
000090 cf f0 76 3d e3 d6 5f 3a 6c 1e cc 3c 3b c3 3b bd
       0.060288247 0.00085387955 0.02491685 -0.045840483
0000a0 47 43 40 bd 5c 8e 84 3c 41 01 19 bc ce 3c a7 3d
       -0.04693916 0.016181163 -0.009338678 0.081658944
0000b0 52 19 36 3d e4 91 84 bd 75 46 58 bc 8f 1e 40 3c
       0.04445774 -0.06473139 -0.013200392 0.011726036
0000c0 ce 1c 4c 3d 77 3e c5 3c 6b c2 86 3a c2 b6 94 bd
       0.049832158 0.024077637 0.001028133 -0.07261421
0000d0 3c fa 43 3d 55 cb e7 3c 41 3e 38 3b ae 6b 02 3c
       0.047846064 0.028295198 0.0028113278 0.007960243
0000e0 1b 80 0f bd 21 62 8f 3d 87 6e 9b 3c 8e 24 c2 bc
       -0.03503428 0.070011385 0.018973602 -0.023699071
0000f0 86 9a 0a 3d 20 c4 94 3d 4c ec 17 bd aa 93 80 bd
       0.03383877 0.072639704 -0.037090585 -0.06278165
000100 88 94 86 3d f3 74 5f bd c6 b7 96 3d 40 2b cd 3c
       0.06571299 -0.05455489 0.07359271 0.025045037
000110 9f 63 17 3c 2f 3b 33 3d c3 e5 62 bd 1e 47 4e bd
       0.00924006 0.043757614 -0.0553949 -0.05036079
000120 4a ff e9 3c 12 4b 9d 3d e8 24 4d bb cd 31 9a 3d
       0.028564114 0.07680334 -0.0031302515 0.0752903
000130 01 01 a1 3d 73 78 6b bc 5f ce 5b 3a bb 58 5d bd
       0.078615196 -0.014371979 0.00083849387 -0.054039698
000140 69 8c 8b bd 69 a4 36 bd ba 8a 93 3d bf 43 d8 bc
       -0.068138905 -0.044590387 0.07204194 -0.026399491
000150 de 31 84 bd 10 fc 8d bc 8d 0e 78 bd e6 2c 73 bc
       -0.06454824 -0.017332107 -0.06056075 -0.014842248
000160 cd 9d f9 bc 67 89 79 bd 7a 8e 02 bd 84 9a 97 3d
       -0.030470753 -0.060922053 -0.031874157 0.074025184
000170 dd 9c 92 bb a5 06 96 bc ff e5 15 3d a9 a3 96 bc
       -0.004474266 -0.018313715 0.036596294 -0.018388586
000180 a9 ec 87 3d 30 d7 a5 3d e8 5c 3e 3d af 0e ea 3c
       0.06636936 0.080976844 0.04647532 0.028571455
000190 88 88 54 3d 80 1f 12 bd 74 ba 9a bd 6d 8d c8 bc
       0.05188802 -0.035674572 -0.07555094 -0.0244815
0001a0 f9 77 d7 3c 22 29 89 3d 2b fc d7 bc a0 2c 29 bd
       0.026302325 0.066972986 -0.02636536 -0.041302323
0001b0 77 ca 75 bd 19 fe 94 bd 76 12 74 3d 89 2d 84 3b
       -0.06000754 -0.07275028 0.05958792 0.0040337485
0001c0 5c eb 7e bd 46 c6 f9 bc 56 40 1e 3d d0 92 66 3d
       -0.062236175 -0.030490052 0.038635574 0.056292355
0001d0 5c b3 90 3c 4e fa 77 3d 4e 8e 8e 3c 0d b0 2b bd
       0.01766365 0.060541444 0.01740184 -0.041915942
0001e0 f1 68 9c bd 52 3e 31 bd 7a 4a 23 3d 56 85 65 3d
       -0.076372035 -0.043272324 0.03986595 0.056035362
0001f0 c5 4f bc 3b cb ec ce bb 53 3c 4c bd ab cf 62 3d
       0.005746814 -0.006314849 -0.049862217 0.05537383
000200 e1 d1 5f 3d b5 ea 93 bd fe 13 c7 ba 84 11 64 bd
       0.054643515 -0.07222501 -0.0015188453 -0.055680767
000210 7d 2e 98 3d 46 cd 90 3d 5d 7a 5b bd cd 51 ba 3c
       0.07430742 0.07070403 -0.05358349 0.022744084
000220 c1 94 52 3d 08 e7 60 bc ea 02 82 3d 67 34 23 bb
       0.051411394 -0.013726957 0.06348212 -0.002490306
000230 2e 73 61 bd a8 05 5b bc 73 7f 67 bd 9c d4 2e 3d
       -0.055041485 -0.013368048 -0.05651803 0.04268323
000240 99 e8 4f bc 9e 4b d5 3c 66 b5 9f 3c 58 67 73 bd
       -0.012689733 0.026037034 0.019495677 -0.05942473
000250 07 0d 9f 3d 68 0a 94 3d 4b ea 88 3d 3f db 4e 3d
       0.07766157 0.07228547 0.06685313 0.050502058
000260 6b 70 f0 3c b6 35 e6 bc 5b ae 6a bd 85 94 88 3c
       0.02935048 -0.028101783 -0.057295185 0.016672382
000270 f7 e3 c1 3d 6f 3e bd 3d da f1 7e 3d 6e 17 58 3d
       0.09467309 0.09240424 0.062242366 0.05275672
000280 2e 79 bd bb cd 5d 45 3c d1 2a 79 bd 16 4e 47 bc
       -0.005782268 0.01204629 -0.06083185 -0.012164613
000290 fa c2 9e bd 5b 55 9d bb 7f dc a1 bd 2f b8 82 bd
       -0.077520326 -0.004801435 -0.079033844 -0.063827865
0002a0 66 44 39 3d cd f0 1e 3d e9 1b 5e bd 38 1f 11 3c
       0.045231245 0.038803864 -0.054225836 0.008857541
0002b0 3c 3c 2e 3d 1e f7 c5 bb 90 e1 59 bd c7 c3 9c bd
       0.042537913 -0.0060414216 -0.05319363 -0.07654529
0002c0 e0 33 3d bd de 76 fc bc 6e c1 97 3d db 58 2a 3d
       -0.04619205 -0.030818399 0.07409941 0.041588645
0002d0 d1 7b 1d 3d da 74 8b bd 71 33 63 3d 82 43 80 3d
       0.03844816 -0.06809397 0.05546898 0.06262876
0002e0 53 94 10 3d 22 b1 46 3d 19 19 69 3d 28 c1 6e bd
       0.035297703 0.04850877 0.0569087 -0.058289677
0002f0 b8 49 8a 3c 74 76 54 3d 98 06 7f bd 7c fd a2 3d
       0.016880855 0.05187078 -0.062262148 0.079585046
000300 4e 03 46 bd ca b6 9d bd 22 e5 8d 3c 24 8f 94 bc
       -0.048342995 -0.0770088 0.017321173 -0.018134661
000310 5a de 82 ba 4a 97 64 3d 36 e7 a4 3d 7a a0 2f bd
       -0.0009984479 0.055808343 0.080519125 -0.04287765
000320 d2 7d 27 bd e9 7d 28 bd 82 d1 db 3c 97 d1 6b 3d
       -0.040891476 -0.041135702 0.0268333 0.057572927
000330 97 37 0b 3d 4d 3d 25 3d 1e cc 9c bd 08 34 89 bd
       0.03398856 0.040341664 -0.0765612 -0.06699377
000340 5d f9 a9 3d e3 11 ed 3c 33 15 be bc 0f 30 f2 bc
       0.082995154 0.028939193 -0.023203468 -0.029563932
000350 36 92 43 3c 89 ea 18 3d 52 f6 63 bd e1 9a 67 bd
       0.011936715 0.037333045 -0.05565483 -0.05654419
000360 7a 9a dc 3c d0 3e 28 3d f2 07 82 3d e9 97 2e 3d
       0.026929129 0.041075528 0.06349172 0.04262534
000370 49 85 4f bc db 59 e0 bc f0 b3 85 3d 6e 3b ad 3d
       -0.012666055 -0.027386596 0.06528461 0.08458601
000380 9b b1 4c 3d aa 00 1a 3d 70 5c 7d bc 7c 24 da 3c
       0.049974065 0.03759829 -0.015463933 0.026628725
000390 e3 25 40 bd 59 0a 8a 3b 78 81 2d bd 69 fd e3 3b
       -0.04691113 0.0042126593 -0.0423598 0.006957699
0003a0 47 e2 a7 3b 58 46 c8 bc ce 96 3b 3d c3 c6 2c 3d
       0.00512341 -0.024447605 0.045798115 0.04218174
0003b0 4e dc 28 bb 66 87 04 3d 5c a3 b6 3c 89 cb 62 3d
       -0.0025766077 0.03235569 0.022294693 0.055369888
0003c0 dd 56 f0 3c 3c 9f 91 3d 32 65 b6 ba f4 9d 88 bb
       0.029338295 0.0711045 -0.0013915657 -0.00416922
0003d0 91 18 c0 3c 18 53 07 bb d3 66 06 bd cc a4 cb 3c
       0.023449214 -0.0020648893 -0.032812905 0.024858855
0003e0 15 fd e3 bc 2c 7d 52 3d 77 95 fc bc 96 16 8f bc
       -0.02783064 0.051388904 -0.03083299 -0.017466825
0003f0 16 0b 0a bd 78 57 45 bd 55 a7 4b 3d eb 3d 99 bd
       -0.03370198 -0.04817912 0.049720127 -0.07482513

bias f4 [16]
000000 d8 0e f9 bb 9f c8 54 bd aa 40 c2 3d 9a 47 6d bd
       -0.0076006465 -0.05194914 0.0948499 -0.057929613
000010 4e 81 9b b9 c4 8b 98 3d 28 65 5b 3c b1 32 0c 3d
       -0.00029660243 0.07448533 0.013390817 0.03422803
000020 10 52 9f 3c ec 65 8b 3d e9 8a 54 3d 0a 4b 07 3c
       0.01944831 0.068065494 0.051890288 0.008257637
000030 40 f5 62 3d aa 1f d0 bc b8 96 36 3d 62 42 b1 3d
       0.05540967 -0.025405724 0.04457733 0.0865524

weight f4 [32, 16, 3, 3]
000000 30 d1 32 bd 78 90 0f bc f9 0e 0b 3d 79 e7 6e 3d
       -0.043656528 -0.008762471 0.033949826 0.05832622
000010 16 d3 96 3d 75 62 a1 3d 94 4f 1d 3c 00 91 7e 3d
       0.0736448 0.07880107 0.009601492 0.06215
000020 46 c4 c7 bb 55 60 5c bd 5d b8 78 3d b3 24 2f bd
       -0.0060963957 -0.053802807 0.060722698 -0.04275961
000030 ae d9 50 bc bf 8d 10 3d bf 1b 2d 3d 97 73 1d 3d
       -0.012747211 0.03529143 0.04226279 0.038440313
000040 ae b7 a8 bc 63 43 c6 bb fb 0e b7 bd 7d 35 65 bd
       -0.020595398 -0.0060505136 -0.08938404 -0.055959214
000050 48 01 42 3d 48 23 7f bd 7d fd 54 3d aa 7e fd 3c
       0.047364503 -0.062289506 0.051999558 0.030944187
000060 a0 02 32 bd 59 97 0d bd 26 e0 62 bd 7b 60 98 3d
       -0.043459535 -0.034568164 -0.055389546 0.07440277
000070 b6 b1 52 3d 05 33 94 bd 4b 59 f8 bc 59 45 52 bd
       0.05143901 -0.07236294 -0.030316016 -0.051335666
000080 7e 55 f5 3c 0a c7 90 3d bc f2 c7 bc 53 a7 7f 3d
       0.029947992 0.07069214 -0.024407737 0.062415432
000090 78 52 85 bd e5 7a 28 bd 40 d7 1b 3d e6 7c 5f 3d
       -0.0650987 -0.041132826 0.038047075 0.05456247
0000a0 1a 3e d0 3b 68 d5 30 3d c9 29 cf bc 3a d6 d4 3c
       0.0063550593 0.04317227 -0.02528848 0.025981057
0000b0 08 2b 31 3d 4d df e0 bc ad c1 80 bc 72 82 82 3d
       0.04325393 -0.027450228 -0.015717352 0.06372537
0000c0 1d b6 0e 3a e3 0b 95 3d f1 c4 6a 3d 6d 0c e2 3c
       0.0005444007 0.07277658 0.057316724 0.027593816
0000d0 83 e7 cb bc 1f aa b1 bb 67 4a 05 3d 34 98 62 3d
       -0.024890667 -0.0054218913 0.03254166 0.055320933
0000e0 98 62 81 bb eb 06 28 bd e1 f3 a2 bd 72 be a3 bd
       -0.003948521 -0.041022222 -0.079566725 -0.07995309
0000f0 22 5d 9a 3c ec 2b ee bc 49 72 00 bd 70 69 d9 bc
       0.018843237 -0.029073678 -0.03135899 -0.026539534
000100 15 29 88 3d 5d 20 f4 bb 30 43 45 bc 5d ce 8f 3d
       0.06648461 -0.007450147 -0.0120399445 0.070217825
000110 2b b6 49 bd 47 b2 46 3d 7a e3 78 bd 85 ea 9f 3d
       -0.049245995 0.048509862 -0.060763814 0.07808403
000120 58 6a f4 3c 2e 77 ba bb 22 35 88 3d aa 6f 99 bd
       0.029835865 -0.005690477 0.06650759 -0.07492001
000130 66 c1 1b bd 9a 1a dd 3c 78 00 2d bd 9f 82 28 bd
       -0.038026236 0.026990224 -0.042236775 -0.041140195
000140 1c 16 67 3d d8 7b 9a 3d 9f f1 27 bd 2f 31 94 3d
       0.05641757 0.075431526 -0.041001912 0.072359435
000150 78 3a 00 3d 6b 53 81 bd 7d 68 50 3d a5 7f 45 3c
       0.03130576 -0.06314739 0.050880898 0.012054359
000160 74 83 93 3d eb 33 6a 3d 70 72 ad 3c f5 c2 5e 3d
       0.07202807 0.05717842 0.021172732 0.054385144
000170 c9 83 1f 3d 27 df ce 3c e3 88 a1 bd af 0e 2d 3d
       0.03894404 0.025252892 -0.07887437 0.04225033
000180 3a bd 53 3d 72 5d 0b bd a3 b0 84 bd 45 36 68 3c
       0.051694132 -0.034024663 -0.06479003 0.014173095
000190 f9 06 95 3d 02 ad 99 3d ee a0 23 3d ae 76 90 3c
       0.072767206 0.07503702 0.039948396 0.017634716
0001a0 6f 0c 9f 3d 5b 25 53 3d 58 ff 34 bd 64 8c 39 3d
       0.077660434 0.051549297 -0.044188827 0.045299903
0001b0 53 f2 56 3d aa 42 b8 3b 0a 62 59 bd ed 7b 3e 3d
       0.052477192 0.0056231814 -0.053072013 0.046504904
0001c0 2d 60 68 3d 2f 9d 0f 3c 10 ee 51 3d 6e 15 eb bc
       0.056732345 0.008765503 0.051252425 -0.028696742
0001d0 0c 3b 0f 3d ed 12 46 bd 3c 26 54 bd 49 dd 52 bd
       0.03496842 -0.048357893 -0.051794276 -0.051480565
0001e0 a6 a4 33 3d b9 1a 97 3d 59 ed 0b 3d e3 db 98 3b
       0.043858193 0.07378144 0.0341619 0.0046648844
0001f0 fd 64 7a bd 48 b2 31 bd ce a7 d6 3c 99 a9 7b bd
       -0.061131466 -0.043382913 0.026203062 -0.061441038
000200 22 29 d2 3c 29 59 74 bd 71 29 70 3c dc 28 cb 3b
       0.02565438 -0.059655342 0.014658318 0.006199939
000210 27 15 1e bd 2f c9 2c 3d 91 c3 90 bc f9 71 32 bc
       -0.03859439 0.04218405 -0.017671378 -0.010891431
000220 92 fb 10 bd d0 09 c1 bd 4c ec cb bd 06 f3 91 3c
       -0.035396166 -0.094257 -0.099571794 0.017816078
000230 8a 0e 04 bd 50 38 00 be b5 c9 df bd 2f 8b 4f 3d
       -0.032240428 -0.12521482 -0.109271444 0.050669845
000240 03 33 bd ba 5e e3 f8 bc ae 59 68 3d d6 f4 a9 3d
       -0.0014434758 -0.030381855 0.05672615 0.08298652
000250 1a 0c be 3b c5 3e a5 3d 53 68 10 bc 5e 9f 58 3d
       0.0057997825 0.08068613 -0.008813935 0.05288636
000260 7f 4f 9d 3d e2 eb 4d bd 68 15 85 bd e6 d0 ab 3c
       0.07681178 -0.050273784 -0.064982235 0.020973634
000270 9d 62 6a bc 04 f0 37 bd aa 46 2b 3d 0a 9d c4 bc
       -0.014305738 -0.04490663 0.041815437 -0.024000663
000280 7d 4a 98 bd 3a 8b e2 3c 80 a9 21 bd 38 02 39 bd
       -0.074360825 0.027654279 -0.03946829 -0.04516813
000290 4f 39 88 bd df 25 58 bd 69 d6 50 3d 13 32 c8 bb
       -0.06651556 -0.05277049 0.050985727 -0.006109485
0002a0 42 f2 81 bd c5 99 8e 3d 61 34 ba 3c 82 24 83 bc
       -0.06345035 0.06962923 0.022730054 -0.01600862
0002b0 26 a6 a8 bc ab 1d 25 bc 97 8a 26 3d 51 f8 8d 3d
       -0.020587038 -0.010077874 0.040659513 0.06932128
0002c0 62 cd 37 bd b9 74 89 bd f5 90 4a 3d 9c d0 8e bd
       -0.044873603 -0.06711716 0.049454648 -0.06973383
0002d0 6e 52 2e 3d 82 cd 8a 3d d8 aa ad bc b0 79 16 bd
       0.04255908 0.06777479 -0.021199629 -0.036737144
0002e0 b8 7e 93 3d bb 34 6c bd ae 73 12 bd 53 f8 13 3b
       0.07201904 -0.057667475 -0.035754852 0.0022578433
0002f0 0e 9c 0d 3d 0f d3 8e bd 71 8f 5a bd 7c 25 8a bd
       0.034572653 -0.0697385 -0.053359453 -0.06745431
000300 a2 f2 88 3d 20 9d 02 3d 95 97 57 bd d8 d0 86 bc
       0.066869035 0.031888127 -0.052634794 -0.016457006
000310 c0 3c b3 bc c2 86 86 3d ae 2a 33 3d 09 62 ff bb
       -0.021879554 0.06568672 0.043741874 -0.007793669
000320 fe 2e 48 3d 5d bf 9f bc 0b 5e 13 bd fe a8 5b 3d
       0.04887294 -0.019500429 -0.03597836 0.05362796
000330 df ac 2b 3d e0 8b 9a bd d6 36 75 bd f6 40 09 3d
       0.04191291 -0.0754621 -0.05986675 0.033509217
000340 b5 52 6d 3d 38 a7 6f 3d f3 a9 ff 3c 20 89 2d 3c
       0.057940204 0.05850908 0.031208968 0.010591775
000350 e5 a2 93 3b aa fd 89 3c 78 c5 b4 bc 38 6c 75 bd
       0.0045055025 0.01684459 -0.022066817 -0.05991766
000360 54 e4 7c 3c 78 a2 e5 bc 49 d2 9a 3d 3b 84 77 bb
       0.015435297 -0.028031573 0.0755964 -0.0037768024
000370 b9 d7 9d 3d 31 1c 85 3b b1 6d a4 3d d7 b4 25 3d
       0.077071615 0.0040621986 0.080287345 0.040455665
000380 9b 74 89 bc 06 fb 20 3b a3 98 d8 bc 13 47 0c bd
       -0.016779235 0.0024563684 -0.02643997 -0.03424747
000390 06 10 d7 3c 56 b2 9d bb 8e 89 8f 3d b9 da a4 bd
       0.026252758 -0.004812519 0.07008658 -0.080495305
0003a0 cb 6d 55 bd 82 36 63 3d 72 89 3c 3d 8a 61 59 bd
       -0.05210666 0.055471905 0.046029516 -0.053071536
0003b0 f6 c6 1c 3c 83 2b a1 bd 35 1f 87 3d 6c 24 0e 3d
       0.00956892 -0.07869627 0.06597749 0.034702703
0003c0 83 d5 c2 3c 34 93 ca bb 6a 41 08 3d ee 37 82 bd
       0.023783451 -0.0061820988 0.03326551 -0.06358324
0003d0 aa 7e b7 bb 21 5b f4 bc 6f 37 be bc ab 33 1c 3d
       -0.0055998163 -0.02982861 -0.023219792 0.038135212
0003e0 1b 0d 15 bd 5f 46 67 3d 7e 70 e3 bc 0d b5 90 bd
       -0.03638945 0.056463595 -0.027763601 -0.07065783
0003f0 2c 05 ec bc d3 d0 8b 3d 72 39 a5 bd fe ad 14 bc
       -0.02881106 0.068269394 -0.080675974 -0.009074686

bias f4 [32]
000000 44 b1 4c 3d 38 55 9a bc 93 7d 92 bd 70 4b 20 3c
       0.04997374 -0.018839464 -0.07152858 0.009783611
000010 96 e9 76 bd db 79 80 3d ba 61 b8 bc c4 d3 77 3d
       -0.06028136 0.06273242 -0.022507537 0.06050469
000020 0e 11 8a bd c8 0d 81 bd 15 a3 0b 3d 8c 94 5c 3c
       -0.06741534 -0.06301457 0.034091074 0.013463151
000030 d8 6f 9b 3d 59 4a 7b 3d fc 9b 7a bd 17 3f cd 3c
       0.07589692 0.0613502 -0.061183915 0.025054498
000040 86 e0 15 bd 7c 13 24 3d eb d1 6a bd 0f 56 6d 3d
       -0.036591075 0.040057644 -0.0573291 0.0579434
000050 61 79 a2 3d fb 60 76 3d 4a 3b 83 bd 02 8b 0a 3d
       0.079333074 0.06015108 -0.06407793 0.033823974
000060 d1 ba a7 3d 10 87 27 3d e2 55 9a bc e2 25 9a bd
       0.08189929 0.04090029 -0.01883978 -0.07526757
000070 53 36 b9 3d 03 cc 77 3d 7c 00 4d 3c 0e c5 87 3d
       0.09043565 0.060497295 0.0125123225 0.06629382
