runs/50.pt (torch, 156610 bytes, 38 tensors)

weight f4 [8, 1, 3, 3]
-0.2809128 -0.079808004 -0.2893579 0.06443592 0.09632856 0.23883168 0.21897757 -0.29487112
0.24828024 0.21199764 -0.30159667 0.29385716 -0.18901563 0.0867788 -0.15882592 0.20463145
-0.24835683 0.16217022 0.01959176 -0.07035307 0.124653116 0.044824295 -0.21775202 -0.042130463
-0.0008295427 -0.2027921 -0.2765127 0.080402255 -0.20090453 0.16446051 0.24001308 0.021090742
-0.16741714 0.115472086 0.088368475 0.08105594 0.31456196 -0.10492357 0.089933775 -0.2555436
0.20791022 0.1290369 -0.0661118 0.32004178 -0.22052406 0.013580062 -0.19840202 0.25395748
0.0036703334 0.1880024 -0.07991173 0.069412105 0.003216382 -0.092351556 0.08860172 0.31714067
0.32738158 -0.13698107 -0.3027405 0.27784166 0.33087718 -0.17904045 -0.061398715 -0.240266
0.28218985 -0.3320679 -0.19889002 -0.11419263 0.0783635 0.20841412 -0.06576999 0.21648583
00000000: cdd3 8fbe 6172 a3bd b826 94be fbf6 833d
00000010: e847 c53d 4b90 743e a83b 603e 59f9 96be
00000020: 2d3d 7e3e e915 593e e16a 9abe 7274 963e
00000030: 508d 41be 15b9 b13d 43a3 22be e88a 513e
00000040: 4151 7ebe f30f 263e e67e a03c 4515 90bd
00000050: 224a ff3d ae99 373d 63fa 5ebe fe90 2cbd
00000060: ab75 59ba bba8 4fbe 1393 8dbe f0a9 a43d
00000070: ebb9 4dbe 5668 283e fdc5 753e 7ec6 ac3c
00000080: 666f 2bbe a17c ec3d 88fa b43d a800 a63d
00000090: 440e a13e 2be2 d6bd 332f b83d 9cd6 82be
000000a0: 6be6 543e 4022 043e a065 87bd 84dc a33e
000000b0: 0fd1 61be e97e 5e3c e629 4bbe b706 823e
000000c0: fa89 703b b383 403e c3a8 a3bd ef27 8e3d
000000d0: f0c9 523b d022 bdbd d274 b53d 4360 a23e
000000e0: 8f9e a73e c444 0cbe ce00 9bbe 4341 8e3e
000000f0: bc68 a93e 6156 37be 387d 7bbd 4a08 76be
00000100: 307b 903e ce04 aabe d3a9 4bbe d3dd e9bd
00000110: 0b7d a03d 836a 553e 6bb2 86bd 76ae 5d3e

bias f4 [8]
-0.27486193 -0.021317631 0.26654792 0.09265904 0.03542792 -0.06836923 -0.08674929 -0.0728968
00000000: b4ba 8cbe 50a2 aebc f878 883e 06c4 bd3d
00000010: de1c 113d 2b05 8cbd 9da9 b1bd eb4a 95bd

weight f4 [8, 8, 3, 3]
-0.025396166 0.011900836 -0.022936093 0.017211193 -0.06089704 -0.0023530375 -0.04823698 0.100237936
-0.040935103 0.005022666 -0.00084582245 0.06903611 -0.07218978 0.115849175 -0.11603576 0.008769505
-0.009241512 0.053104006 0.03730726 -0.07767114 0.10048284 0.08205748 0.056229204 -0.04677544
-0.029763175 0.11644912 0.060958054 0.08935026 0.09359944 0.07569048 -0.02577069 0.02971408
0.07245279 -0.035569683 0.049026668 -0.07340043 0.029647782 0.031912714 0.09760737 0.08865262
-0.026884288 0.06305673 -0.11718845 -0.0928607 -0.05018683 0.05712301 0.004565937 -0.04339906
-0.10334562 0.050994486 0.06326228 -0.03068252 0.016948873 0.069559105 0.05894641 0.017284235
-0.057498503 0.020046115 0.117410846 0.0065919734 -0.04794268 0.1139791 -0.10930127 0.043441396
0.11436157 0.0933076 0.00084510597 -0.074329525 0.039774965 0.07166958 -0.086458065 -0.028514225
0.023286147 0.030409187 0.06094744 -0.008107937 0.025552792 0.056072485 0.00594647 0.051883552
-0.017685302 -0.043601945 0.09478378 0.008127511 0.009587661 -0.041403748 0.036109164 -0.10597928
0.11456673 0.010069454 -0.1000455 0.0355623 -0.020836905 0.086664945 0.09174764 -0.044325422
-0.05377401 -0.085838065 -0.03492177 -0.099058405 0.013687366 -0.023973137 0.019192506 -0.05216345
0.09169861 -0.107711986 0.045687035 -0.090467475 0.02413462 0.06173755 0.007822506 0.029310212
-0.1131703 -0.009452891 0.028142503 0.11553959 0.099646196 0.028608842 0.032487433 -0.052331626
-0.08139034 -0.061295975 -0.055814356 -0.042578522 0.0016664799 -0.039649256 0.09439612 0.04076477
0.06410311 -0.11429058 -0.031216502 0.05882045 -0.08888632 0.014763811 -0.025000757 -0.027822018
-0.10482028 -0.020165788 0.011220098 -0.09662421 -0.045769557 -0.06321543 -0.06739853 -0.08748041
0.09547115 -0.054361552 -0.109709084 0.045172647 0.011504901 0.05139801 -0.07520916 0.0036200306
0.04028102 0.06225915 -0.009449666 0.10099664 -0.0016629676 0.0070857136 -0.066689774 -0.073639005
-0.08572446 0.087457135 -0.115114935 0.012685058 9.613868e-05 0.02682708 0.080292426 0.08531047
0.03821254 -0.091748446 -0.018104801 -0.07316557 0.11113565 0.11004619 0.06367819 -0.057565548
0.05176395 -0.09105314 -0.094461225 0.0011823155 -0.029542444 -0.008733589 0.058611136 -0.03486705
-0.08933111 0.04968922 0.11214794 -0.028697424 0.06475134 -0.11566412 0.015472141 0.03030895
0.020789623 -0.06583174 -0.11634105 -0.062032595 0.007578049 -0.06870291 -0.021175474 -0.10867283
-0.0030759603 -0.07283179 -0.03263148 0.022071596 -0.05190898 0.09318682 0.019185144 0.051021516
0.025452007 0.049265858 -0.07715705 0.075850666 0.06152744 -0.0019498367 0.11078888 -0.0044741137
-0.07589513 0.06460779 0.08104078 -0.03442233 0.045977395 0.01611718 0.10300449 0.008921759
0.012102352 0.0854077 0.02947116 0.024507193 -0.05040808 -0.066400655 -0.04022117 0.07465008
0.060163658 0.018545205 -0.05825231 0.10926093 0.06633571 0.00022219773 -0.07168815 -0.051604223
0.114964515 -0.07280796 -0.08879974 0.047597133 0.11659045 -0.0038564545 0.0092285685 -0.0106654065
0.10652366 0.053605508 0.041600514 0.080721214 -0.07493885 0.10925679 0.10523489 0.103873864
00000000: 9f0b d0bc b9fb 423c 79e4 bbbc 7dfe 8c3c
00000010: 2d6f 79bd 6b35 1abb 2494 45bd 8c49 cd3d
00000020: 91ab 27bd 2d95 a43b 2fba 5dba ce62 8d3d
00000030: 3cd8 93bd 5542 ed3d 28a4 edbd f8ad 0f3c
00000040: b669 17bc 9683 593d 7fcf 183d 0c12 9fbd
00000050: f2c9 cd3d c10d a83d 9850 663d 9b97 3fbd
00000060: e7d1 f3bc e07c ee3d 27af 793d 45fd b63d
00000070: 10b1 bf3d 9c03 9b3d 0e1d d3bc f16a f33c
00000080: 2162 943d 84b1 11bd 30d0 483d f752 96bd
00000090: e8df f23c e8b6 023d 5fe6 c73d 818f b53d
000000a0: 703c dcbc e323 813d 8000 f0bd c02d bebd
000000b0: b590 4dbd d1f9 693d db9d 953b 36c3 31bd
000000c0: dea6 d3bd 98df 503d a78f 813d e859 fbbc
000000d0: 5dd8 8a3c 0175 8e3d ca71 713d ab97 8d3c
000000e0: 8d83 6bbd c037 a43c 1975 f03d 7b01 d83b
000000f0: 8b5f 44bd e06d e93d 58d9 dfbd 9bef 313d
00000100: 6636 ea3d 0e18 bf3d 1a8a 5d3a 143a 98bd
00000110: 13eb 223d 80c7 923d ed10 b1bd aa96 e9bc
00000120: 97c2 be3c b01c f93c 06a4 793d 27d7 04bc
00000130: 1754 d13c 43ac 653d 9bda c23b d983 543d
00000140: c4e0 90bc f497 32bd 001e c23d 4029 053c
00000150: 9115 1d3c fa96 29bd 34e7 133d aa0b d9bd
00000160: f6a1 ea3d 5afa 243c a8e4 ccbd c6a9 113d
00000170: 28b2 aabc 647d b13d 30e6 bb3d 938e 35bd
00000180: 2342 5cbd decb afbd 210a 0fbd 22df cabd
00000190: f940 603c 5063 c4bc 9a39 9d3c 57a9 55bd
000001a0: 7bcc bb3d 1a98 dcbd 5422 3b3d 0347 b9bd
000001b0: f7b5 c53c 83e0 7c3d f829 003c f81b f03c
000001c0: d5c5 e7bd 4ce0 1abc 1b8b e63c 05a0 ec3d
000001d0: 4e13 cc3d 175d ea3c 8b11 053d b059 56bd
000001e0: fbaf a6bd 7d11 7bbd 989d 64bd d166 2ebd
000001f0: c96d da3a 4267 22bd c152 c13d f6f8 263d
00000200: 7e48 833d 2e11 eabd c0b9 ffbc b6ed 703d
00000210: 080a b6bd e9e3 713c 63ce ccbc 00eb e3bc
00000220: 04ac d6bd b932 a5bc 80d4 373c eae2 c5bd
00000230: dc78 3bbd 1777 81bd 3e08 8abd ee28 b3bd
00000240: 6186 c33d 38aa 5ebd 28af e0bd f406 393d
00000250: 0d7f 3c3c b886 523d 4307 9abd 093e 6d3b
00000260: b6fd 243d 7303 7f3d c6d2 1abc 54d7 ce3d
00000270: eff7 d9ba 462f e83b a694 88bd 0cd0 96bd
00000280: 4e90 afbd ba1c b33d 61c1 ebbd fdd4 4f3c
00000290: 109e c938 77c4 db3c 5b70 a43d 41b7 ae3d
000002a0: c184 1c3d 9ce6 bbbd 8550 94bc d5d7 95bd
000002b0: 169b e33d e65f e13d b669 823d dac9 6bbd
000002c0: 7006 543d 127a babd e374 c1bd edf7 9a3a
000002d0: ff02 f2bc 5417 0fbc 3b12 703d c0d0 0ebd
000002e0: 3bf3 b6bd ec86 4b3d d2ad e53d dc16 ebbc
000002f0: 5a9c 843d 4fe1 ecbd dd7e 7d3c 7a4a f83c
00000300: 004f aa3c cbd2 86bd 3744 eebd e415 7ebd
00000310: 4851 f83b 1cb4 8cbd 3078 adbc dc8f debd
00000320: 0d96 49bb d528 95bd 96a8 05bd 7ecf b43c
00000330: 839e 54bd bbd8 be3d 2a2a 9d3c f0fb 503d
00000340: ba80 d03c ffca 493d 8404 9ebd 9857 9b3d
00000350: 3204 7c3d aa91 ffba 48e5 e23d 969b 92bb
00000360: e86e 9bbd 1751 843d b5f8 a53d 6efe 0cbd
00000370: cb52 3c3d 2d08 843c 05f4 d23d 922c 123c
00000380: f248 463c 3bea ae3d 816d f13c 4fc3 c83c
00000390: b478 4ebd 11fd 87bd f4be 24bd 24e2 983d
000003a0: 2b6e 763d 1dec 973c f999 6ebd 32c4 df3d
000003b0: 04db 873d c0fd 6839 3dd1 92bd f35e 53bd
000003c0: 8472 eb3d 571c 95bd a3dc b5bd 36f5 423d
000003d0: f9c6 ee3d 92bc 7cbb 6c33 173c f5bd 2ebc
000003e0: 1429 da3d 7391 5b3d 4d65 2a3d 2a51 a53d
000003f0: 8a79 99bd 06c2 df3d 6485 d73d d2bb d43d

bias f4 [8]
-0.09447006 -0.09829634 0.10768432 0.036930114 0.09219947 0.1115684 0.018419677 -0.041082364
00000000: 8579 c1bd 974f c9bd 9989 dc3d 0844 173d
00000010: 13d3 bc3d f97d e43d dde4 963c fb45 28bd

weight f4 [16, 8, 3, 3]
0.08246845 0.109922215 0.114524044 0.027136343 0.03600398 -0.029176667 -0.004388318 0.057323318
0.006656948 -0.060845178 -0.0016572588 -0.03619054 0.053702354 -0.031087415 0.03845978 -0.092016995
0.03524667 0.04354986 -0.051164415 0.073601395 0.08158481 -0.011110486 -0.10811364 0.09365829
-0.08649048 0.07424234 0.07927723 0.09713768 -0.08639294 -0.06807452 0.08624047 -0.045403175
0.02331364 0.04380047 0.11213191 -0.04212214 -0.047004435 -0.054981206 -0.014781862 0.024120443
-0.011303402 -0.042160664 0.047200326 -0.103454605 0.063032605 0.0019680022 -0.044112753 -0.063807815
0.02994779 -0.05907643 0.011406219 0.06094619 -0.08169482 -0.08077474 0.113358766 0.025503635
0.10853927 -0.07559878 0.04506521 0.0812029 0.04107696 -0.025935125 -0.08305725 -0.07160607
-0.113970205 0.0044811945 0.103826106 -0.04102155 -0.05718635 0.014770489 0.0925413 0.06421781
-0.066064514 -0.070886396 -0.024775436 -0.06734529 -0.09761035 0.016138116 -0.06734201 -0.10985044
0.095245615 0.05185069 0.080204174 0.06942525 0.00013757811 -0.0978199 -0.0478001 0.05113624
0.056457933 0.03139934 -5.8198588e-05 0.015416961 0.015721424 0.11430231 0.05356869 -0.086171925
0.02237846 -0.050314974 0.10433786 0.085403346 0.11062411 0.0019882212 0.082394235 -0.11241115
0.109552704 0.058250938 -0.101997085 -0.04871336 -0.065890595 -0.0021997036 -0.004179002 -0.06933944
-0.03001736 0.06488278 -0.007591286 -0.03262341 -0.02072133 -0.08447643 0.032779034 -0.07618586
0.03221267 0.071745105 -0.033943918 0.002083093 -0.044457827 0.09154966 -0.04617727 0.10042904
0.11444231 -0.057300013 0.09331045 0.023506928 0.0406135 -0.100672744 0.015356148 0.018859308
-0.10066312 -0.049701773 -0.0131902965 -0.09933822 0.052951086 -0.08541326 0.09628813 -0.025867246
-0.045171265 0.10102853 -0.09383224 -0.09097031 0.0011758163 -0.08485187 -0.011941382 0.05142791
0.019811947 -0.06366015 -0.09831445 0.05196497 0.00959543 -0.029047446 -0.1024164 0.027331568
0.020263493 0.10260455 0.086525485 0.05173035 0.10872658 0.08470916 0.04095125 0.035518043
-0.057154983 -0.046456236 0.08322591 -0.11454773 -0.081400245 0.01906893 0.072075844 -0.07736027
0.09326778 -0.015240922 0.08222139 -0.09860539 0.06923952 0.024445994 0.10919361 -0.113994226
-0.023596866 0.08410265 -0.049371067 -0.051574677 -0.0066959066 0.048113964 -0.011161856 -0.10040785
0.030556759 0.09987186 0.062361155 0.09753717 -0.06891526 0.048513442 -0.085982606 0.052542906
-0.112236895 0.00884206 -0.11704549 0.0149939675 -0.11412906 -0.06663222 0.08071517 0.025850937
0.0024150175 0.08125149 0.024280345 0.080374494 0.0099416515 0.11082205 0.06331461 -0.06193081
0.04040073 -0.03902772 -0.06642583 -0.04963096 -0.012465473 -0.05807868 0.05617704 -0.023848044
0.05048093 0.11510859 -0.110375896 0.026242655 0.0068434877 0.11480854 0.078922175 -0.08371737
-0.08976955 -0.07168063 0.102104634 -0.039601263 -0.018485047 0.09745538 -0.05707972 -0.095903814
-0.091440044 0.037463926 -0.06508872 -0.0820497 0.03977124 0.01188874 -0.039731257 -0.10112884
0.078346714 -0.08275544 -0.108049735 -0.07003601 -0.017399827 -0.09765522 0.01914252 0.042284384
00000000: 38e5 a83d e61e e13d 958b ea3d 094d de3c
00000010: e978 133d e803 efbc e1cb 8fbb dbcb 6a3d
00000020: 8722 da3b cb38 79bd 6138 d9ba 883c 14bd
00000030: 00f7 5b3d 09ab febc 0188 1d3d 6873 bcbd
00000040: d05e 103d 5761 323d c791 51bd 54bc 963d
00000050: f015 a73d c208 36bc af6a ddbd ebcf bf3d
00000060: ec21 b1bd 5e0c 983d 1a5c a23d 1ff0 c63d
00000070: c8ee b0bd a76a 8bbd d89e b03d aef8 39bd
00000080: 3ffc be3c 1f68 333d 6aa5 e53d 4488 2cbd
00000090: b987 40bd f933 61bd 9f2f 72bc 3c98 c53c
000000a0: e731 39bc a9b0 2cbd 2155 413d 02e0 d3bd
000000b0: 3d17 813d 99f9 003b 93af 34bd acad 82bd
000000c0: 1155 f53c 20fa 71bd 26e1 3a3c b6a2 793d
000000d0: 9d4f a7bd 3a6d a5bd a428 e83d 00ed d03c
000000e0: d649 de3d 88d3 9abd 4c96 383d b54d a63d
000000f0: 5040 283d e675 d4bc eb19 aabd 34a6 92bd
00000100: 3669 e9bd fcd6 923b c8a2 d43d 3606 28bd
00000110: 3c3c 6abd ecff 713c 4b86 bd3d a184 833d
00000120: d54c 87bd e32c 91bd dbf5 cabc 54ec 89bd
00000130: efe7 c7bd 1534 843c 9cea 89bd 44f9 e0bd
00000140: 2210 c33d 6461 543d 1642 a43d d32e 8e3d
00000150: d842 1039 cd55 c8bd 0aca 43bd 3c74 513d
00000160: 6f40 673d 989c 003d 421a 74b8 6c97 7c3c
00000170: 37ca 803c 5417 ea3d d86a 5b3d e87a b0bd
00000180: 0853 b73c 1317 4ebd 17af d53d f3e7 ae3d
00000190: e58e e23d d14c 023b 4fbe a83d d137 e6bd
000001a0: 2b5d e03d 8998 6e3d d9e3 d0bd a987 47bd
000001b0: a6f1 86bd e728 10bb 02f0 88bb d601 8ebd
000001c0: f7e6 f5bc 43e1 843d 53c0 f8bb 20a0 05bd
000001d0: c7bf a9bc fb01 adbd 4f43 063d 5507 9cbd
000001e0: 6ff1 033d 19ef 923d c708 0bbd 8084 083b
000001f0: 6919 36bd 637e bb3d 6124 3dbd bead cd3d
00000200: bb60 ea3d 6bb3 6abd 8d19 bf3d 9a91 c03c
00000210: 575a 263d 832d cebd 5a98 7b3c d67e 9a3c
00000220: 7728 cebd 1694 4bbd 1d1c 58bc d671 cbbd
00000230: 3de3 583d 26ed aebd b632 c53d 8ce7 d3bc
00000240: 8105 39bd 0ce8 ce3d 1e2b c0bd a44e babd
00000250: d91d 9a3a d1c6 adbd c9a5 43bc 12a6 523d
00000260: aa4c a23c 4160 82bd 1659 c9bd 38d9 543d
00000270: 2736 1d3c e9f4 edbc b1bf d1bd 74e6 df3c
00000280: a0ff a53c 5622 d23d 4634 b13d 34e3 533d
00000290: 0bac de3d ff7b ad3d 7fbc 273d 5e7b 113d
000002a0: 581b 6abd e548 3ebd 5972 aa3d 0098 eabd
000002b0: 2cb5 a6bd 7236 9c3c 809c 933d 106f 9ebd
000002c0: 2e03 bf3d 0fb5 79bc b063 a83d 9ff1 c9bd
000002d0: 73cd 8d3d f742 c83c e6a0 df3d ce75 e9bd
000002e0: 374e c1bc 033e ac3d 5139 4abd f83f 53bd
000002f0: 5669 dbbb 2613 453d 38e0 36bc a2a2 cdbd
00000300: 2b52 fa3c 9e89 cc3d 696e 7f3d 91c1 c73d
00000310: 7223 8dbd 08b6 463d a617 b0bd 3b37 573d
00000320: 75dc e5bd 4ade 103c 8cb5 efbd 42a9 753c
00000330: 7fbc e9bd 7976 88bd ff4d a53d 58c5 d33c
00000340: 4545 1e3b 2e67 a63d 93e7 c63c 629b a43d
00000350: 4fe2 223c acf6 e23d 17ab 813d 29ab 7dbd
00000360: 3c7b 253d 88db 1fbd 440a 88bd d549 4bbd
00000370: fc3b 4cbc e9e3 6dbd e519 663d f95c c3bc
00000380: 17c5 4e3d 0dbe eb3d c20c e2bd d6fa d63c
00000390: 563f e03b bd20 eb3d f3a1 a13d 0374 abbd
000003a0: 19d9 b7bd 4bcd 92bd 3c1c d13d ef34 22bd
000003b0: f46d 97bc b096 c73d 6dcc 69bd 3869 c4bd
000003c0: eb44 bbbd c673 193d 3c4d 85bd ac09 a8bd
000003d0: 2be7 223d fdc8 423c 3ebd 22bd a31c cfbd
000003e0: 3e74 a03d af7b a9bd 2e49 ddbd 0a6f 8fbd
000003f0: 158a 8ebc 76ff c7bd c6d0 9c3c 6432 2d3d

bias f4 [16]
0.03615868 -0.044031933 0.06276516 0.06352805 0.0022938007 0.041709814 -0.051829677 0.08156823
-0.07775837 -0.008437582 -0.024947723 0.012261108 0.014546432 0.024969306 -0.11539089 -0.0395127
00000000: 201b 143d d45a 34bd 058b 803d ff1a 823d
00000010: 9753 163b e9d7 2a3d 5b4b 54bd 3f0d a73d
00000020: c83f 9fbd c93d 0abc 2b5f ccbc d0e2 483c
00000030: 2854 6e3c 6e8c cc3c 0f52 ecbd 12d8 21bd

weight f4 [8, 16, 1, 1]
-0.102792434 -0.2332769 0.23842326 0.17290398 -0.17494771 0.23475169 0.11233666 0.0847187
-0.22366889 -0.23536643 0.16012868 -0.17429559 0.06984366 0.08105018 0.00805485 -0.1800506
-0.04270196 0.1598931 0.18205376 0.019808665 -0.082921 -0.1329661 -0.18128632 -0.07337849
-0.026712282 0.17469029 -0.049293075 0.06179805 0.08751329 -0.17910783 0.08594238 -0.2282382
0.0032159153 -0.20788796 0.18273547 -0.16960779 -0.121186644 0.21837837 0.032853756 -0.13936119
-0.22613034 0.02497975 0.15711647 -0.20787068 -0.20098914 0.18708993 -0.04281009 0.18876286
-0.15412864 0.13134627 -0.034724567 0.058083087 -0.1582576 -0.14201948 0.10062983 0.14943606
0.003128626 0.13909087 0.1533972 -0.19651364 -0.0338604 0.041513853 -0.029461397 0.15794732
0.17589252 -0.1657238 0.1629379 -0.21805096 0.022766901 0.12466625 -0.17909181 0.13060799
-0.19410095 0.2093217 0.23370259 -0.009457811 0.08028217 0.04547356 0.049075916 -0.057547312
-0.15129176 0.01864622 0.077086866 -0.104271665 -0.027646549 0.13862851 -0.1800771 -0.10775124
-0.019509228 -0.102620095 -0.21285649 -0.08686454 0.19091067 -0.063982144 -0.134234 0.15151964
-0.18696734 0.21176541 -0.1355162 -0.23223433 0.12943363 -0.14326254 0.086929284 0.027613735
-0.009774159 0.1738393 -0.16676934 -0.0369722 0.19670357 0.12223184 0.05218511 0.010265308
0.053032823 0.21785824 0.23303376 -0.13839257 -0.21206461 -0.0005696341 -0.0064515807 0.07806263
-0.18762133 -0.13190326 -0.04632942 -0.16416241 0.20334578 0.023528082 -0.235955 -0.19480409
00000000: d784 d2bd 24e0 6ebe 3a25 743e be0d 313e
00000010: 7e25 33be bf62 703e c310 e63d ff80 ad3d
00000020: 7509 65be e603 71be c6f8 233e 8b7a 32be
00000030: 310a 8f3d a3fd a53d 7df8 033c 2f5f 38be
00000040: 40e8 2ebd 04bb 233e 4d6c 3a3e c845 a23c
00000050: 7cd2 a9bd 4428 08be 1fa3 39be 7647 96bd
00000060: b7d3 dabc 03e2 323e 89e7 49bd f41f 7d3d
00000070: 2b3a b33d 0b68 37be 8f02 b03d 46b7 69be
00000080: 1bc2 523b 95e0 54be 021f 3b3e aaad 2dbe
00000090: b430 f8bd 949e 5f3e a991 063d b3b4 0ebe
000000a0: b68e 67be 55a2 cc3c 24e3 203e 0ddc 54be
000000b0: 19d0 4dbe 8194 3f3e a259 2fbd 0d4b 413e
000000c0: e6d3 1dbe a37f 063e 593b 0ebd 88e8 6d3d
000000d0: 480e 22be 8e6d 11be 0317 ce3d c405 193e
000000e0: a209 4d3b d66d 0e3e 2814 1d3e df3a 49be
000000f0: 34b1 0abd 6e0a 2a3d 0759 f1bc f1bc 213e
00000100: 2b1d 343e 80b3 29be 31d9 263e c048 5fbe
00000110: a781 ba3c 0551 ff3d d863 37be 1abe 053e
00000120: 66c2 46be 6d58 563e bb4f 6f3e eff4 1abc
00000130: fa6a a43d 7c42 3a3d d403 493d bbb6 6bbd
00000140: 3aec 1abe f5bf 983c b8df 9d3d 628c d5bd
00000150: 047b e2bc a2f4 0d3e 2266 38be afac dcbd
00000160: d1d1 9fbc 7c2a d2bd 0df7 59be 09e6 b1bd
00000170: 167e 433e 1209 83bd a374 09be f727 1b3e
00000180: 5e74 3fbe 08d9 583e c2c4 0abe d6ce 6dbe
00000190: 408a 043e 6ab3 12be fb07 b23d 3336 e23c
000001a0: cb23 20bc ee02 323e 95c5 2abe 2970 17bd
000001b0: a96c 493e b054 fa3d 0ec0 553d d32f 283c
000001c0: f238 593d 3b16 5f3e 67a0 6e3e c8b6 0dbe
000001d0: 7727 59be 7f53 15ba c867 d3bb 4ddf 9f3d
000001e0: ce1f 40be a611 07be ebc3 3dbd 311a 28be
000001f0: e039 503e f7bd c03c 309e 71be b97a 47be

bias f4 [8]
0.20796807 0.1490178 0.013499452 0.2068546 0.20995021 0.059564997 -0.038163878 0.23678356
00000000: 95f5 543e 1f98 183e ce2c 5d3c b1d1 533e
00000010: 30fd 563e 6dfa 733d ba51 1cbd 6477 723e

weight f4 [8]
0.9987697 0.9809957 1.0329485 0.98477614 0.9959724 1.0169619 0.99481374 0.9897635
00000000: 5faf 7f3f 8922 7b3f a837 843f 4a1a 7c3f
00000010: 0cf8 7e3f cf2b 823f 1dac 7e3f 2461 7d3f

bias f4 [8]
-0.00012898314 -0.0004457148 0.0061395606 -0.0018823242 0.002039453 0.0022631742 0.007325957 -0.008474715
00000000: a63f 07b9 d4ae e9b9 5e2e c93b 52b8 f6ba
00000010: 58a8 053b c351 143b 950e f03b 88d9 0abc

running_mean f4 [8]
-4.4518843 0.14496548 -3.0378113 -2.680577 3.7163587 -3.2545972 0.13527295 -3.1736836
00000000: d675 8ec0 d571 143e 806b 42c0 938e 2bc0
00000010: d2d8 6d40 524b 50c0 fe84 0a3e a21d 4bc0

running_var f4 [8]
0.067488685 0.0027316357 0.029056095 0.038082827 0.03939516 0.0359843 0.005148905 0.03970636
00000000: 8237 8a3d 3e05 333b 0c07 ee3c bdfc 1b3d
00000010: d25c 213d 4664 133d 25b8 a83b 23a3 223d

weight f4 [16, 8, 1, 1]
0.30185914 0.35423344 -0.18400833 -0.13722615 0.30749685 0.33017358 -0.31787917 0.12705407
-0.00042823542 -0.23763391 -0.091297485 0.33232075 0.09655046 0.20384887 0.2429773 0.33507186
-0.05764773 0.20190449 0.07739058 0.15447952 0.13047485 -0.22731428 0.2688513 0.06366196
0.26356024 0.057070237 -0.0028045292 0.15494162 0.044037122 0.106408305 -0.14576033 -0.0042318827
-0.069314145 -0.110808924 0.03213219 -0.037753616 -0.08572531 0.31438226 -0.12319181 0.16694032
-0.1298023 -0.14851305 0.05550232 0.19858254 0.22438237 -0.2310327 -0.25220874 0.3517521
0.23044194 -0.0006054332 0.18497238 0.014342221 -0.14528728 -0.15670605 0.036075924 0.22032073
0.06284553 -0.10733389 0.30112654 0.32614008 0.039735325 0.09548766 -0.19166976 0.12442603
-0.06985844 -0.21532737 -0.012467844 -0.0981704 0.09187401 0.26540086 0.30155864 0.2346257
0.3268024 0.0503027 -0.30598474 -0.022280006 -0.18979152 0.1894322 -0.16753021 -0.29732573
-0.2579144 -0.24601005 0.22823548 -0.14011951 -0.1240918 -0.19496568 0.15277356 -0.110952675
0.023443406 0.043622155 -0.08894077 0.21977086 0.13245572 0.06614008 -0.12505172 -0.0009790042
0.30590403 -0.25450504 0.35172966 0.034324605 -0.28962457 0.3179348 -0.016873643 0.2014814
0.15572189 -0.02839394 -0.2528171 0.15378508 0.18288468 0.14839214 -0.115129486 0.30308524
-0.1966584 0.20112705 0.2715028 0.31844404 -0.3351336 -0.010319198 0.1542281 0.29761007
0.27411637 0.14066495 -0.0068995915 -0.28886586 -0.026481519 -0.30275604 -0.026225315 -0.28916284
00000000: 488d 9a3e 165e b53e ae6c 3cbe 0385 0cbe
00000010: 3a70 9d3e 830c a93e 0fc1 a2be 761a 023e
00000020: c984 e0b9 4e56 73be 2dfa babd f225 aa3e
00000030: 3fbc c53d c2bd 503e 0bcf 783e 8a8e ab3e
00000040: 0720 6cbd 0dc0 4e3e f47e 9e3d e12f 1e3e
00000050: 339b 053e 13c5 68be e1a6 893e 3461 823d
00000060: 5ef1 863e 7bc2 693d 31cc 37bb 04a9 1e3e
00000070: 4560 343d 99ec d93d 3242 15be 9bab 8abb
00000080: 93f4 8dbd caef e2bd 0b9d 033d 89a3 1abd
00000090: c090 afbd b6f6 a03e fd4b fcbd 67f2 2a3e
000000a0: e5ea 04be ce13 18be 6756 633d 3959 4b3e
000000b0: 7ec4 653e d693 6cbe 8121 81be da18 b43e
000000c0: f9f8 6b3e efb5 1eba 6669 3d3e a3fb 6a3c
000000d0: 30c6 14be 8d77 20be 59c4 133d c29b 613e
000000e0: 28b5 803d dfd1 dbbd 422d 9a3e d5fb a63e
000000f0: 82c1 223d 098f c33d 1445 44be 13d3 fe3d
00000100: f111 8fbd c77e 5cbe ee45 4cbc 900d c9bd
00000110: 7128 bc3d 9fe2 873e e565 9a3e b841 703e
00000120: a552 a73e 340a 4e3d 08aa 9cbe 8f84 b6bc
00000130: b558 42be 84fa 413e 0a8d 2bbe 143b 98be
00000140: 5b0d 84be 0fea 7bbe 90b6 693e 7d7b 0fbe
00000150: d723 febd 15a5 47be ac70 1c3e 283b e3bd
00000160: 630c c03c 25ad 323d 9426 b6bd 9d0b 613e
00000170: 79a2 073e 7374 873d 8f0d 00be ee51 80ba
00000180: 749f 9c3e 7c4e 82be e915 b43e f597 0c3d
00000190: ac49 94be 5ac8 a23e 983a 8abc 2451 4e3e
000001a0: 8f75 1f3e 689a e8bc 3e71 81be d679 1d3e
000001b0: 1f46 3b3e 1cf4 173e 02c9 ebbd fd2d 9b3e
000001c0: d260 49be 40f4 4d3e 6a02 8b3e 190b a33e
000001d0: a296 abbe da11 29bc f9ed 1d3e 5960 983e
000001e0: fb58 8c3e 790a 103e f815 e2bb 3ae6 93be
000001f0: c5ef d8bc d702 9bbe 79d6 d6bc 270d 94be

bias f4 [16]
0.25485715 -0.16213667 -0.00726327 0.12265317 -0.12802947 -0.09266165 -0.32052487 0.28747085
-0.24607293 -0.09023522 0.3149169 -0.276333 0.21490179 0.07771026 0.3062352 -0.0716393
00000000: a37c 823e 2807 26be ba00 eebb 9631 fb3d
00000010: 281a 03be 64c5 bdbd d61b a4be 612f 933e
00000020: 8bfa 7bbe 3ecd b8bd ca3c a13e 857b 8dbe
00000030: 370f 5c3e 8f26 9f3d dcca 9c3e a0b7 92bd

weight f4 [16, 8, 1, 1]
0.19003636 -0.23673047 0.049591348 -0.3046575 -0.29314402 -0.044894192 0.20549189 0.0006191034
0.052538056 0.0759163 -0.17583074 0.2366866 0.3455879 0.21006578 0.15159206 -0.026359491
0.0026832228 -0.029283285 -0.07279819 0.04882885 -0.02263348 -0.12985012 -0.29899576 0.19867773
-0.22940494 0.060953617 -0.16066888 0.33567593 -0.27523777 0.3414934 -0.20077343 -0.06037069
0.028697059 -0.29609004 0.3193755 -0.29145238 -0.04942533 0.27394962 0.35288692 -0.32201633
-0.2724478 -0.30032727 0.124623075 0.17072175 0.24327952 0.19343384 -0.11201892 -0.060664777
-0.07170822 -0.14898224 -0.026864028 0.29496962 -0.05557768 0.2933553 -0.31809595 -0.092999205
0.25402817 0.2688199 -0.11179133 -0.2384501 0.22380283 0.3128812 -0.1641065 0.18580668
0.10589604 -0.32772103 0.27519962 0.18236244 -0.17862524 0.22109833 -0.059973847 -0.08856909
0.105016805 -0.30955076 0.08884368 0.26429507 -0.05618048 0.23257934 0.17733842 -0.3142522
0.24733472 -0.35061502 -0.3106737 -0.24325964 -0.33292294 0.3051191 -0.18154898 0.25640962
0.21743283 -0.06451389 0.28001198 0.10394387 0.30575314 -0.17468715 0.29273447 -0.0959625
-0.32224873 0.062209427 -0.23741749 -0.0064184284 -0.06692719 0.045479715 -0.27560285 0.24378647
-0.037453476 -0.043862022 -0.15073384 -0.099044874 0.14005049 -0.32911962 -0.091060296 -0.030227518
-0.10181492 0.3447392 -0.27419674 -0.02945107 0.07988691 0.13855886 -0.11299093 -0.17465085
-0.20291089 -0.16684261 0.1270278 0.22358452 0.051237546 0.34688622 -0.02018107 0.030189123
00000000: e498 423e 7969 72be 4c20 4b3d 11fc 9bbe
00000010: f916 96be f9e2 37bd 776c 523e 534b 223a
00000020: 2532 573d 017a 9b3d f90c 34be f95d 723e
00000030: e6f0 b03e 7c1b 573e f33a 1b3e dcef d7bc
00000040: 02d9 2f3b 80e3 efbc 3817 95bd c300 483d
00000050: d969 b9bc 6ef7 04be f915 99be 2d72 4b3e
00000060: 21e9 6abe 80aa 793d 6286 24be b7dd ab3e
00000070: f7eb 8cbe 39d8 ae3e 8d97 4dbe 4247 77bd
00000080: 1816 eb3c 1d99 97be 2f85 a33e 3f39 95be
00000090: 3772 4abd 2043 8c3e 98ad b43e 53df a4be
000000a0: 477e 8bbe 7fc4 99be 623a ff3d afd1 2e3e
000000b0: 441e 793e 8513 463e 2d6a e5bd a17b 78bd
000000c0: c2db 92bd cd8e 18be f311 dcbc 4206 973e
000000d0: 6ca5 63bd aa32 963e 79dd a2be 5e76 bebd
000000e0: fb0f 823e c3a2 893e daf2 e4bd 432c 74be
000000f0: 922c 653e f731 a03e 890b 28be 1b44 3e3e
00000100: 06e0 d83d 0dcb a7be f7e6 8c3e 38bd 3a3e
00000110: 89e9 36be 9a67 623e 23a7 75bd b663 b5bd
00000120: 0d13 d73d 707d 9ebe adf3 b53d af51 873e
00000130: 811d 66bd 4729 6e3e 3498 353e aae5 a0be
00000140: 5045 7d3e d083 b3be a010 9fbe 0e19 79be
00000150: e074 aabe 9238 9c3e fae7 39be 1f48 833e
00000160: b6a6 5e3e dc1f 84bd bb5d 8f3e 86e0 d43d
00000170: ad8b 9c3e 30e1 32be 4be1 953e fd87 c4bd
00000180: c9fd a4be 50cf 7e3d 921d 73be ae51 d2bb
00000190: 1f11 89bd f048 3a3d d11b 8dbe 29a3 793e
000001a0: d168 19bd aaa8 33bd f959 1abe 0ad8 cabd
000001b0: 6569 0f3e 5e82 a8be d27d babd b39f f7bc
000001c0: 5784 d0bd a881 b03e 8463 8cbe 5f43 f1bc
000001d0: c09b a33d 60e2 0d3e ca67 e7bd acd7 32be
000001e0: dfc7 4fbe cad8 2abe 9313 023e 57f3 643e
000001f0: 76de 513d 129b b13e c552 a5bc 2e4f f73c

bias f4 [16]
0.15063858 0.27468944 -0.2906061 0.34508884 -0.25674576 0.31365994 0.08385094 -0.15174413
-0.30428547 -0.22058119 0.05672116 0.2351468 0.13198386 -0.15530582 0.26460016 -0.137255
00000000: 0041 1a3e 18a4 8c3e 53ca 94be 7caf b03e
00000010: 2e74 83be 0998 a03e 0bba ab3d d062 1bbe
00000020: 4ecb 9bbe 09e0 61be 7254 683d 53ca 703e
00000030: c726 073e 7d08 1fbe ac79 873e 938c 0cbe

weight f4 [16, 16, 3, 3]
0.05269532 0.030187408 0.04958519 0.059055425 0.057849783 0.07372036 -0.022275753 0.065964736
0.035760503 0.05935013 -0.0007278631 -0.057625957 -0.042541202 0.05428004 0.06570419 0.07797639
-0.034619402 -0.05936568 -0.010297209 0.051529005 -0.03772711 -0.014835874 -0.054021757 -0.031403247
-0.052000944 0.014952675 -0.072526954 0.056767285 0.064256445 0.06995453 -0.07681277 -0.0800302
0.05491838 -0.06029906 0.034216247 -0.056110363 0.060236927 0.00083824224 0.024885556 -0.04581519
-0.046912707 0.016164755 -0.009342135 0.08159799 0.04441753 -0.06468808 -0.013191169 0.011718072
0.049798183 0.024061246 0.0010274486 -0.072564535 0.04781358 0.028267745 0.0028094093 0.007954804
-0.03501044 0.0699637 0.018960638 -0.023682978 0.033815823 0.07259023 -0.037065253 -0.062862
0.06559076 -0.054614075 0.073457986 0.024912244 0.009135308 0.04368478 -0.055398427 -0.050377395
0.028544594 0.07675089 -0.0031281095 0.07523904 0.07856155 -0.014362192 0.0008379211 -0.054002743
-0.06809241 -0.04456252 0.071976595 -0.026382532 -0.064522125 -0.017322874 -0.060535766 -0.014848725
-0.030466652 -0.060913343 -0.031852413 0.07397452 -0.004474687 -0.018301103 0.036567908 -0.018375259
0.06632406 0.08088818 0.04644374 0.0284972 0.051797673 -0.035707172 -0.07555702 -0.024520652
0.02624173 0.066911876 -0.026378078 -0.041303445 -0.05996671 -0.072700806 0.059547387 0.004030992
-0.062193856 -0.030469304 0.03860935 0.056253925 0.01765158 0.060500257 0.01738992 -0.04188733
-0.07632018 -0.04324282 0.03983883 0.055997215 0.0057429024 -0.0063105277 -0.049828243 0.05533598
0.054606263 -0.07217554 -0.001517579 -0.055642918 0.074256755 0.07065575 -0.053546835 0.022728587
0.051376227 -0.013717572 0.06343861 -0.002488611 -0.055003934 -0.013358958 -0.056479584 0.042654023
-0.012681086 0.026019301 0.019482415 -0.059384197 0.07760852 0.072236 0.06680783 0.0504676
0.029330514 -0.02808256 -0.057256144 0.016661057 0.094608836 0.09234106 0.062200047 0.052720603
-0.0057782363 0.012038094 -0.06079044 -0.012156354 -0.07746729 -0.0047981567 -0.07898023 -0.06378435
0.04520055 0.03877734 -0.05418888 0.008851506 0.042509004 -0.0060372865 -0.05315727 -0.07649284
-0.04616046 -0.030797388 0.07404874 0.041560333 0.038421933 -0.06804748 0.05543113 0.062585846
0.035273563 0.04847569 0.056869958 -0.05825004 0.016869381 0.051835313 -0.06221983 0.079530805
-0.048309915 -0.07695635 0.017309401 -0.018122293 -0.0009977664 0.055770196 0.08046429 -0.042848445
-0.04086348 -0.041107688 0.026814971 0.05753359 0.033965316 0.040314246 -0.076508746 -0.06694788
0.08293854 0.028919552 -0.023187654 -0.029543793 0.011928621 0.03730773 -0.055616975 -0.056505725
0.0269108 0.041047513 0.063448206 0.04259631 -0.012657412 -0.02736797 0.06523991 0.08452819
0.04994009 0.03757266 -0.015453402 0.026610546 -0.046879243 0.004209812 -0.04233089 0.00695298
0.005119924 -0.024430916 0.045766823 0.042153075 -0.0025748338 0.032333635 0.0222795 0.05533204
0.029318327 0.07105622 -0.0013906038 -0.0041663786 0.02343328 -0.0020634693 -0.032790553 0.024841875
-0.027811715 0.051353745 -0.030811965 -0.017454902 -0.03367903 -0.048146337 0.049686152 -0.07477387
00000000: 0cd7 573d 954b f73c d719 4b3d 1ae4 713d
00000010: e5f3 6c3d b3fa 963d a47b b6bc 8518 873d
00000020: 9b79 123d 1f19 733d 11ce 3eba 3209 6cbd
00000030: af3f 2ebd bf54 5e3d eb8f 863d 16b2 9f3d
00000040: 13cd 0dbd 6d29 73bd a0b5 28bc 1410 533d
00000050: be87 1abd 2a12 73bc eb45 5dbd b1a0 00bd
00000060: f1fe 54bd 11fc 743c 0389 94bd d084 683d
00000070: e298 833d 5244 8f3d 0350 9dbd e0e6 a3bd
00000080: 18f2 603d 26fc 76bd 5626 0c3d fbd3 65bd
00000090: ffba 763d 7cbd 5b3a cbdc cb3c b5a8 3bbd
000000a0: 8a27 40bd f36b 843c c10f 19bc d91c a73d
000000b0: 28ef 353d 2f7b 84bd c61f 58bc 28fd 3f3c
000000c0: 2ef9 4b3d 171c c53c 74ab 863a b79c 94bd
000000d0: 2cd8 433d c291 e73c 111e 383b de54 023c
000000e0: 1b67 0fbd 2149 8f3d 5753 9b3c ce02 c2bc
000000f0: 7682 0a3d 30aa 943d bcd1 17bd cbbd 80bd
00000100: 7354 863d 02b3 5fbd 2471 963d c314 cc3c
00000110: 42ac 153c d0ee 323d 76e9 62bd 8758 4ebd
00000120: 5ad6 e93c 922f 9d3d f800 4dbb ed16 9a3d
00000130: e1e4 a03d 664f 6bbc efa7 5b3a fb31 5dbd
00000140: 0974 8bbd 3087 36bd 7768 933d 2e20 d8bc
00000150: 2d24 84bd b3e8 8dbc 5af4 77bd 1148 73bc
00000160: 3395 f9bc 4580 79bd ad77 02bd f47f 973d
00000170: 65a0 92bb 32ec 95bc 3bc8 153d b687 96bc
00000180: e9d4 873d b4a8 a53d cb3b 3e3d f672 e93c
00000190: cc29 543d af41 12bd a4bd 9abd 89df c8bc
000001a0: e6f8 d63c 1809 893d d716 d8bc cd2d 29bd
000001b0: a79f 75bd 29e4 94bd f6e7 733d 6916 843b
000001c0: fcbe 7ebd c39a f9bc d624 1e3d 846a 663d
000001d0: 0c9a 903c 1ecf 773d 4e75 8e3c 0d92 2bbd
000001e0: c14d 9cbd 621f 31bd 0a2e 233d 565d 653d
000001f0: f52e bc3b 8bc8 cebb b318 4cbd fba7 623d
00000200: d1aa 5f3d c5d0 93bd 80e9 c6ba d4e9 63bd
00000210: ed13 983d f6b3 903d ed53 5bbd 4d31 ba3c
00000220: e16f 523d abbf 60bc 1aec 813d f717 23bb
00000230: ce4b 61bd 88df 5abc 2357 67bd fcb5 2e3d
00000240: 54c4 4fbc 6e26 d53c 9699 9f3c d83c 73bd
00000250: 37f1 9e3d 78f0 933d 8bd2 883d 1db7 4e3d
00000260: 8c46 f03c 660d e6bc 6b85 6abd c57c 883c
00000270: 47c2 c13d 4f1d bd3d 7ac5 7e3d 8ff1 573d
00000280: 5c57 bdbb 6d3b 453c 65ff 78bd 722b 47bc
00000290: 2ca7 9ebd db39 9dbb 63c0 a1bd 5fa1 82bd
000002a0: 3624 393d fdd4 1e3d 29f5 5dbd e805 113c
000002b0: ec1d 2e3d 6ed4 c5bb 70bb 59bd 47a8 9cbd
000002c0: c012 3dbd ce4a fcbc dea6 973d 2b3b 2a3d
000002d0: 5160 1d3d 7a5c 8bbd c10b 633d 022d 803d
000002e0: 037b 103d 728e 463d 79f0 683d 9897 6ebd
000002f0: a831 8a3c 4451 543d 38da 7ebd 0ce1 a23d
00000300: 9ee0 45bd 4a9b 9dbd 72cc 8d3c 3475 94bc
00000310: 7cc7 82ba 4a6f 643d 76ca a43d da81 2fbd
00000320: 7760 27bd 8960 28bd 12ab db3c 57a8 6b3d
00000330: 371f 0b3d 8d20 253d 9eb0 9cbd f81b 89bd
00000340: aedb a93d b2e8 ec3c 09f4 bdbc d305 f2bc
00000350: 4370 433c fecf 183d a0ce 63bd 8c72 67bd
00000360: 0a74 dc3c 7021 283d 22f1 813d 7879 2e3d
00000370: 0961 4fbc cb32 e0bc 809c 853d 1e1d ad3d
00000380: fb8d 4c3d cae5 193d 4430 7dbc 5cfe d93c
00000390: 7304 40bd 76f2 893b 2863 2dbd d3d5 e33b
000003a0: 09c5 a73b 5823 c8bc fe75 3b3d b4a8 2c3d
000003b0: 8bbe 28bb 4670 043d 7f83 b63c d9a3 623d
000003c0: fd2c f03c ec85 913d ec44 b6ba 1e86 88bb
000003d0: 26f7 bf3c 453b 07bb 634f 06bd 3081 cb3c
000003e0: 65d5 e3bc 4e58 523d 6069 fcbc 95fd 8ebc
000003f0: 06f3 09bd 1835 45bd b583 4b3d 0b23 99bd

bias f4 [16]
-0.0076073566 -0.051913675 0.094926216 -0.05789405 -0.00029639987 0.07443467 0.01338168 0.034208097
0.019435268 0.068019 0.051854886 0.008235274 0.055922333 -0.0253787 0.044589587 0.087121665
00000000: 2247 f9bb 6fa3 54bd ad68 c23d 5022 6dbd
00000010: 1e66 9bb9 3471 983d d53e 5b3c ca1d 0c3d
00000020: b636 9f3c 8c4d 8b3d ca65 543d 3eed 063c
00000030: d10e 653d fee6 cfbc 92a3 363d d86c b23d

weight f4 [32, 16, 3, 3]
-0.043626726 -0.008756518 0.03392658 0.05828658 0.073594734 0.07874743 0.009594928 0.062107682
-0.006092232 -0.05376615 0.060681272 -0.042730402 -0.012738499 0.03526729 0.04223388 0.038414087
-0.02058139 -0.006046384 -0.089323245 -0.055921067 0.047332317 -0.062247127 0.051964093 0.030923015
-0.04343003 -0.03454462 -0.0553517 0.07435211 0.051403843 -0.072313465 -0.030295303 -0.051300798
0.029927578 0.07064386 -0.024391048 0.062372815 -0.065054595 -0.041104812 0.038021147 0.05452522
0.006350738 0.043142766 -0.025271194 0.025963325 0.043224424 -0.027431453 -0.015706623 0.063681856
0.0005440282 0.07272711 0.057277683 0.02757504 -0.02487368 -0.0054182033 0.032519605 0.055283125
-0.0039458387 -0.04099421 -0.079512484 -0.07989885 0.018830422 -0.02905386 -0.031337533 -0.026521504
0.06643931 -0.0074450807 -0.012031749 0.07017014 -0.049212318 0.04847678 -0.06072239 0.07803098
0.029815553 -0.0056866026 0.06646229 -0.07486875 -0.038000308 0.026971882 -0.042207867 -0.04111218
0.056379125 0.075380266 -0.040973898 0.07230996 0.031284302 -0.06310447 0.050846327 0.012046163
0.071979195 0.057139378 0.021158278 0.05434819 0.038917515 0.025235638 -0.07882073 0.042221423
0.051658966 -0.034001417 -0.064745925 0.014163406 0.07271773 0.07498576 0.039921276 0.017622646
0.077607386 0.05151413 -0.044158727 0.04526891 0.052441392 0.0056193033 -0.05303599 0.046473287
0.056693565 0.0087594995 0.05121753 -0.02867726 0.03494454 -0.048324812 -0.051759087 -0.0514454
0.04382839 0.07373137 0.034138653 0.004661718 -0.061089743 -0.04335341 0.026185175 -0.061399072
0.025636941 -0.05961481 0.0146483295 0.0061957235 -0.038568165 0.042155363 -0.017659308 -0.010885021
-0.035372645 -0.09419296 -0.099504724 0.017803432 -0.032218624 -0.1251302 -0.10919758 0.05063498
-0.0014424886 -0.030361142 0.056687407 0.08292981 0.0057957196 0.08063121 -0.008807973 0.05285024
0.07675928 -0.05023951 -0.06493813 0.020959329 -0.014296072 -0.044876035 0.041786827 -0.023984328
-0.07431019 0.02763537 -0.039441466 -0.045137435 -0.06647026 -0.05273451 0.05095078 -0.006105401
-0.06340688 0.069581516 0.022714488 -0.015997741 -0.020573031 -0.01007102 0.040631797 0.069274195
-0.044842906 -0.06707127 0.049420886 -0.069686145 0.04253017 0.067728505 -0.021185175 -0.03671211
0.071970165 -0.057628136 -0.035730414 0.0022562973 0.03454911 -0.069690816 -0.053323094 -0.06740841
0.066823736 0.03186637 -0.05259903 -0.01644583 -0.021864653 0.065642014 0.043712072 -0.007788342
0.04883956 -0.019487167 -0.03595392 0.053591304 0.0418843 -0.07541084 -0.05982592 0.03348627
0.05790064 0.058469146 0.03118766 0.010584548 0.004502448 0.016833115 -0.022051767 -0.05987683
0.015424792 -0.0280125 0.07554514 -0.003774232 0.07701916 0.004059442 0.08023251 0.040427953
-0.01676776 0.002454692 -0.02642194 -0.034224223 0.026234876 -0.004809241 0.0700389 -0.08044047
-0.052071195 0.055434056 0.045998223 -0.053035475 0.009562364 -0.0786427 0.0659327 0.03467907
0.023767104 -0.006177889 0.03324286 -0.06353973 -0.0055960165 -0.029808344 -0.023204092 0.038109194
-0.036364805 0.056425124 -0.027744709 -0.070609555 -0.02879139 0.0682229 -0.08062114 -0.009068959
00000000: f0b1 32bd 8077 0fbc 99f6 0a3d e9bd 6e3d
00000010: d6b8 963d 5546 a13d 0b34 1d3c a064 7e3d
00000020: 59a1 c7bb e539 5cbd ed8c 783d 1306 2fbd
00000030: 23b5 50bc 6f74 103d 6ffd 2c3d 1758 1d3d
00000040: 4e9a a8bc bf20 c6bb 1bef b6bd 7d0d 65bd
00000050: 88df 413d d8f6 7ebd 4dd8 543d 4352 fd3c
00000060: b0e3 31bd a97e 0dbd 77b8 62bd eb45 983d
00000070: d68c 523d 1519 94bd db2d f8bc c920 52bd
00000080: ae2a f53c baad 903d bccf c7bc a37a 7f3d
00000090: 583b 85bd 855d 28bd 10bc 1b3d d655 5f3d
000000a0: da19 d03b 78b6 303d 8905 cfbc 0ab1 d43c
000000b0: 180c 313d edb7 e0bc 2dab 80bc a26b 823d
000000c0: 1d9d 0e3a f3f1 943d 019c 6a3d 0de5 e13c
000000d0: e3c3 cbbc 2f8b b1bb 4733 053d 8f70 623d
000000e0: 184c 81bb 8be9 27bd 71d7 a2bd 02a2 a3bd
000000f0: 4242 9a3c 5c02 eebc c95b 00bd a043 d9bc
00000100: 5511 883d ddf5 f3bb d020 45bc 5db5 8f3d
00000110: db92 49bd 978f 463d 0ab8 78bd b5ce 9f3d
00000120: bf3f f43c ae56 babb 621d 883d ca54 99bd
00000130: 36a6 1bbd 23f4 dc3c 28e2 2cbd 3f65 28bd
00000140: cced 663d f860 9a3d 3fd4 27bd 3f17 943d
00000150: f823 003d eb3c 81bd 3d44 503d 455d 453c
00000160: d469 933d fb0a 6a3d 2054 ad3c 359c 5e3d
00000170: f967 1f3d f8ba ce3c c36c a1bd 5ff0 2c3d
00000180: 5a98 533d 1245 0bbd 8399 84bd a10d 683c
00000190: 09ed 943d 2292 993d 7e84 233d 5e5d 903c
000001a0: 9ff0 9e3d 7b00 533d c8df 34bd e46b 393d
000001b0: c9cc 563d 2222 b83b 443c 59bd c65a 3e3d
000001c0: 8337 683d 0184 0f3c 79c9 513d 93ec eabc
000001d0: 0222 0f3d 3df0 45bd 5601 54bd 69b8 52bd
000001e0: 6685 333d 7900 973d f9d4 0b3d 53c1 983b
000001f0: 3d39 7abd 5893 31bd 4b82 d63c 987d 7bbd
00000200: 9004 d23c a92e 74bd 8cff 6f3c 7f05 cb3b
00000210: a7f9 1dbd 1aab 2c3d 41aa 90bc 1657 32bc
00000220: e8e2 10bd 3de8 c0bd 22c9 cbbd 81d8 913c
00000230: adf7 03bd 2222 00be fba2 dfbd a066 4f3d
00000240: e311 bdba eeb7 f8bc 0e31 683d 1bd7 a93d
00000250: 05ea bd3b fa21 a53d 514f 10bc 7e79 583d
00000260: f833 9d3d f2c7 4dbd 48fe 84bd e6b2 ab3c
00000270: 123a 6abc efcf 37bd aa28 2b3d c87a c4bc
00000280: f12f 98bd 9263 e23c 608d 21bd 08e2 38bd
00000290: 8f21 88bd 2400 58bd c4b1 503d d10f c8bb
000002a0: 77db 81bd c180 8e3d bc13 ba3c b20d 83bc
000002b0: c688 a8bc eb00 25bc 876d 263d a1df 8d3d
000002c0: 32ad 37bd a95c 89bd 8e6d 4a3d 9cb7 8ebd
000002d0: 1e34 2e3d 3eb5 8a3d 888c adbc 705f 16bd
000002e0: 1865 933d 7b0b 6cbd 0e5a 12bd 63de 133b
000002f0: 5e83 0d3d 0fba 8ebd 5169 5abd 6c0d 8abd
00000300: e2da 883d 5086 023d 1572 57bd 68b9 86bc
00000310: 801d b3bc 526f 863d 6e0b 333d 5935 ffbb
00000320: fe0b 483d 8da3 9fbc 6b44 13bd 8e82 5b3d
00000330: df8e 2b3d 0071 9abd 060c 75bd e628 093d
00000340: 3929 6d3d 587d 6f3d 437d ff3c d06a 2d3c
00000350: 4589 933b 9ae5 893c e8a5 b4bc 6841 75bd
00000360: 44b8 7c3c 787a e5bc 69b7 9a3d 1b59 77bb
00000370: 39bc 9d3d 1105 853b f150 a43d c897 253d
00000380: 8b5c 89bc e6de 203b d372 d8bc b32e 0cbd
00000390: 86ea d63c d696 9dbb 8e70 8f3d f9bd a4bd
000003a0: 9b48 55bd d20e 633d a268 3c3d ba3b 59bd
000003b0: 76ab 1c3c 6d0f a1bd b907 873d a40b 0e3d
000003c0: 3bb3 c23c e46f cabb aa29 083d 1e21 82bd
000003d0: ca5e b7bb a130 f4bc 8216 bebc 6318 1c3d
000003e0: 43f3 14bd 081e 673d df48 e3bc be9b 90bd
000003f0: ecdb ebbc 73b8 8b3d b21c a5bd f995 14bc

bias f4 [32]
0.049939767 -0.018826712 -0.0714797 0.010067235 -0.06024023 0.062689506 -0.022518948 0.06539809
-0.06744954 -0.06297165 0.034069847 0.013405893 0.07574376 0.055225287 -0.06114219 0.025036834
-0.03656604 0.04106272 -0.05726457 0.05803659 0.079278834 0.06008576 -0.06403013 0.03388168
0.082158946 0.04093854 -0.018825805 -0.07521631 0.09031036 0.05989677 0.012594831 0.06654431
00000000: a48d 4c3d 7a3a 9abc f363 92bd 0bf1 243c
00000010: 76be 76bd 5b63 803d a879 b8bc 6fef 853d
00000020: fc22 8abd 48f7 80bd d38c 0b3d 64a4 5b3c
00000030: 8b1f 9b3d e933 623d 3c70 7abd 0c1a cd3c
00000040: 46c6 15bd 6231 283d 418e 6abd c7b7 6d3d
00000050: f15c a23d 7c1c 763d 3b22 83bd 84c7 0a3d
00000060: f342 a83d 2caf 273d 9338 9abc 020b 9abd
00000070: a3f4 b83d 5156 753d 8d5a 4e3c 6248 883d

weight f4 [32, 32, 3, 3]
0.05180363 0.030996632 -0.02555127 -0.0326119 -0.043883305 -0.04393558 0.0029046764 0.027947329
0.03954562 -0.05561675 0.04548665 -0.047275014 -0.044835098 0.048968796 -0.01163058 -0.03325117
-0.006656675 -0.0052373116 0.057253 0.055232182 0.00966795 -0.013981876 -0.002748317 0.05546163
-0.05368098 0.008167742 -0.025569499 -0.012833702 0.01835865 -0.05568737 -0.0026877855 -0.04130289
0.022631677 0.039831176 -0.01805398 -0.032672126 0.024826963 -0.024903765 0.018435273 -0.01187819
-0.0068602213 -0.008138681 -0.0031788496 -0.004204026 0.026313322 -0.042258922 0.025463138 0.008104607
-0.038897965 -0.0316478 0.0110421125 0.050191846 -0.011482748 0.03341892 0.04985386 0.028427714
0.04486029 -0.007465953 -0.01797712 0.025363008 -0.04346775 0.043874066 -0.05863353 -0.036212467
-0.0077683115 0.017225713 0.038622256 0.025292978 0.056318175 -0.03501204 0.007523236 0.006285176
0.0079192035 0.049574148 -0.023776023 -0.040579572 -0.05928361 -0.030899437 -0.023282781 0.038836654
-0.012528138 -0.045114603 0.050336596 -0.04799895 0.029388709 -0.009633434 -0.012874391 -0.0206218
-0.03031781 0.048145812 -0.04594019 -0.03467013 -0.0006464974 0.00036269706 0.04161913 0.060654424
-0.009448185 0.03472255 0.008320044 -0.0012052432 -0.019343628 -0.00896245 0.0019556514 0.007438109
-0.0037007148 0.037519787 -0.010046146 -0.05399072 0.03210161 -0.027582329 -0.015136408 -0.046530332
-0.0030768372 0.017095318 0.026447317 -0.017091364 -0.046264734 -0.0053539663 -0.04768132 0.02226979
0.0373487 0.014669836 -0.022691088 -0.03374104 -0.030963782 -0.05318149 0.0030772605 0.056583334
0.044943098 -0.02072804 -0.050338082 0.03782868 0.026972922 -0.02488571 -0.04119934 -0.040197752
-0.020387901 -0.015509424 -0.055565193 -0.01863916 -0.015024382 0.053512193 -0.01477545 0.022151448
-0.032823868 0.010356071 0.02304231 0.041123457 -0.036455117 -0.03394915 0.045769628 0.03717093
0.0365738 0.013558912 0.022526704 -0.011873352 -0.021751001 -0.046152856 -0.03468437 -0.032483563
0.04781882 -0.03369176 -0.040439773 -0.025966749 -0.017112695 -0.010109285 -0.012458212 -0.009981801
-0.0019202208 0.06307606 -0.0353078 -0.047379695 -0.018362952 0.016923236 0.03297097 0.0501363
0.017550912 -0.01669883 0.027525054 -0.030573912 -0.0539818 0.04436318 0.038637478 0.017278574
-0.008547613 0.029987512 -0.022249015 -0.02755245 -0.035041086 -0.0052275406 -0.0054200464 0.010777402
-0.020255785 0.04446122 -0.024014687 -0.012187537 -0.00539215 0.008241642 0.023893554 0.06099113
-0.00019557193 -0.022138206 0.057923935 0.017527863 0.038485304 -0.018749721 -0.040809136 -0.051512424
0.01995237 -0.063957915 0.0068185916 0.02220122 -0.057261996 -0.055851452 -0.047828812 -0.051341716
-0.030408138 0.059854552 -0.018779624 0.031558305 -0.03331956 -0.03431964 0.06064397 -0.034120675
0.020576378 -0.056606628 -0.03418166 -0.016659735 0.0030297977 0.010511201 -0.032957498 0.019811565
-0.03448761 0.0006731891 0.045211483 -0.019884156 -0.00034318533 0.028768666 -0.068677366 0.022904782
-0.016008558 0.024395574 0.008137644 0.024421915 0.0010596142 0.02646378 -0.043846343 -0.015008417
-0.022851447 0.024075707 0.032279305 -0.014374657 0.0021173637 0.013506612 0.031099383 -0.03997521
00000000: 0b30 543d a6ec fd3c e650 d1bc 0e94 05bd
00000010: fbbe 33bd cbf5 33bd 625c 3e3b ccf1 e43c
00000020: 97fa 213d 64ce 63bd 3650 3a3d 72a3 41bd
00000030: 02a5 37bd 8193 483d 308e 3ebc 6132 08bd
00000040: 3d20 dabb c19d abbb 1f82 6a3d 243b 623d
00000050: 5266 1e3c 3d14 65bc 1c1d 34bb bc2b 633d
00000060: 96e0 5bbd fed1 053c 2077 d1bc 7344 52bc
00000070: e164 963c 7118 64bd 8f25 30bb 382d 29bd
00000080: 1166 b93c 0426 233d f1e5 93bc 35d3 05bd
00000090: ea61 cb3c fb02 ccbc 9205 973c bd9c 42bc
000000a0: b5cb e0bb 1a58 05bc 3f54 50bb edc1 89bb
000000b0: 098f d73c b117 2dbd 1298 d03c 30c9 043c
000000c0: 7953 1fbd 20a1 01bd fae9 343c f795 4d3d
000000d0: 2322 3cbc 47e2 083d 9033 4c3d 3de1 e83c
000000e0: 6cbf 373d f4a4 f4bb c144 93bc 15c6 cf3c
000000f0: 3d0b 32bd 4bb5 333d b629 70bd 8653 14bd
00000100: 528d febb f01c 8d3c 5f32 1e3d 3833 cf3c
00000110: e3ad 663d c968 0fbd 7a85 f63b e1f3 cd3b
00000120: 8cbf 013c 430e 4b3d efc5 c2bc c436 26bd
00000130: 5fd3 72bd d120 fdbc 88bb bebc 2f13 1f3d
00000140: d242 4dbc 17ca 38bd bf2d 4e3d 8c9a 44bd
00000150: 97c0 f03c 8dd5 1dbc 1cef 52bc 0def a8bc
00000160: 0e5d f8bc 8b34 453d c82b 3cbd 4402 0ebd
00000170: b579 29ba 6028 be39 d278 2a3d c670 783d
00000180: 8fcc 1abc 3c39 0e3d cb50 083c 40f9 9dba
00000190: 8776 9ebc 3dd7 12bc 632a 003b 61bb f33b
000001a0: b187 72bb 59ae 193d 9798 24bc 6025 5dbd
000001b0: fa7c 033d 56f4 e1bc b2fe 77bc 9796 3ebd
000001c0: c3a4 49bb 7b0b 8c3c 0ba8 d83c 3003 8cbc
000001d0: 1780 3dbd 5370 afbb 7d4d 43bd 226f b63c
000001e0: f3fa 183d c059 703c a9e2 b9bc 0b34 0abd
000001f0: c2a7 fdbc d6d4 59bd ddab 493b edc3 673d
00000200: 4116 383d dacd a9bc 4e2f 4ebd 3ff2 1a3d
00000210: 51f6 dc3c 1edd cbbc a4c0 28bd 66a6 24bd
00000220: 8704 a7bc 3d1b 7ebc 5498 63bd 27b1 98bc
00000230: d328 76bc 9a2f 5b3d bb14 72bc f476 b53c
00000240: 5272 06bd 83ac 293c 3ac3 bc3c 1271 283d
00000250: f651 15bd 440e 0bbd ef78 3b3d 8c40 183d
00000260: 69ce 153d 3326 5e3c ec89 b83c 7388 42bc
00000270: 282f b2bc c70a 3dbd 3311 0ebd 7c0d 05bd
00000280: abdd 433d 5f00 0abd 2da4 25bd 38b8 d4bc
00000290: ec2f 8cbc 6aa1 25bc 871d 4cbc b58a 23bc
000002a0: ebaf fbba 052e 813d e99e 10bd 3611 42bd
000002b0: e76d 96bc 99a2 8a3c 910c 073d b95b 4d3d
000002c0: eec6 8f3c fccb 88bc 397c e13c 2476 fabc
000002d0: 051c 5dbd 2ab6 353d 5542 1e3d cc8b 8d3c
000002e0: 4a0b 0cbc 5fa8 f53c 9143 b6bc adb5 e1bc
000002f0: 3e87 0fbd ca4b abbb a59a b1bb b393 303c
00000300: 76ef a5bc f81c 363d 73ba c4bc 3cae 47bc
00000310: a2b0 b0bb f407 073c 6abc c33c d6d1 793d
00000320: 7112 4db9 2f5b b5bc a641 6d3d 9896 8f3c
00000330: c4a2 1d3d 0499 99bc 7b27 27bd b1fe 52bd
00000340: 2773 a33c 5efc 82bd 7e6e df3b 55df b53c
00000350: 8e8b 6abd 7ec4 64bd 25e8 43bd b14b 52bd
00000360: 7d1a f9bc 0c2a 753d bad7 99bc 4843 013d
00000370: 177a 08bd c092 0cbd d065 783d 1fc2 0bbd
00000380: cb8f a83c 5adc 67bd 1102 0cbd ff79 88bc
00000390: 928f 463b 2c37 2c3c 71fe 06bd dd4b a23c
000003a0: e142 0dbd f578 303a ad2f 393d 19e4 a2bc
000003b0: 8eed b3b9 44ac eb3c b8a6 8cbd cfa2 bb3c
000003c0: 6124 83bc 3ad9 c73c c153 053c 7810 c83c
000003d0: c1e2 8a3a 92ca d83c 3998 33bd dde5 75bc
000003e0: f532 bbbc 6b3a c53c 4e37 043d ae83 6bbc
000003f0: 78c3 0a3b d64a 5d3c 22c4 fe3c 0cbd 23bd

bias f4 [32]
0.042633414 -0.027869586 -0.007300865 0.05700735 -0.012180262 0.046763066 0.044284668 0.002197725
-0.019877888 -0.036579706 -0.007250534 0.06509374 -0.0318695 -0.0034981822 0.01303278 -0.029084573
-0.014384164 -0.056087032 0.025823472 0.047419738 -0.017598236 0.023207676 0.056525562 0.06569831
0.006639885 0.057737757 -0.034572884 -0.060348783 0.054015383 -0.00441806 0.016826937 0.021953773
00000000: 60a0 2e3d c24e e4bc 183c efbb 8a80 693d
00000010: b98f 47bc a18a 3f3d d763 353d b507 103b
00000020: f4d6 a2bc 9ad4 15bd e395 edbb de4f 853d
00000030: 9889 02bd c241 65bb 7187 553c c542 eebc
00000040: 8eab 6bbc 84bb 65bd bf8b d33c 333b 423d
00000050: 2d2a 90bc 061e be3c 5987 673d d68c 863d
00000060: 6493 d93b 6d7e 6c3d 4c9c 0dbd 4930 77bd
00000070: 3c3f 5d3d 60c5 90bb a5d8 893c 66d8 b33c
