runs/60.pt (torch, 156610 bytes, 38 tensors)

weight f4 [8, 1, 3, 3]
-0.28072205 -0.079753764 -0.28916 0.064391814 0.09626299 0.23866837 0.21882856 -0.29467085
0.24811096 0.2118534 -0.30139163 0.2936569 -0.18888688 0.08671979 -0.15871744 0.20449197
-0.24818756 0.16205935 0.019578349 -0.070305385 0.12456788 0.044793647 -0.21760345 -0.042101853
-0.00082897925 -0.20265381 -0.27632436 0.08034742 -0.20076744 0.16434845 0.23984976 0.021076411
-0.1673027 0.11539341 0.088308275 0.08100051 0.3143474 -0.10485204 0.08987238 -0.25536954
0.20776837 0.12894869 -0.0660665 0.3198236 -0.22037385 0.013570824 -0.19826731 0.25378343
0.0036678375 0.18787423 -0.07985749 0.06936502 0.0032141842 -0.092288375 0.08854152 0.3169237
0.32715747 -0.13688809 -0.3025331 0.2776533 0.3306507 -0.17891885 -0.06135699 -0.24010268
0.28199673 -0.3318414 -0.19875412 -0.114114545 0.07830986 0.20827226 -0.06572529 0.21633801
00000000: cdba 8fbe f155 a3bd c80c 94be dbdf 833d
00000010: 8825 c53d 7b65 743e 9814 603e 19df 96be
00000020: cd10 7e3e 19f0 583e 0150 9abe 325a 963e
00000030: 906b 41be 259a b13d d386 22be 5866 513e
00000040: e124 7ebe e3f2 253e c662 a03c 45fc 8fbd
00000050: 721d ff3d 8b79 373d 70d3 5ebe fe72 2cbd
00000060: db4f 59ba 7b84 4fbe 637a 8dbe 308d a43d
00000070: fb95 4dbe f64a 283e 2d9b 753e 70a8 ac3c
00000080: 6651 2bbe 6153 ec3d f8da b43d 98e3 a53d
00000090: 24f2 a03e abbc d6bd 030f b83d ccbf 82be
000000a0: 3bc1 543e 200b 043e e04d 87bd ebbf a33e
000000b0: afa9 61be 2958 5e3c 9606 4bbe e7ef 813e
000000c0: 1a60 703b 1a62 403e 538c a3bd 3f0f 8e3d
000000d0: 10a5 523b b001 bdbd 4255 b53d d343 a23e
000000e0: 2f81 a73e 642c 0cbe 9ee5 9abe 9328 8e3e
000000f0: 0c4b a93e 8136 37be 7851 7bbd 7add 75be
00000100: e061 903e 1ee7 a9be 3386 4bbe e3b4 e9bd
00000110: eb60 a03d 5345 553e fb9a 86bd b687 5d3e

bias f4 [8]
-0.27467358 -0.021303065 0.26636672 0.09259586 0.03540378 -0.06832274 -0.086690284 -0.07284733
00000000: 04a2 8cbe c483 aebc 3861 883e e6a2 bd3d
00000010: 8e03 113d cbec 8bbd ad8a b1bd fb30 95bd

weight f4 [8, 8, 3, 3]
-0.025378881 0.011892715 -0.022920446 0.017199421 -0.060855616 -0.0023514356 -0.0482042 0.10016939
-0.04090709 0.0050192387 -0.000845245 0.06898902 -0.072140306 0.11577029 -0.115956485 0.008763544
-0.009235179 0.053067937 0.037281927 -0.07761809 0.10041429 0.082001455 0.05619076 -0.046743553
-0.02974291 0.11636984 0.06091663 0.089289464 0.09353566 0.07563862 -0.025753107 0.029693814
0.07240332 -0.035545543 0.04899329 -0.07335036 0.029627517 0.03189096 0.09754061 0.08859242
-0.02686596 0.063013814 -0.11710858 -0.09279752 -0.05015256 0.057083968 0.0045628077 -0.043369554
-0.103275284 0.050959617 0.06321936 -0.030661657 0.01693725 0.06951142 0.058906175 0.017272463
-0.057459272 0.020032406 0.117330976 0.0065874658 -0.047909897 0.113901615 -0.10922676 0.043411892
0.11428349 0.09324382 0.00084452855 -0.07427886 0.039747845 0.0716207 -0.086399056 -0.028494854
0.023270234 0.030388474 0.060906015 -0.0081024235 0.025535358 0.056034338 0.0059424094 0.051848087
-0.017673232 -0.043572143 0.09471941 0.008121997 0.009581105 -0.041375436 0.03608443 -0.10590716
0.11448865 0.0100626 -0.09997755 0.03553816 -0.020822749 0.08660594 0.09168506 -0.044295322
-0.053737354 -0.08577965 -0.034897927 -0.09899105 0.013678052 -0.023956746 0.019179393 -0.052127983
0.091636024 -0.10763867 0.045655906 -0.09040608 0.024118228 0.061695527 0.007817142 0.029290244
-0.11309341 -0.009446466 0.02812328 0.11546091 0.09957825 0.028589321 0.03246538 -0.052295864
-0.08133491 -0.06125425 -0.05577621 -0.042549614 0.0016653436 -0.039622135 0.09433175 0.040737055
0.0640596 -0.1142125 -0.031195194 0.05878025 -0.088825524 0.014753752 -0.02498377 -0.027803093
-0.104748756 -0.020152079 0.011212423 -0.09655834 -0.045738265 -0.06317251 -0.06735264 -0.08742081
0.09540618 -0.054324597 -0.109634526 0.04514195 0.0114970775 0.051362842 -0.0751579 0.0036175672
0.040253602 0.06221683 -0.009443259 0.10092779 -0.0016618314 0.0070808707 -0.066644475 -0.07358894
-0.085666046 0.08739753 -0.11503626 0.012676415 9.607291e-05 0.026808752 0.08023759 0.085252054
0.038186613 -0.09168586 -0.018092433 -0.073115505 0.11105995 0.10997109 0.06363468 -0.05752621
0.051728785 -0.090991154 -0.09439685 0.0011815053 -0.029522328 -0.008727629 0.0585712 -0.034843206
-0.089270316 0.049655244 0.11207165 -0.028677903 0.064707235 -0.11558544 0.015461561 0.030288238
0.020775467 -0.06578704 -0.11626177 -0.061990276 0.0075728707 -0.06865582 -0.02116102 -0.10859892
-0.0030738555 -0.072782315 -0.032609127 0.022056546 -0.051873516 0.09312304 0.019172031 0.050986648
0.025434721 0.04923218 -0.0771046 0.07579881 0.061485417 -0.0019485049 0.110713184 -0.004471059
-0.075843275 0.064563684 0.080985345 -0.034398787 0.045946103 0.016106153 0.10293416 0.00891565
0.012094082 0.085349284 0.029451044 0.024490504 -0.050373808 -0.066355355 -0.04019375 0.074599415
0.06012253 0.018532539 -0.05821267 0.109186426 0.06629041 0.0002220464 -0.07163928 -0.051569056
0.1148863 -0.07275849 -0.08873894 0.047564648 0.11651117 -0.0038538282 0.00922231 -0.010658105
0.106450945 0.05356885 0.041572202 0.08066638 -0.07488759 0.10918228 0.105163366 0.103802934
00000000: 5fe7 cfbc a9d9 423c a9c3 bbbc cde5 8c3c
00000010: bd43 79bd 8b1a 1abb c471 45bd 9c25 cd3d
00000020: 318e 27bd 6d78 a43b 6f93 5dba 1e4a 8d3d
00000030: 4cbe 93bd f918 ed3d 987a edbd f894 0f3c
00000040: 264f 17bc c45d 593d efb4 183d 3cf6 9ebd
00000050: 02a6 cd3d 61f0 a73d 4828 663d 2b76 3fbd
00000060: 67a7 f3bc 5053 ee3d b783 793d 65dd b63d
00000070: a08f bf3d 6ce8 9a3d 2ef8 d2bc 7140 f33c
00000080: 3148 943d 3498 11bd 30ad 483d b738 96bd
00000090: 68b5 f23c 18a0 023d 5fc3 c73d f16f b53d
000000a0: 0016 dcbc 630d 813d a0d6 efbd a00c bebd
000000b0: c56c 4dbd e1d0 693d 9b83 953b 46a4 31bd
000000c0: fe81 d3bd 08bb 503d 2779 813d 282e fbbc
000000d0: fdbf 8a3c 015c 8e3d 9a47 713d fb7e 8d3c
000000e0: 6a5a 6bbd 001b a43c 394b f03d abdb d73b
000000f0: 2b3d 44bd 4045 e93d 48b2 dfbd abd0 313d
00000100: 760d ea3d 9ef6 be3d 5a63 5d3a 841f 98bd
00000110: a3ce 223d e0ad 923d fdf1 b0bd 0a6e e9bc
00000120: 38a1 be3c 40f1 f83c 9678 793d 07c0 04bc
00000130: 872f d13c 4384 653d 8bb8 c23b a95e 543d
00000140: 74c7 90bc b478 32bd 40fc c13d 2012 053c
00000150: 11fa 1c3c 4a79 29bd 44cd 133d dae5 d8bd
00000160: 0679 ea3d 9add 243c 08c1 ccbd 7690 113d
00000170: 7894 aabc 745e b13d 60c5 bb3d 036f 35bd
00000180: b31b 5cbd 3ead afbd 21f1 0ebd d2bb cabd
00000190: e919 603c f040 c4bc 1a1e 9d3c 2784 55bd
000001a0: abab bb3d aa71 dcbd b001 3b3d d326 b9bd
000001b0: 9793 c53c 73b4 7c3d 7813 003c 18f2 ef3c
000001c0: 859d e7bd 5ac5 1abc cb62 e63c c576 ec3d
000001d0: aeef cb3d 2734 ea3c 6bfa 043d 3034 56bd
000001e0: eb92 a6bd bde5 7abd 9875 64bd 8148 2ebd
000001f0: a947 da3a d24a 22bd 0131 c13d e6db 263d
00000200: ae31 833d 3ee8 e9bd 108d ffbc 8fc3 703d
00000210: 28ea b5bd b9b9 713c c3aa ccbc 50c3 e3bc
00000220: 8486 d6bd f915 a5bc 50b4 373c 61c0 c5bd
00000230: 0c58 3bbd 9760 81bd 2ef0 89bd ae09 b3bd
00000240: 5164 c33d 7883 5ebd 1188 e0bd c4e6 383d
00000250: 3d5e 3c3c d861 523d 63ec 99bd b514 6d3b
00000260: f6e0 243d 13d7 7e3d e6b7 1abc 3bb3 ce3d
00000270: cfd1 d9ba a606 e83b e67c 88bd ccb5 96bd
00000280: ae71 afbd 7afd b23d 2198 ebbd bdb0 4f3c
00000290: c07a c938 079e db3c 9b53 a43d a198 ae3d
000002a0: 9169 1c3d ccc5 bbbd 9536 94bc 95bd 95bd
000002b0: 6673 e33d 8638 e13d e652 823d 9aa0 6bbd
000002c0: 90e1 533d 9259 babd 2353 c1bd bddc 9a3a
000002d0: cfd8 f1bc 54fe 0ebc 5be8 6f3d c0b7 0ebd
000002e0: 5bd3 b6bd 4c63 4b3d d285 e53d eced eabc
000002f0: 3a85 843d 0fb8 ecbd 7d52 7d3c 0a1f f83c
00000300: 5031 aa3c 5bbb 86bd a71a eebd 84e9 7dbd
00000310: d825 f83b 6c9b 8cbd e059 adbc 1c69 debd
00000320: bd72 49bb e50e 95bd 2691 05bd eeaf b43c
00000330: 5379 54bd 4bb7 be3d aa0e 9d3c 60d7 503d
00000340: 7a5c d03c afa7 493d 04e9 9dbd 683c 9b3d
00000350: 22d8 7b3d fa64 ffba 98bd e23d f681 92bb
00000360: b853 9bbd f739 843d a5db a53d bee5 0cbd
00000370: fb31 3c3d 0df1 833c 25cf d23d f212 123c
00000380: 4226 463c 9bcb ae3d 5143 f13c 4fa0 c83c
00000390: c454 4ebd 51e5 87bd 34a2 24bd 94c7 983d
000003a0: 0b43 763d 8dd1 973c 6970 6ebd 229d df3d
000003b0: 44c3 873d 20d5 6839 9db7 92bd 133a 53bd
000003c0: 8249 eb3d 6702 95bd c3bc b5bd 26d3 423d
000003d0: 699d ee3d 8290 7cbb 2c19 173c 559f 2ebc
000003e0: f402 da3d 036b 5b3d 9d47 2a3d 6a34 a53d
000003f0: aa5e 99bd f69a df3d e45f d73d a296 d43d

bias f4 [8]
-0.09440569 -0.09822958 0.10761101 0.03690508 0.09213688 0.111492105 0.01840716 -0.04105435
00000000: c557 c1bd 972c c9bd 2963 dc3d c829 173d
00000010: 43b2 bc3d f955 e43d 9dca 963c 9b28 28bd

weight f4 [16, 8, 3, 3]
0.08263765 0.11012892 0.1147181 0.027356802 0.036220104 -0.028892536 -0.004141595 0.057598785
0.006878777 -0.060272504 -0.0016561319 -0.036165804 0.053839058 -0.031066256 0.038933378 -0.09195441
0.035384692 0.043563023 -0.051129546 0.07355133 0.08152938 -0.011102887 -0.10803973 0.09460235
-0.08643147 0.074191675 0.07922299 0.09729889 -0.08608736 -0.06781482 0.086422265 -0.045166712
0.023595018 0.04400476 0.11231038 -0.041893337 -0.046884153 -0.054882035 -0.014668919 0.024156751
-0.011177175 -0.04203909 0.047277935 -0.10327669 0.06312301 0.0022359032 -0.043768812 -0.06360301
0.030149251 -0.058788 0.011560263 0.06118872 -0.081574365 -0.08042294 0.11355502 0.025807247
0.10870823 -0.075272664 0.045258075 0.08134315 0.04124734 -0.025679309 -0.08279213 -0.071557194
-0.113291584 0.0045878235 0.103755176 -0.040993534 -0.056718513 0.014760431 0.092574716 0.064279005
-0.05474748 -0.06033618 -0.012715345 -0.05462159 -0.08701997 0.028047979 -0.055512145 -0.09626992
0.10756926 0.061367404 0.08598518 0.06937816 0.00013748382 -0.097753145 -0.036671802 0.05110137
0.056419488 0.03137788 0.009493981 0.015406456 0.015710695 0.114224225 0.063473254 -0.08611292
0.02236326 -0.0502807 0.104266934 0.09700476 0.12282606 0.014431081 0.09432709 -0.10005939
0.12176142 0.07087536 -0.08877996 -0.03579224 -0.053005513 0.00779636 0.0069566076 -0.065602124
-0.025377216 0.074069716 0.0031385575 -0.021334138 -0.015320021 -0.07453052 0.04536521 -0.06883285
0.04510889 0.08467398 -0.025221419 0.013020127 -0.031780433 0.103408 -0.033964545 0.11235668
0.12550971 -0.04428748 0.10398227 0.035508603 0.053147778 -0.08882179 0.026781354 0.031532306
-0.10059457 -0.049667798 -0.001582626 -0.09367044 0.06103452 -0.08535485 0.096222565 -0.025849663
-0.04514057 0.100959405 -0.09376846 -0.09090832 0.0011750153 -0.08479405 -0.011933261 0.05139274
0.019798387 -0.06361664 -0.09824769 0.051929504 0.009588874 -0.029027628 -0.102346666 0.027312942
0.020249635 0.102534816 0.08646648 0.051695183 0.10865267 0.08465134 0.040923234 0.035493903
-0.057115942 -0.046424646 0.08316929 -0.11446965 -0.08134481 0.019055966 0.07202697 -0.07730781
0.09320401 -0.015230565 0.08216536 -0.09853803 0.06919243 0.024429305 0.1091191 -0.11391674
-0.023580773 0.08404543 -0.04933739 -0.05153951 -0.006691334 0.048081182 -0.011154257 -0.10033931
0.030535897 0.09980391 0.062318537 0.09747041 -0.068868175 0.04848036 -0.08592419 0.052507143
-0.1121606 0.008836025 -0.11696562 0.01498376 -0.11405115 -0.06658692 0.080660336 0.025833353
0.0024133783 0.081196055 0.024263805 0.08031966 0.009934871 0.110746354 0.063271694 -0.06188849
0.04037331 -0.039001197 -0.06638053 -0.049597066 -0.01245698 -0.058039043 0.056138776 -0.023831801
0.050446652 0.11502991 -0.110300794 0.026224773 0.006838831 0.114730455 0.07886853 -0.08366015
-0.08970816 -0.07163175 0.1020349 -0.039574143 -0.018472381 0.09738922 -0.05704068 -0.09583825
-0.09137746 0.037438296 -0.06504461 -0.08199367 0.03974412 0.0118806185 -0.039704137 -0.1010597
0.07829307 -0.082698815 -0.107975826 -0.069988325 -0.017387906 -0.097588465 0.019129407 0.042255476
00000000: ee3d a93d 458b e13d 53f1 ea3d 5f1b e03c
00000010: 885b 143d 0ab0 ecbc 38b6 87bb b4ec 6b3d
00000020: 5d67 e13b 4de0 76bd 9112 d9ba 9822 14bd
00000030: 5886 5c3d a97e febc 9b78 1f3d 9852 bcbd
00000040: 8aef 103d 246f 323d 376d 51bd 14a2 963d
00000050: e0f8 a63d e2e8 35bc ef43 ddbd e0be c13d
00000060: fc02 b1bd cef1 973d aa3f a23d a444 c73d
00000070: 924e b0bd 7fe2 8abd 28fe b03d bb00 39bd
00000080: 574a c13c 563e 343d fc02 e63d 5998 2bbd
00000090: 9909 40bd fccb 60bd e855 70bc 61e4 c53c
000000a0: 7820 37bc 2e31 2cbd 82a6 413d bb82 d3bd
000000b0: a346 813d 3b88 123b ed46 33bd 4b42 82bd
000000c0: 90fb f63c b0cb 70bd 4267 3d3c 06a1 7a3d
000000d0: 7610 a7bd c8b4 a4bd 898f e83d b869 d33c
000000e0: 6ca2 de3d 8e28 9abd 8860 393d 3d97 a63d
000000f0: f9f2 283d 6a5d d2bc ec8e a9bd 948c 92bd
00000100: 6b05 e8bd 7455 963b 987d d43d d6e8 27bd
00000110: ac51 68bd bcd5 713c d097 bd3d b6a4 833d
00000120: e53e 60bd 1223 77bd 0654 50bc e3ba 5fbd
00000130: 8737 b2bd e0c4 e53c b460 63bd 2a29 c5bd
00000140: 464d dc3d 635c 7b3d 0019 b03d 2316 8e3d
00000150: 8829 1039 cd32 c8bd 2c35 16bd ac4f 513d
00000160: 1f18 673d 1886 003d a48c 1b3c 5c6b 7c3c
00000170: b7b3 803c 64ee e93d 44fe 813d f85b b0bd
00000180: 2833 b73c 23f3 4dbd e789 d53d 6eaa c63d
00000190: 3b8c fb3d 5770 6c3c 902e c13d f0eb ccbd
000001a0: 0d5e f93d 1a27 913d 45d2 b5bd e29a 12bd
000001b0: 4f1c 59bd 9c78 ff3b 41f4 e33b 685a 86bd
000001c0: e1e3 cfbc ddb1 973d 42b0 4d3b eec4 aebc
000001d0: d300 7bbc 75a3 98bd dfd0 393d 3df8 8cbd
000001e0: 19c4 383d 8d69 ad3d 269d cebc 5f52 553c
000001f0: 332c 02bd 93c7 d33d 681e 0bbd 421b e63d
00000200: 9e85 003e ca66 35bd a8f4 d43d 7871 113d
00000210: 7cb1 593d 33e8 b5bd 9264 db3c 0528 013d
00000220: 8704 cebd 7670 4bbd 1e70 cfba 4ad6 bfbd
00000230: 55ff 793d 86ce aebd 5610 c53d acc2 d3bc
00000240: 51e5 38bd cec3 ce3d ae09 c0bd 242e babd
00000250: f902 9a3a 81a8 adbd b983 43bc 3281 523d
00000260: 3a30 a23c 7149 82bd 1636 c9bd 08b4 543d
00000270: a71a 1d3c 59cb edbc 219b d1bd 64bf df3c
00000280: 90e2 a53c c6fd d13d 5615 b13d 54be 533d
00000290: 4b85 de3d af5d ad3d 1f9f 273d 0e62 113d
000002a0: 68f2 69bd c527 3ebd a954 aa3d 106f eabd
000002b0: 1c98 a6bd 421b 9c3c e082 933d 8f53 9ebd
000002c0: bee1 be3d 9f89 79bc 5046 a83d 4fce c9bd
000002d0: c3b4 8d3d f71f c83c d679 df3d 2e4d e9bd
000002e0: 772c c1bc 0320 ac3d 0116 4abd 181b 53bd
000002f0: fa42 dbbb c6f0 443d 58c0 36bc b27e cdbd
00000300: 6b26 fa3c fe65 cc3d b941 7f3d 919e c73d
00000310: c20a 8dbd 5893 463d 06f9 afbd bb11 573d
00000320: 75b4 e5bd fac4 103c ac8b efbd 727e 753c
00000330: a693 e9bd b95e 88bd 3f31 a53d 78a0 d33c
00000340: c529 1e3b 1e4a a63d e3c4 c63c a27e a43d
00000350: dfc5 223c fcce e23d 9794 813d c97e 7dbd
00000360: 7c5e 253d b8bf 1fbd 84f2 87bd 4b26 4bbd
00000370: 5c18 4cbc 59ba 6dbd c6f1 653d e93a c3bc
00000380: 26a1 4e3d cd94 eb3d 62e5 e1bd 56d5 d63c
00000390: 4618 e03b cdf7 ea3d d385 a13d 0356 abbd
000003a0: e9b8 b7bd abb3 92bd acf7 d03d 7f18 22bd
000003b0: 6453 97bc 0074 c73d 7da3 69bd d846 c4bd
000003c0: 1b24 bbbd e658 193d 1c36 85bd 4cec a7bd
000003d0: bbca 223d eda6 423c cea0 22bd 63f8 cebd
000003e0: 1e58 a03d ff5d a9bd 6e22 ddbd 0a56 8fbd
000003f0: 1571 8ebc 76dc c7bd 46b5 9c3c 1414 2d3d

bias f4 [16]
0.03634095 -0.038558595 0.06272224 0.06348454 0.0035508638 0.039941043 -0.051794212 0.08921476
-0.08116072 -0.008431845 -0.0063644084 0.012252763 0.014536522 0.024952319 -0.11531221 -0.03948588
00000000: 3fda 143d 9eef 1dbd 8574 803d 2f04 823d
00000010: 9cb5 683b 3899 233d 2b26 54bd 3ab6 b63d
00000020: 9737 a6bd b925 0abc 878c d0bb d0bf 483c
00000030: 982a 6e3c ce68 cc3c cf28 ecbd f2bb 21bd

weight f4 [8, 16, 1, 1]
-0.09510798 -0.22308297 0.24040058 0.17278597 -0.17170756 0.23618777 0.11326686 0.093018174
-0.22064899 -0.2295655 0.1746894 -0.1616654 0.07049983 0.08099475 0.008049336 -0.17936082
-0.03341679 0.16948992 0.18833168 0.019795105 -0.074456826 -0.12718815 -0.17770885 -0.06470327
-0.01800141 0.18364277 -0.047671877 0.068329774 0.08985455 -0.17889169 0.08846052 -0.22656392
-0.0013714327 -0.21427071 0.179963 -0.16949216 -0.12314116 0.21720277 0.031458475 -0.14525446
-0.23052323 0.021447033 0.1463207 -0.21584764 -0.20136447 0.18694465 -0.042780884 0.18829617
-0.1590417 0.12751085 -0.037315797 0.05804345 -0.16178615 -0.14325896 0.10056128 0.14083275
0.00021650479 0.1331236 0.13460231 -0.20756505 -0.033837453 0.04148554 -0.02944128 0.15749256
0.17160091 -0.1768451 0.16282703 -0.21790195 0.019382669 0.12340673 -0.17947881 0.118524484
-0.19683602 0.2026152 0.2200646 -0.019140035 0.079934984 0.0454266 0.049042538 -0.057846528
-0.14216034 0.032305073 0.07783954 -0.104200736 -0.022313016 0.14083281 -0.1783459 -0.09583839
-0.0130673 -0.0941169 -0.19659574 -0.07210389 0.19169852 -0.06391889 -0.1341422 0.15214638
-0.20095485 0.19638604 -0.13337931 -0.23207578 0.119793236 -0.14836662 0.08197473 0.011021754
-0.018837925 0.16085207 -0.1803586 -0.056761004 0.19376713 0.12210363 0.052149646 0.008915037
0.05839518 0.22714733 0.23287521 -0.13829839 -0.20897281 0.00077620975 -0.0048553767 0.08626686
-0.18205048 -0.12654129 -0.033787925 -0.1537316 0.2037716 0.023528764 -0.23579407 -0.19421986
00000000: f9c7 c2bd dd6f 64be 922b 763e ceee 303e
00000010: 1bd4 2fbe 35db 713e 75f8 e73d 5080 be3d
00000020: cff1 61be 3813 6bbe c7e1 323e 9d8b 25be
00000030: 3762 903d 93e0 a53d 5de1 033c 5daa 37be
00000040: 0be0 08bd c48e 2d3e 05da 403e 5829 a23c
00000050: d27c 98bd 9c3d 02be 4ff9 35be 2683 84bd
00000060: b177 93bc da0c 3c3e 9643 43bd 7bf0 8b3d
00000070: aa05 b83d 622f 37be ca2a b53d 5f00 68be
00000080: a5c1 b3ba c869 5bbe 3848 383e 5a8f 2dbe
00000090: 6f31 fcbd 676a 5e3e 9ada 003d 96bd 14be
000000a0: 480e 6cbe b0b1 af3c 18d5 153e 2a07 5dbe
000000b0: 7d32 4ebe 6b6e 3f3e 023b 2fbd b6d0 403e
000000c0: d4db 22be 3492 023e 73d8 18bd f8be 6d3d
000000d0: 45ab 25be 7ab2 12be 13f3 cd3d 7636 103e
000000e0: 9005 6339 8e51 083e 30d5 093e ef8b 54be
000000f0: 2499 0abd beec 293d d72e f1bc bb45 213e
00000100: 26b8 2f3e e216 35be 21bc 263e b021 5fbe
00000110: 67c8 9e3c abbc fc3d 4bc9 37be f7bc f23d
00000120: 628f 49be 5c7a 4f3e 9d58 613e 90cb 9cbc
00000130: f4b4 a33d 3e11 3a3d d4e0 483d 7bf0 6cbd
00000140: 7b92 11be 5352 043d 566a 9f3d 3267 d5bd
00000150: c9c9 b6bc 7a36 103e 4fa0 36be eb46 c4bd
00000160: 3b18 56bc 5cc0 c0bd 6550 49be 34ab 93bd
00000170: 9e4c 443e e8e7 82bd 935c 09be 43cc 1b3e
00000180: 1cc7 4dbe 6c19 493e 9694 08be 46a5 6dbe
00000190: 2856 f53d 6bed 17be 5ee2 a73d 9694 343c
000001a0: fe51 9abc 68b6 243e edaf 38be 3a7e 68bd
000001b0: e46a 463e 7811 fa3d de9a 553d 6010 123c
000001c0: c92f 6f3d 4f99 683e d776 6e3e 189e 0dbe
000001d0: f8fc 55be 8e7a 4b3a da19 9fbb aeac b03d
000001e0: 716b 3abe 0a94 01be 3565 0abd d16b 1dbe
000001f0: 81a9 503e 65bf c03c 0074 71be 92e1 46be

bias f4 [8]
0.21302609 0.15797803 0.009991318 0.20270744 0.2060095 0.0668327 -0.050304633 0.2410238
00000000: 8323 5a3e fec4 213e a0b2 233c 8a92 4f3e
00000010: 28f4 523e 95df 883d 3b0c 4ebd f1ce 763e

weight f4 [8]
0.99391687 0.9783669 1.0367012 0.9903378 0.993425 1.0208621 0.99039674 0.987708
00000000: 5671 7e3f 4176 7a3f a0b2 843f c786 7d3f
00000010: 1a51 7e3f 9cab 823f a48a 7d3f 6eda 7c3f

bias f4 [8]
0.0015909789 -0.006035987 0.0029641648 -0.0029121682 -0.0027107643 0.009084055 -0.0020134803 -0.0041751424
00000000: 6588 d03a 87c9 c5bb 6f42 423b 13da 3ebb
00000010: 14a7 31bb 4ad5 143c 98f4 03bb a2cf 88bb

running_mean f4 [8]
-2.6202776 0.019422833 -2.911398 0.053266156 6.280435 -6.0026064 -1.6730417 -2.278793
00000000: a1b2 27c0 a21c 9f3c 5854 3ac0 9d2d 5a3d
00000010: 53f9 c840 5a15 c0c0 3b26 d6bf bfd7 11c0

running_var f4 [8]
0.034136936 0.0032182473 0.030958854 0.0205851 0.09794956 0.10704309 0.01139043 0.029682148
00000000: 2cd3 0b3d 3be9 523b 6c9d fd3c 15a2 a83c
00000010: c799 c83d 6839 db3d ed9e 3a3c fa27 f33c

weight f4 [16, 8, 1, 1]
0.3016541 0.3540662 -0.18262796 -0.13713317 0.30728704 0.32994947 -0.31760928 0.1277977
-0.00042794438 -0.23747179 -0.091235496 0.33209425 0.09648489 0.2037094 0.2428116 0.33484298
-0.057608392 0.2017674 0.07733779 0.15437461 0.13038544 -0.2271593 0.26866773 0.06361845
0.26338142 0.057031237 -0.0028026106 0.15483552 0.044007022 0.10633559 -0.14566138 -0.0042290143
-0.06612901 -0.11039192 0.03439747 -0.03389139 -0.08852161 0.31866753 -0.11849897 0.17051095
-0.12971409 -0.14841172 0.055464473 0.19844665 0.22422978 -0.23087534 -0.25203708 0.3515113
0.23028459 -0.00060501875 0.18484601 0.014332461 -0.14518833 -0.15659876 0.036051266 0.22017053
0.069928 -0.10667052 0.31027865 0.33578113 0.03448806 0.10244662 -0.17613511 0.1317224
-0.069810756 -0.21518074 -0.012459351 -0.09810364 0.091811426 0.26521966 0.3013536 0.23446596
0.32867512 0.04774953 -0.30313814 -0.022264807 -0.19224028 0.19188665 -0.16741577 -0.29486364
-0.24562019 -0.2473786 0.23855609 -0.12764545 -0.13483272 -0.1830399 0.16905019 -0.09875907
0.03559182 0.0437123 -0.079668544 0.23537351 0.12450805 0.07835492 -0.10131445 0.011434648
0.3056966 -0.254331 0.35148886 0.034301165 -0.28942668 0.31771785 -0.016862169 0.20134431
0.15561579 -0.028374568 -0.25264543 0.15368018 0.18275951 0.14829081 -0.11505081 0.3028778
-0.19652489 0.20098996 0.27131683 0.31822708 -0.33490473 -0.010312194 0.1541232 0.29740742
0.2739304 0.14056958 -0.0068948977 -0.28866798 -0.026463488 -0.30254862 -0.026207434 -0.28896496
00000000: 6872 9a3e 2a48 b53e d302 3bbe a36c 0cbe
00000010: ba54 9d3e 23ef a83e af9d a2be 66dd 023e
00000020: b95d e0b9 ce2b 73be add9 babd 4208 aa3e
00000030: df99 c53d 3299 503e 9ba3 783e 8a70 ab3e
00000040: c7f6 6bbd 1d9c 4e3e 4663 9e3d 6114 1e3e
00000050: c383 053e 739c 68be d18e 893e 644a 823d
00000060: eed9 863e 9699 693d 01ac 37bb 348d 1e3e
00000070: b540 343d 79c6 d93d 4228 15be 8b93 8abb
00000080: a56e 87bd 2915 e2bd 5de4 0c3d b3d1 0abd
00000090: d14a b5bd 6428 a33e 97af f2bd 6c9a 2e3e
000000a0: c5d3 04be 3ef9 17be b72e 633d 9935 4b3e
000000b0: 7e9c 653e 966a 6cbe 010b 81be 4af9 b33e
000000c0: b9cf 6b3e 1f9a 1eba 4648 3d3e b3d2 6a3c
000000d0: 40ac 14be 6d5b 20be 7eaa 133d 6274 613e
000000e0: 6936 8f3d 1376 dabd d8dc 9e3e 81eb ab3e
000000f0: 5a43 0d3d 89cf d13d c35c 34be 3de2 063e
00000100: f1f8 8ebd 5758 5cbe 4e22 4cbc 90ea c8bd
00000110: a107 bc3d dfca 873e 054b 9a3e d817 703e
00000120: 1b48 a83e 0395 433d ec34 9bbe af64 b6bc
00000130: a3da 44be ef7d 443e 0a6f 2bbe 5ef8 96be
00000140: dc83 7bbe d150 7dbe 0c48 743e 7db5 02be
00000150: 9711 0abe d06e 3bbe 7e1b 2d3e 3242 cabd
00000160: bac8 113d ab0b 333d 4329 a3bd c105 713e
00000170: 14fe fe3d 8b78 a03d f37d cfbd 6458 3b3c
00000180: 4484 9c3e ac37 82be 59f6 b33e 617f 0c3d
00000190: bc2f 94be eaab a23e 8822 8abc 342d 4e3e
000001a0: bf59 1f3e c871 e8bc be5a 81be 565e 1d3e
000001b0: 4f25 3b3e 8cd9 173e c29f ebbd cd12 9b3e
000001c0: d23d 49be 50d0 4d3e 0aea 8a3e a9ee a23e
000001d0: a278 abbe 7af4 28bc 79d2 1d3e c945 983e
000001e0: 9b40 8c3e 79f1 0f3e 98ee e1bb 4acc 93be
000001f0: f5c9 d8bc a7e7 9abe f9b0 d6bc 37f3 93be

bias f4 [16]
0.25500172 -0.16202581 -0.0072583156 0.122569725 -0.12601267 -0.093651675 -0.32030553 0.30629957
-0.24590485 -0.08841225 0.33211204 -0.25589642 0.21475516 0.077657215 0.3060254 -0.07159042
00000000: 968f 823e 18ea 25be 2ad7 edbb d605 fb3d
00000010: 7709 01be 73cc bfbd 16ff a3be 4cd3 9c3e
00000020: 7bce 7bbe 7b11 b5bd 970a aa3e db04 83be
00000030: c7e8 5b3e bf0a 9f3d 5caf 9c3e 009e 92bd

weight f4 [16, 8, 1, 1]
0.18940496 -0.2365407 0.04901636 -0.30500737 -0.2927309 -0.045495845 0.20513141 0.0001287215
0.052502293 0.07586444 -0.17571034 0.23652567 0.34535187 0.20992273 0.15148835 -0.02634146
0.0026813974 -0.029263318 -0.07274872 0.048795473 -0.022617983 -0.1297619 -0.29879257 0.19854183
-0.22924878 0.060912192 -0.1605592 0.33544704 -0.27504942 0.34125975 -0.20063634 -0.060329564
0.029877106 -0.2951261 0.32066944 -0.2896457 -0.0493898 0.27508488 0.35317758 -0.32038414
-0.27226183 -0.30012223 0.12453801 0.17060493 0.24311382 0.19330151 -0.11194263 -0.06062335
-0.07165934 -0.14888091 -0.0268457 0.29476935 -0.05553983 0.293155 -0.317879 -0.092936024
0.24863385 0.2635424 -0.11683324 -0.24045104 0.23331526 0.3086376 -0.16644974 0.18209235
0.10582392 -0.32749692 0.27501127 0.18223846 -0.17850365 0.22094813 -0.059933018 -0.08850889
0.10494528 -0.3093397 0.088782884 0.26411387 -0.056142192 0.23242079 0.17721802 -0.31403762
0.24156661 -0.36175358 -0.31858122 -0.25121337 -0.3203176 0.30145618 -0.18954451 0.24917477
0.217285 -0.064469784 0.27982125 0.10387294 0.30554572 -0.17456794 0.2925342 -0.09589694
-0.32202938 0.062167108 -0.23725536 -0.00641407 -0.06688129 0.04544872 -0.2754145 0.24362077
-0.037427846 -0.04383222 -0.15063132 -0.09897752 0.13995512 -0.3288955 -0.09099831 -0.030206954
-0.10174578 0.34450316 -0.27401078 -0.029430954 0.07983267 0.13846469 -0.11291404 -0.17453164
-0.2027726 -0.16672936 0.12694077 0.22343193 0.051202677 0.34665018 -0.02016736 0.03016856
00000000: 60f3 413e ba37 72be 61c5 483d ed29 9cbe
00000010: d3e0 95be da59 3abd f80d 523e 6af9 0639
00000020: a50c 573d d15e 9b3d 69ed 33be c933 723e
00000030: f6d1 b03e fcf5 563e c31f 1b3e 0cca d7bc
00000040: 62ba 2f3b a0b9 efbc 48fd 94bd c3dd 473d
00000050: 5949 b9bc 4ee0 04be 57fb 98be 8d4e 4b3e
00000060: 31c0 6abe 107f 793d a269 24be b7bf ab3e
00000070: 47d3 8cbe 99b9 ae3e 9d73 4dbe 221c 77bd
00000080: d5c0 f43c c51a 97be c92e a43e 714c 94be
00000090: f54c 4abd edd7 8c3e b1d3 b43e 6409 a4be
000000a0: e765 8bbe 9fa9 99be c90d ff3d 0fb3 2e3e
000000b0: d4f2 783e d5f0 453e 2d42 e5bd 3150 78bd
000000c0: 22c2 92bd 3d74 18be 83eb dbbc 02ec 963e
000000d0: bc7d 63bd 6a18 963e 09c1 a2be 3e55 bebd
000000e0: df99 7e3e 08ef 863e 4446 efbd cc38 76be
000000f0: 32ea 6e3e bf05 9e3e cd71 2abe 6b76 3a3e
00000100: 36ba d83d adad a7be 47ce 8c3e b89c 3a3e
00000110: a9c9 36be 3a40 623e 537c 75bd 2644 b5bd
00000120: 8ded d63d c661 9ebe cdd3 b53d ef39 873e
00000130: 5bf5 65bd b7ff 6d3e a478 353e 8ac9 a0be
00000140: 3d5d 773e c437 b9be 141d a3be 0a9f 80be
00000150: ab00 a4be 7758 9a3e f517 42be ac27 7f3e
00000160: f67f 5e3e bc08 84bd bb44 8f3e 56bb d43d
00000170: 7d70 9c3e f0c1 32be 0bc7 953e 9d65 c4bd
00000180: 09e1 a4be f0a2 7e3d 12f3 72be 1e2d d2bb
00000190: 0ff9 88bd 7028 3a3d 2103 8dbe b977 793e
000001a0: f14d 19bd 6a89 33bd 193f 1abe bab4 cabd
000001b0: 6550 0f3e fe64 a8be 525d babd 9374 f7bc
000001c0: 1760 d0bd b862 b03e 244b 8cbe 2f19 f1bc
000001d0: 507f a33d b0c9 0d3e 7a3f e7bd 6cb8 32be
000001e0: 9fa3 4fbe 1abb 2abe c3fc 013e 57cb 643e
000001f0: e6b9 513d 227c b13e 0536 a5bc 0e24 f73c

bias f4 [16]
0.15085378 0.2779569 -0.29040822 0.3448528 -0.25285393 0.31079972 0.08379372 -0.13318098
-0.30407804 -0.21843575 0.07447801 0.234987 0.13189445 -0.15519972 0.26441896 -0.13716179
00000000: 6a79 1a3e 5e50 8e3e 63b0 94be 8c90 b03e
00000010: 1276 81be 2421 9f3e 0b9c ab3d 9860 08be
00000020: 1eb0 9bbe 9fad 5fbe ed87 983d 6fa0 703e
00000030: 570f 073e adec 1ebe ec61 873e 2474 0cbe

weight f4 [16, 16, 3, 3]
0.05270622 0.030213678 0.049588263 0.05906635 0.057862133 0.07371159 -0.022218201 0.065978065
0.035783168 0.059309598 -0.00028675408 -0.057586618 -0.042125903 0.054605383 0.066041194 0.07869071
-0.034274038 -0.0589294 -0.0102908015 0.05149328 -0.037702058 -0.014825741 -0.053984802 -0.03138179
-0.05196548 0.014942468 -0.07247748 0.05672854 0.06421282 0.069906846 -0.076760314 -0.07997544
0.054880828 -0.060257934 0.034193 -0.056072216 0.06023693 0.00087384175 0.024909042 -0.045741964
-0.046844654 0.016184237 -0.009294775 0.08158365 0.044433165 -0.0646349 -0.013163917 0.0117101
0.04978239 0.024054 0.001044593 -0.07249653 0.047799166 0.028248522 0.0028074908 0.007949365
-0.034986597 0.06991602 0.018947674 -0.023666885 0.033792876 0.07254076 -0.03703992 -0.06256218
0.06574742 -0.054426584 0.07371561 0.025057308 0.009333441 0.04387144 -0.05519782 -0.050189637
0.028525073 0.07669844 -0.0031259826 0.07518778 0.07850791 -0.0143524315 0.0032572318 -0.053965878
-0.06804592 -0.044449095 0.072012514 -0.026297731 -0.06439282 -0.017260786 -0.06044501 -0.014771683
-0.030379105 -0.060803846 -0.03139356 0.07427879 -0.004047486 -0.017941693 0.036917787 -0.018024927
0.066605344 0.08119879 0.046745334 0.028649835 0.051891595 -0.035580784 -0.07532584 -0.024387097
0.026327094 0.06699888 -0.02622679 -0.041155696 -0.05992588 -0.072651334 0.059506856 0.004056796
-0.062151536 -0.030448591 0.038583122 0.05621548 0.01763951 0.06045913 0.017377999 -0.04185872
-0.07626832 -0.043213315 0.039811708 0.05595907 0.005738991 -0.00630624 -0.049794268 0.05529813
0.05456901 -0.07212607 -0.0015165452 -0.05560507 0.07420609 0.07060747 -0.05351042 0.022729015
0.051341176 -0.013708221 0.0633951 -0.002486916 -0.054950677 -0.013349868 -0.05644114 0.042624816
-0.012666333 0.026006436 0.01947528 -0.059336312 0.077562764 0.07219384 0.06676619 0.050436992
0.029314227 -0.028063476 -0.0570599 0.0169496 0.094696656 0.09260141 0.062311344 0.05268454
-0.0057742875 0.012029898 -0.060749013 -0.012148084 -0.077414244 -0.0047948784 -0.078926586 -0.06374084
0.045169853 0.038750816 -0.054151926 0.008845471 0.042480096 -0.0060331854 -0.05312091 -0.0764409
-0.04612887 -0.030776378 0.07399808 0.04153202 0.03839962 -0.067997076 0.055398412 0.06254934
0.035254557 0.04844774 0.056837708 -0.058206525 0.016864372 0.051802065 -0.062175307 0.079478785
-0.048274763 -0.07690166 0.01729763 -0.018107703 -0.0009970865 0.055734273 0.08040945 -0.04281924
-0.040759757 -0.041079674 0.026796643 0.05749425 0.03394207 0.040286828 -0.07645663 -0.06687678
0.08291963 0.028936477 -0.023145515 -0.029510843 0.011946499 0.037319213 -0.05552807 -0.05643022
0.026892472 0.0410195 0.063404694 0.042567402 -0.01264877 -0.027349344 0.0651952 0.08447038
0.049906116 0.037559427 -0.015434627 0.026604664 -0.046834793 0.0042153536 -0.042293675 0.0069645927
0.0051246667 -0.024401767 0.04576184 0.04218306 -0.0025297066 0.03235329 0.022315761 0.055336893
0.029351005 0.071066424 -0.0013287244 -0.004149163 0.0234356 -0.0020477872 -0.03274673 0.024835521
-0.027774798 0.051336437 -0.030776685 -0.017428592 -0.033656083 -0.048113555 0.049652178 -0.07472278
00000000: 7ae2 573d ad82 f73c 101d 4b3d 8fef 713d
00000010: d800 6d3d 1af6 963d f202 b6bc 821f 873d
00000020: 5f91 123d 9fee 723d 7b57 96b9 f2df 6bbd
00000030: 368c 2cbd e5a9 5f3d 9b40 873d 9828 a13d
00000040: ef62 0cbd f45f 71bd c09a 28bc 9eea 523d
00000050: 796d 1abd aae7 72bc 2b1f 5dbd 318a 00bd
00000060: c1d9 54bd 41d1 743c 136f 94bd 305c 683d
00000070: 0382 833d 522b 8f3d 8334 9dbd 2aca a3bd
00000080: b8ca 603d 06d1 76bd f60d 0c3d fbab 65bd
00000090: 00bb 763d 8712 653a 0c0e cc3c ed5b 3bbd
000000a0: 2ee0 3fbd ce94 843c 1d49 18bc 5415 a73d
000000b0: 8dff 353d 4d5f 84bd 78ad 57bc b8db 3f3c
000000c0: 9fe8 4b3d e50c c53c baea 883a 1079 94bd
000000d0: 0fc9 433d 7269 e73c e1fd 373b 0e3e 023c
000000e0: 1b4e 0fbd 2130 8f3d 2738 9b3c 0ee1 c1bc
000000f0: 666a 0a3d 4090 943d 2cb7 17bd 9a20 80bd
00000100: 95a6 863d 69ee 5ebd 36f8 963d fc44 cd3c
00000110: 4aeb 183c 8ab2 333d 1c17 62bd a693 4dbd
00000120: 6aad e93c 1214 9d3d 49dd 4cbb 0dfc 993d
00000130: c1c8 a03d 7626 6bbc 4877 553b 530b 5dbd
00000140: a95b 8bbd 4110 36bd 4c7b 933d 576e d7bc
00000150: 62e0 83bd 7e66 8dbc 3095 77bd ee04 72bc
00000160: 9add f8bc 740d 79bd 8996 00bd 7a1f 983d
00000170: c6a0 84bb 75fa 92bc 1b37 173d 03a9 93bc
00000180: 6268 883d 8d4b a63d 0978 3f3d 0fb3 ea3c
00000190: 488c 543d 28bd 11bd 6f44 9abd 73c7 c7bc
000001a0: ebab d73c b536 893d 91d9 d6bc e092 28bd
000001b0: d774 75bd 39ca 94bd 76bd 733d dfee 843b
000001c0: 9c92 7ebd 536f f9bc 5609 1e3d 3442 663d
000001d0: bc80 903c fea3 773d 4e5c 8e3c 0d74 2bbd
000001e0: 9132 9cbd 7200 31bd 9a11 233d 5635 653d
000001f0: 250e bc3b 93a4 cebb 13f5 4bbd 4b80 623d
00000200: c183 5f3d d5b6 93bd d0c6 c6ba 24c2 63bd
00000210: 5df9 973d a69a 903d be2d 5bbd 3332 ba3c
00000220: 204b 523d 7298 60bc 4ad5 813d 87fb 22bb
00000230: f613 61bd 68b9 5abc d32e 67bd 5c97 2e3d
00000240: 7386 4fbc 730b d53c 9f8a 9f3c a20a 73bd
00000250: 3ad9 9e3d 5dda 933d b6bc 883d 0597 4e3d
00000260: 6424 f03c 60e5 e5bc a4b7 69bd e3d9 8a3c
00000270: 52f0 c13d cfa5 bd3d 2e3a 7f3d bfcb 573d
00000280: 3c36 bdbb 0d19 453c f5d3 78bd c208 47bc
00000290: 5c8b 9ebd 5b1e 9dbb 43a4 a1bd 8f8a 82bd
000002a0: 0604 393d 2db9 1e3d 69ce 5dbd 98ec 103c
000002b0: 9cff 2d3d 07b2 c5bb 5095 59bd 0c8d 9cbd
000002c0: a0f1 3cbd be1e fcbc 4e8c 973d 7b1d 2a3d
000002d0: ec48 1d3d 0d42 8bbd 72e9 623d de19 803d
000002e0: 1567 103d 2371 463d a8ce 683d f769 6ebd
000002f0: 2727 8a3c 672e 543d 89ab 7ebd c6c5 a23d
00000300: c2bb 45bd 9e7e 9dbd c2b3 8d3c 9b56 94bc
00000310: acb0 82ba 9f49 643d b6ad a43d 3a63 2fbd
00000320: b4f3 26bd 2943 28bd a284 db3c 177f 6b3d
00000330: d706 0b3d cd03 253d 4b95 9cbd b1f6 88bd
00000340: c4d1 a93d 310c ed3c aa9b bdbc b9c0 f1bc
00000350: 40bb 433c 08dc 183d 6771 63bd 6023 67bd
00000360: 9a4d dc3c 1004 283d 52da 813d 285b 2e3d
00000370: c93c 4fbc bb0b e0bc 1085 853d cefe ac3d
00000380: 5b6a 4c3d ead7 193d 85e1 7cbc 06f2 d93c
00000390: d7d5 3fbd f320 8a3b 223c 2dbd 3d37 e43b
000003a0: d2ec a73b 37e6 c7bc c470 3b3d 25c8 2c3d
000003b0: 6fc9 25bb e284 043d 8bcf b63c f0a8 623d
000003c0: 8571 f03c 468b 913d 9828 aeba b4f5 87bb
000003d0: 04fc bf3c 2b34 06bb 6f21 06bd dd73 cb3c
000003e0: f987 e3bc 2846 523d 631f fcbc 68c6 8ebc
000003f0: f6da 09bd b812 45bd 1560 4b3d 4208 99bd

bias f4 [16]
-0.0075542796 -0.051872514 0.09602229 -0.057830095 -0.0002961973 0.074384004 0.01337259 0.034517307
0.019661438 0.06797251 0.05181942 0.008459738 0.06282462 -0.025361415 0.045527093 0.09348538
00000000: e489 f7bb 4678 54bd 56a7 c43d 40df 6cbd
00000010: ee4a 9bb9 a456 983d b518 5b3c 0562 0d3d
00000020: 0611 a13c 2c35 8b3d 9a40 543d b79a 0a3c
00000030: 32aa 803d bec2 cfbc 9e7a 3a3d 4375 bf3d

weight f4 [32, 16, 3, 3]
-0.043596923 -0.008750558 0.033903334 0.058246944 0.073544666 0.078693785 0.009588371 0.062065363
-0.006088091 -0.053729493 0.060639847 -0.042701196 -0.012729782 0.03524315 0.042204972 0.03838786
-0.020567384 -0.006042249 -0.08926245 -0.05588292 0.04730013 -0.062204808 0.05192863 0.030901996
-0.043400526 -0.034521077 -0.05531385 0.074301444 0.051368676 -0.07226399 -0.03027459 -0.05126593
0.029907163 0.07059558 -0.024374358 0.062330198 -0.06501049 -0.041076798 0.03799522 0.054487966
0.0063464167 0.04311326 -0.025253909 0.025945593 0.04319492 -0.02741278 -0.015695894 0.063638344
0.00054365565 0.072677635 0.057238642 0.027556265 -0.024856692 -0.0054145153 0.03249755 0.055245575
-0.0039431565 -0.040966194 -0.079458244 -0.07984461 0.018817607 -0.02903404 -0.031316075 -0.026503474
0.06639401 -0.0074400143 -0.012023553 0.07012246 -0.04917864 0.0484437 -0.060680963 0.07797793
0.029795287 -0.0056827283 0.066416994 -0.07481749 -0.03797438 0.026953554 -0.04217896 -0.041084167
0.05634068 0.075329006 -0.040945884 0.07226049 0.031262845 -0.06306156 0.050811756 0.012037967
0.07193032 0.057100337 0.021143824 0.054311235 0.03889099 0.025218502 -0.07876708 0.042192515
0.0516238 -0.03397817 -0.06470182 0.01415372 0.07266826 0.0749345 0.039894156 0.017610576
0.07755434 0.051478963 -0.044128627 0.045237914 0.05240563 0.0056154663 -0.05299993 0.046441697
0.056654822 0.008753539 0.05118266 -0.02865774 0.0349207 -0.048291765 -0.05172392 -0.05141023
0.04379859 0.0736813 0.034115408 0.0046585514 -0.06104802 -0.043323904 0.026167294 -0.06135735
0.025619507 -0.05957428 0.014638346 0.006191514 -0.03854194 0.042126752 -0.017647238 -0.01087757
-0.035348505 -0.09412859 -0.099436775 0.017791362 -0.03219657 -0.12504438 -0.10912307 0.05060041
-0.0014415014 -0.03034043 0.056648664 0.08287319 0.0057917708 0.080576375 -0.008801938 0.05281418
0.07670683 -0.05020524 -0.06489402 0.020945024 -0.014286311 -0.04484534 0.041758217 -0.023967937
-0.07425953 0.027616594 -0.039414644 -0.04510674 -0.06642496 -0.05269845 0.050915927 -0.0061012288
-0.06336351 0.06953383 0.022698991 -0.015986864 -0.020559024 -0.010064165 0.04060408 0.06922711
-0.04481221 -0.06702537 0.04938721 -0.06963846 0.042501263 0.06768261 -0.02117072 -0.036687076
0.07192129 -0.057588797 -0.035705976 0.0022547513 0.034525566 -0.06964313 -0.053286735 -0.06736252
0.06677844 0.031844616 -0.05256327 -0.016434655 -0.021849751 0.06559731 0.04368227 -0.0077830297
0.048806183 -0.019473905 -0.035929482 0.053554647 0.04185569 -0.07535958 -0.05978509 0.03346332
0.057861302 0.05842921 0.03116635 0.010577321 0.004499393 0.016821641 -0.022036716 -0.059836
0.015414286 -0.027993426 0.07549388 -0.0037716615 0.07696671 0.004056685 0.08017767 0.040400535
-0.016756287 0.0024530157 -0.02640391 -0.034200978 0.026216995 -0.0048059626 0.069991216 -0.08038563
-0.05203573 0.055396207 0.04596693 -0.052999415 0.009555863 -0.07858906 0.065887995 0.034655526
0.023750862 -0.0061736796 0.03322021 -0.06349622 -0.0055922167 -0.029788079 -0.023188297 0.038083266
-0.03634007 0.05638668 -0.027725784 -0.070561275 -0.02877172 0.06817641 -0.0805663 -0.009062775
00000000: b092 32bd 805e 0fbc 39de 0a3d 5994 6e3d
00000010: 969e 963d 352a a13d 8b18 1d3c 4038 7e3d
00000020: 9c7e c7bb 7513 5cbd 7d61 783d 73e7 2ebd
00000030: 9390 50bc 1f5b 103d 1fdf 2c3d 973c 1d3d
00000040: ee7c a8bc 0ffe c5bb 3bcf b6bd 7de5 64bd
00000050: c8bd 413d 78ca 7ebd 1db3 543d 2f26 fd3c
00000060: c0c4 31bd f965 0dbd c790 62bd 5b2b 983d
00000070: f667 523d 25ff 93bd 6b02 f8bc 39fc 51bd
00000080: deff f43c 6a94 903d bcac c7bc f34d 7f3d
00000090: 3824 85bd 2540 28bd e0a0 1b3d c62e 5f3d
000000a0: 9af5 cf3b 8897 303d 49e1 cebc da8b d43c
000000b0: 28ed 303d c490 e0bc ad94 80bc d254 823d
000000c0: 1d84 0e3a 03d8 943d 1173 6a3d adbd e13c
000000d0: 43a0 cbbc 3f6c b1bb 271c 053d 2f49 623d
000000e0: 9835 81bb 2bcc 27bd 01bb a2bd 9285 a3bd
000000f0: 6227 9a3c ccd8 edbc 4945 00bd d01d d9bc
00000100: 95f9 873d 5dcb f3bb 70fe 44bc 5d9c 8f3d
00000110: 8b6f 49bd e76c 463d 9a8c 78bd e5b2 9f3d
00000120: 3f15 f43c 2e36 babb a205 883d ea39 99bd
00000130: 068b 1bbd b3cd dc3c d8c3 2cbd df47 28bd
00000140: 7cc5 663d 1846 9a3d dfb6 27bd 4ffd 933d
00000150: 780d 003d 6b26 81bd fd1f 503d e53a 453c
00000160: 3450 933d 0be2 693d d035 ad3c 7575 5e3d
00000170: 294c 1f3d 0897 ce3c a350 a1bd 0fd2 2c3d
00000180: 7a73 533d b22c 0bbd 6382 84bd 01e5 673c
00000190: 19d3 943d 4277 993d 0e68 233d 0e44 903c
000001a0: cfd4 9e3d 9bdb 523d 38c0 34bd 644b 393d
000001b0: 49a7 563d f201 b83b 7416 59bd a639 3e3d
000001c0: e30e 683d 016b 0f3c e9a4 513d a3c3 eabc
000001d0: 0209 0f3d 96cd 45bd 76dc 53bd 8993 52bd
000001e0: 2666 333d 39e6 963d 99bc 0b3d c3a6 983b
000001f0: 7d0d 7abd 6874 31bd cb5c d63c d851 7bbd
00000200: 00e0 d13c 2904 74bd acd5 6f3c 2fe2 ca3b
00000210: 27de 1dbd 1a8d 2c3d f190 90bc d637 32bc
00000220: 98c9 10bd 7dc6 c0bd 82a5 cbbd 31bf 913c
00000230: 8de0 03bd a20b 00be eb7b dfbd 6042 4f3d
00000240: c3f0 bcba 7e8c f8bc 6e08 683d 6bb9 a93d
00000250: e5c8 bd3b 3a05 a53d 0136 10bc ae53 583d
00000260: 7818 9d3d 02a4 4dbd 28e7 84bd e694 ab3c
00000270: 2211 6abc bfaf 37bd aa0a 2b3d 6858 c4bc
00000280: 6115 98bd 323c e23c 4071 21bd d8c1 38bd
00000290: cf09 88bd 54da 57bd 388d 503d d1ec c7bb
000002a0: bac4 81bd c167 8e3d 3cf3 b93c e2f6 82bc
000002b0: 666b a8bc 2be4 24bc 7750 263d f1c6 8d3d
000002c0: 028d 37bd 9944 89bd 3e4a 4a3d 9c9e 8ebd
000002d0: ce15 2e3d 2e9d 8a3d 386e adbc 3045 16bd
000002e0: 784b 933d 3be2 6bbd 6e40 12bd 73c4 133b
000002f0: ae6a 0d3d 0fa1 8ebd 3143 5abd 5cf5 89bd
00000300: 22c3 883d 806f 023d 954c 57bd f8a1 86bc
00000310: 40fe b2bc e257 863d 2eec 323d c908 ffbb
00000320: fee8 473d bd87 9fbc cb2a 13bd 1e5c 5b3d
00000330: df70 2b3d 2056 9abd 36e1 74bd d610 093d
00000340: f9ff 6c3d 7853 6f3d 9350 ff3c 804c 2d3c
00000350: a56f 933b 8acd 893c 5886 b4bc 9816 75bd
00000360: 348c 7c3c 7852 e5bc 899c 9a3d fb2d 77bb
00000370: b9a0 9d3d f1ed 843b 3134 a43d 087b 253d
00000380: 7b44 89bc c6c2 203b 034d d8bc 5316 0cbd
00000390: 06c5 d63c 567b 9dbb 8e57 8f3d 39a1 a4bd
000003a0: 6b23 55bd 22e7 623d d247 3c3d ea15 59bd
000003b0: 3290 1c3c 4df3 a0bd 49f0 863d f4f2 0d3d
000003c0: 2b91 c23c 944c cabb ea11 083d 4e0a 82bd
000003d0: ea3e b7bb 2106 f4bc 62f5 bdbc 33fd 1b3d
000003e0: 53d9 14bd b8f5 663d 2f21 e3bc 6e82 90bd
000003f0: acb2 ebbc 13a0 8b3d f2ff a4bd 097c 14bc

bias f4 [32]
0.049905792 -0.018813897 -0.071430825 0.010134197 -0.060199104 0.06264659 -0.022474498 0.06598024
-0.06641666 -0.062928736 0.035994694 0.013382958 0.07673679 0.07020598 -0.061100468 0.025019716
-0.036541007 0.046922818 -0.057182617 0.058171008 0.079224594 0.060065795 -0.06399402 0.034187563
0.0834267 0.040914696 -0.018809376 -0.07516505 0.09025184 0.061285954 0.012601663 0.066824876
00000000: 046a 4c3d 9a1f 9abc 534a 92bd e709 263c
00000010: 5693 76bd db4c 803d 701c b8bc a620 873d
00000020: 7505 88bd c8e0 80bd 2c6f 133d 3244 5b3c
00000030: 2e28 9d3d 27c8 8f3d 7c44 7abd 26f6 cc3c
00000040: 06ac 15bd 2432 403d 5238 6abd b944 6e3d
00000050: 8140 a23d 8d07 763d 4c0f 83bd 4208 0c3d
00000060: 9edb aa3d 2b96 273d 1f16 9abc 22f0 99bd
00000070: f5d5 b83d fb06 7b3d 3577 4e3c 7bdb 883d

weight f4 [32, 32, 3, 3]
0.051768363 0.030975472 -0.025533836 -0.032589547 -0.043853503 -0.043905668 0.002902702 0.027928255
0.0395188 -0.055578902 0.045455657 -0.047242828 -0.0448044 0.048935417 -0.011622682 -0.03322852
-0.0066521303 -0.0052337353 0.05721396 0.05519463 0.009661393 -0.013972339 -0.0027464358 0.05542378
-0.05364432 0.008162154 -0.025552064 -0.012824985 0.018346133 -0.055649523 -0.0026859601 -0.041274868
0.022616196 0.039804056 -0.018041613 -0.032649774 0.024809975 -0.024886778 0.018422756 -0.0118700685
-0.0068555344 -0.008133167 -0.003176689 -0.0042011575 0.02629544 -0.042230014 0.025445815 0.008099094
-0.03887144 -0.031626344 0.011034587 0.050157573 -0.011474925 0.03339627 0.049819887 0.028408343
0.044829592 -0.0074608494 -0.017964901 0.025345722 -0.043438245 0.043844264 -0.058593594 -0.03618773
-0.0077630216 0.01721394 0.03859603 0.025275692 0.05627973 -0.0349882 0.007518095 0.006280892
0.007913839 0.04954047 -0.02375978 -0.040551856 -0.05924308 -0.030878427 -0.023266898 0.03881013
-0.01251957 -0.045083907 0.050302323 -0.047966167 0.029368741 -0.0096268775 -0.012865599 -0.020607794
-0.030297097 0.04811303 -0.045908898 -0.034646586 -0.00064605504 0.00036245026 0.041590817 0.060613
-0.009441777 0.034699008 0.008314381 -0.0012044236 -0.019330474 -0.00895634 0.0019543103 0.0074330424
-0.0036982002 0.037494157 -0.010039291 -0.053953953 0.032079853 -0.027563553 -0.015126104 -0.046498742
-0.0030747324 0.017083695 0.026429286 -0.01707974 -0.046233144 -0.0053503155 -0.047648836 0.02225459
0.037323367 0.014659852 -0.02267559 -0.03371809 -0.030942623 -0.053145133 0.0030751557 0.05654489
0.0449124 -0.020713884 -0.05030381 0.037802786 0.026954593 -0.024868723 -0.041171327 -0.040170334
-0.020374043 -0.015498844 -0.055527344 -0.018626494 -0.015014172 0.053475834 -0.014765392 0.022136398
-0.032801516 0.010348993 0.023026664 0.041095443 -0.03643038 -0.033925906 0.045738336 0.0371456
0.036548767 0.013549673 0.022511356 -0.011865231 -0.021736177 -0.046121266 -0.034660827 -0.03246151
0.047786336 -0.033668812 -0.04041223 -0.025949016 -0.017101072 -0.010102406 -0.012449718 -0.009975021
-0.0019189081 0.06303314 -0.03528366 -0.04734751 -0.018350435 0.016911762 0.032948617 0.05010203
0.01753899 -0.016687505 0.027506279 -0.03055305 -0.053945106 0.044333063 0.03861125 0.017266802
-0.008541802 0.029967098 -0.022233816 -0.027533675 -0.035017245 -0.0052239643 -0.0054163584 0.010770026
-0.020241927 0.044430822 -0.023998296 -0.012179227 -0.005388462 0.008236054 0.023877311 0.060949557
-0.00019543844 -0.022123156 0.057884496 0.017515942 0.038459077 -0.018736906 -0.04078142 -0.051477257
0.01993881 -0.0639144 0.006813935 0.02218602 -0.057222955 -0.055813305 -0.047796328 -0.051306847
-0.030387426 0.059813723 -0.01876681 0.031536847 -0.03329691 -0.034296263 0.060602546 -0.03409743
0.020562371 -0.056568127 -0.034158412 -0.01664841 0.0030277302 0.010504048 -0.032935146 0.019798005
-0.034464065 0.0006727281 0.045180786 -0.019870596 -0.00034295226 0.028748997 -0.06863028 0.022889135
-0.01599768 0.024378885 0.008132131 0.024405226 0.0010588878 0.02644575 -0.04381654 -0.01499821
-0.022835806 0.024059316 0.03225725 -0.014364849 0.002115925 0.013497373 0.031078223 -0.03994809
00000000: 100b 543d 46c0 fd3c 562c d1bc 9e7c 05bd
00000010: bb9f 33bd 6ed6 33bd 423b 3e3b ccc9 e43c
00000020: 77de 213d b4a6 63bd b62f 3a3d b281 41bd
00000030: d284 37bd 8170 483d 106d 3ebc a11a 08bd
00000040: 1dfa d9bb c17f abbb 2f59 6a3d c413 623d
00000050: d24a 1e3c 3dec 64bc 8cfd 33bb 0c04 633d
00000060: 26ba 5bbd 8eba 053c 9052 d1bc e31f 52bc
00000070: a14a 963c c1f0 63bd ef06 30bb d60f 29bd
00000080: 9a45 b93c 9409 233d 01cc 93bc c5bb 05bd
00000090: 4a3e cb3c 5bdf cbbc 52eb 963c ad7a 42bc
000000a0: 64a4 e0bb fa40 05bc ff2f 50bb dda9 89bb
000000b0: 8969 d73c 61f9 2cbd be73 d03c 10b2 043c
000000c0: a937 1fbd a08a 01bd 6aca 343c 0772 4d3d
000000d0: 5301 3cbc 87ca 083d f00f 4c3d 9db8 e83c
000000e0: 3c9f 373d 247a f4bb 212b 93bc d5a1 cf3c
000000f0: 4dec 31bd 0b96 333d d6ff 6fbd 9639 14bd
00000100: f260 febb 4004 8d3c df16 1e3d f80e cf3c
00000110: 9385 663d c94f 0fbd 5a5a f63b f1cf cd3b
00000120: 0ca9 013c f3ea 4a3d dfa3 c2bc b419 26bd
00000130: dfa8 72bd c1f4 fcbc 399a bebc 5ff7 1e3d
00000140: e21e 4dbc e7a9 38bd cf09 4e3d 2c78 44bd
00000150: b796 f03c 0dba 1dbc 3cca 52bc add1 a8bc
00000160: 9e31 f8bc 2b12 453d f80a 3cbd 94e9 0dbd
00000170: 055c 29ba 4007 be39 225b 2a3d 5645 783d
00000180: afb1 1abc 8c20 0e3d 0b39 083c c0dd 9dba
00000190: f15a 9ebc 9dbd 12bc e313 003b e190 f33b
000001a0: 815d 72bb 7993 193d d77b 24bc d2fe 5cbd
000001b0: 2a66 033d f6cc e1bc 7ad3 77bc 7775 3ebd
000001c0: 7381 49bb 1bf3 8b3c 3b82 d83c d0ea 8bbc
000001d0: f75e 3dbd b351 afbb 6d2b 43bd 424f b63c
000001e0: 63e0 183d e02f 703c 29c2 b9bc fb1b 0abd
000001f0: 627b fdbc b6ae 59bd 8d88 493b 9d9b 673d
00000200: 11f6 373d 2ab0 a9bc 5e0b 4ebd 18d7 1a3d
00000210: e1cf dc3c 7eb9 cbbc 44a3 28bd a689 24bd
00000220: 77e7 a6bc ddee 7dbc a470 63bd 9796 98bc
00000230: 00fe 75bc 7a09 5b3d 8bea 71bc 6457 b53c
00000240: e25a 06bd d38e 293c 6aa2 bc3c b253 283d
00000250: 0638 15bd e4f5 0abd 1f58 3b3d fc25 183d
00000260: 29b4 153d 73ff 5d3c bc69 b83c 6366 42bc
00000270: 1110 b2bc a7e9 3cbd 83f8 0dbd 5cf6 04bd
00000280: 9bbb 433d 4fe8 09bd 4b87 25bd 0893 d4bc
00000290: 8c17 8cbc 9084 25bc e7f9 4bbc 456e 23bc
000002a0: df83 fbba 8517 813d 9985 10bd 76ef 41bd
000002b0: a753 96bc 898a 8a3c 21f5 063d c937 4d3d
000002c0: eead 8f3c 3cb4 88bc d954 e13c 644a fabc
000002d0: 8bf5 5cbd 9696 353d d526 1e3d 1c73 8d3c
000002e0: eaf2 0bbc 8f7d f53c b123 b6bc 4d8e e1bc
000002f0: 3e6e 0fbd ca2d abbb b57b b1bb c374 303c
00000300: 66d2 a5bc 18fd 353d 1398 c4bc 618b 47bc
00000310: b291 b0bb 84f0 063c 5a9a c33c 3ea6 793d
00000320: 9bee 4cb9 9f3b b5bc 4b18 6d3d 987d 8f3c
00000330: 4487 1d3d 247e 99bc 6b0a 27bd d1d9 52bd
00000340: b756 a33c 8ee5 82bd 6e47 df3b 75bf b53c
00000350: 9e62 6abd 7e9c 64bd 15c6 43bd 2127 52bd
00000360: 0def f8bc 3cff 743d dabc 99bc c82c 013d
00000370: 5762 08bd 3d7a 0cbd 603a 783d bfa9 0bbd
00000380: 6b72 a83c fbb3 67bd b1e9 0bbd 3f62 88bc
00000390: e26c 463b 2c19 2c3c 01e7 06bd 6d2f a23c
000003a0: 312a 0dbd 055a 303a 7d0f 393d a9c7 a2bc
000003b0: 46ce b3b9 0483 eb3c 088e 8cbd ff81 bb3c
000003c0: 910d 83bc 3ab6 c73c a13c 053c 78ed c73c
000003d0: 61ca 8a3a c2a4 d83c f978 33bd 0dbb 75bc
000003e0: 2812 bbbc 0b18 c53c 2e20 043d 8b5a 6bbc
000003f0: 55ab 0a3b 1624 5d3c c297 fe3c 9ca0 23bd

bias f4 [32]
0.0426043 -0.027850607 -0.007295873 0.05746861 -0.012171992 0.046731178 0.044669244 0.002196235
-0.019864328 -0.03655467 -0.0072455793 0.06489078 -0.031847745 0.00020026471 0.011111017 -0.02906794
-0.014374329 -0.056055475 0.025805889 0.048063513 -0.017586235 0.02319188 0.0565858 0.067457296
0.007514768 0.057633553 -0.03454934 -0.060307655 0.053979807 -0.0044150427 0.016815463 0.021938872
00000000: d981 2e3d f526 e4bc 3812 efbb 3564 6b3d
00000010: 096d 47bc 3169 3f3d 19f7 363d b5ee 0f3b
00000020: 84ba a2bc 5aba 15bd 536c edbb 75e5 843d
00000030: c872 02bd 26fe 5139 fc0a 363c e31f eebc
00000040: 4e82 6bbc 6d9a 65bd df66 d33c 3fde 443d
00000050: 0211 90bc e6fc bd3c 83c6 673d 0d27 8a3d
00000060: 713e f63b 2911 6c3d 9c83 0dbd 2905 77bd
00000070: ee19 5d3d 10ac 90bb 95c0 893c 26b9 b33c
