runs/70.pt (torch, 156610 bytes, 38 tensors)

weight f4 [8, 1, 3, 3]
-0.28053132 -0.079699524 -0.28896213 0.06434771 0.09619743 0.238506 0.21867955 -0.29447058
0.24794169 0.21170916 -0.3011866 0.2934566 -0.18875813 0.08666078 -0.15860896 0.2043525
-0.24801828 0.16194849 0.019564938 -0.0702577 0.124483205 0.04476325 -0.21745563 -0.042073242
-0.0008284158 -0.20251553 -0.276136 0.08029258 -0.20063035 0.1642364 0.23968644 0.021062106
-0.16718826 0.11531473 0.088248074 0.080945075 0.3141328 -0.10478052 0.08981099 -0.2551955
0.2076265 0.12886047 -0.066021204 0.31960663 -0.22022365 0.013561585 -0.1981326 0.2536094
0.0036653415 0.18774667 -0.07980325 0.06931793 0.0032119863 -0.092225194 0.08848132 0.31670675
0.32693335 -0.1367951 -0.30232707 0.27746496 0.3304242 -0.17879726 -0.06131527 -0.23993936
0.2818036 -0.3316149 -0.19861822 -0.11403674 0.07825621 0.2081304 -0.065680586 0.21619019
00000000: cda1 8fbe 8139 a3bd d8f2 93be bbc8 833d
00000010: 2803 c53d eb3a 743e 88ed 5f3e d9c4 96be
00000020: 6de4 7d3e 49ca 583e 2135 9abe f23f 963e
00000030: d049 41be 357b b13d 636a 22be c841 513e
00000040: 81f8 7dbe d3d5 253e a646 a03c 45e3 8fbd
00000050: 0df1 fe3d ab59 373d b0ac 5ebe fe54 2cbd
00000060: 0b2a 59ba 3b60 4fbe b361 8dbe 7070 a43d
00000070: 0b72 4dbe 962d 283e 5d70 753e 708a ac3c
00000080: 6633 2bbe 212a ec3d 68bb b43d 88c6 a53d
00000090: 04d6 a03e 2b97 d6bd d3ee b73d fca8 82be
000000a0: 0b9c 543e 00f4 033e 2036 87bd 7ba3 a33e
000000b0: 4f82 61be 6931 5e3c 46e3 4abe 17d9 813e
000000c0: 3a36 703b aa40 403e e36f a3bd 8ff6 8d3d
000000d0: 3080 523b 90e0 bcbd b235 b53d 6327 a23e
000000e0: cf63 a73e 0414 0cbe 9dca 9abe e30f 8e3e
000000f0: 5c2d a93e a116 37be b825 7bbd aab2 75be
00000100: 9048 903e 6ec9 a9be 9362 4bbe 188c e9bd
00000110: cb44 a03d 2320 553e 8b83 86bd f660 5d3e

bias f4 [8]
-0.27448523 -0.021288611 0.26618552 0.09253268 0.03537964 -0.06827625 -0.086631276 -0.07279786
00000000: 5489 8cbe 7465 aebc 7849 883e c681 bd3d
00000010: 3eea 103d 6bd4 8bbd bd6b b1bd 0b17 95bd

weight f4 [8, 8, 3, 3]
-0.025361596 0.011884593 -0.0229048 0.01718765 -0.06081419 -0.0023498337 -0.048171416 0.100100845
-0.040879074 0.0050158114 -0.0008446676 0.068941936 -0.072091125 0.11569161 -0.11587721 0.008757584
-0.009228894 0.053031877 0.037256595 -0.077565044 0.100345746 0.08194543 0.056152392 -0.046711665
-0.029722644 0.11629057 0.060875203 0.08922867 0.093471885 0.07558705 -0.025735524 0.029673548
0.07235385 -0.035521403 0.04895991 -0.073300295 0.029607277 0.031869203 0.09747385 0.08853222
-0.02684763 0.0629709 -0.11702871 -0.09273434 -0.050118286 0.057044927 0.004559704 -0.04334005
-0.10320495 0.05092475 0.063176446 -0.030640796 0.016925761 0.0694641 0.058865942 0.017260691
-0.05742023 0.020018697 0.117251106 0.0065829605 -0.047877114 0.11382413 -0.10915226 0.043382388
0.114205405 0.093180045 0.00084395113 -0.0742282 0.039720725 0.07157183 -0.08634005 -0.028475482
0.02325444 0.030367762 0.06086459 -0.00809691 0.025517924 0.05599619 0.005938349 0.051812623
-0.017661162 -0.04354234 0.09465504 0.008116484 0.009574548 -0.041347124 0.036059693 -0.105835035
0.114410564 0.010055745 -0.0999096 0.03551402 -0.020808592 0.08654693 0.09162247 -0.04426522
-0.053700697 -0.08572124 -0.034874085 -0.0989237 0.013668739 -0.023940355 0.01916628 -0.05209252
0.09157344 -0.10756536 0.04562491 -0.09034469 0.024101837 0.061653506 0.0078117824 0.029270276
-0.11301652 -0.009440059 0.028104058 0.11538223 0.0995103 0.0285698 0.032443326 -0.0522601
-0.08127948 -0.06121253 -0.05573806 -0.042520706 0.0016642074 -0.039595015 0.094267376 0.04070934
0.06401609 -0.114134416 -0.031173885 0.058740314 -0.08876473 0.014743694 -0.024966782 -0.027784169
-0.10467723 -0.02013837 0.011204749 -0.096492775 -0.045706972 -0.0631296 -0.06730674 -0.0873612
0.09534121 -0.054287642 -0.10956002 0.045111254 0.011489254 0.051327903 -0.07510664 0.0036151086
0.040226184 0.06217451 -0.009436851 0.10085925 -0.0016606952 0.007076028 -0.066599175 -0.07353887
-0.08560763 0.087337926 -0.11495758 0.012667772 9.6007374e-05 0.026790423 0.08018275 0.085193984
0.038160685 -0.09162328 -0.018080065 -0.07306544 0.11098425 0.10989599 0.06359117 -0.05748687
0.05169362 -0.090929165 -0.09433248 0.0011807035 -0.029502211 -0.008721668 0.058531266 -0.034819365
-0.08920952 0.04962127 0.111995354 -0.028658383 0.06466313 -0.11550676 0.015451052 0.030267525
0.020761311 -0.065742336 -0.1161825 -0.061947957 0.0075676925 -0.06860886 -0.021146566 -0.10852501
-0.0030717626 -0.07273284 -0.032586776 0.022041496 -0.05183805 0.09305959 0.019158918 0.05095178
0.025417436 0.049198505 -0.077052146 0.07574695 0.061443396 -0.0019471732 0.110637486 -0.004468004
-0.07579142 0.06451958 0.08092991 -0.034375243 0.04591481 0.016095126 0.102863826 0.00890954
0.012085812 0.08529087 0.029430928 0.024473814 -0.050339535 -0.066310056 -0.040166333 0.07454875
0.060081508 0.018519873 -0.058173034 0.10911192 0.06624511 0.00022189505 -0.0715904 -0.05153389
0.11480822 -0.07270902 -0.08867859 0.047532164 0.1164319 -0.0038512019 0.009216052 -0.010650829
0.10637823 0.053532258 0.04154389 0.08061154 -0.07483633 0.10910778 0.10509184 0.103732005
00000000: 1fc3 cfbc 99b7 423c d9a2 bbbc 1dcd 8c3c
00000010: 4d18 79bd abff 19bb 644f 45bd ac01 cd3d
00000020: d170 27bd ad5b a43b af6c 5dba 6e31 8d3d
00000030: 83a4 93bd b9ef ec3d 0851 edbd f87b 0f3c
00000040: c934 17bc f437 593d 5f9a 183d 6cda 9ebd
00000050: 1282 cd3d 01d3 a73d 0d00 663d bb54 3fbd
00000060: e77c f3bc c029 ee3d 4758 793d 85bd b63d
00000070: 306e bf3d 62cd 9a3d 4ed3 d2bc f115 f33c
00000080: 412e 943d e47e 11bd 308a 483d 771e 96bd
00000090: f68a f23c 4889 023d 5fa0 c73d 6150 b53d
000000a0: 90ef dbbc e3f6 803d c0ac efbd 80eb bdbd
000000b0: d548 4dbd f1a7 693d 9269 953b 5685 31bd
000000c0: 1e5d d3bd 7896 503d a762 813d 6802 fbbc
000000d0: e5a7 8a3c 3243 8e3d 6a1d 713d 4b66 8d3c
000000e0: 7a31 6bbd 40fe a33c 5921 f03d e0b5 d73b
000000f0: cb1a 44bd a01c e93d 388b dfbd bbb1 313d
00000100: 86e4 e93d 2ed5 be3d 9a3c 5d3a f404 98bd
00000110: 33b2 223d 4094 923d 0dd3 b0bd 6a45 e9bc
00000120: 1880 be3c d0c5 f83c 264d 793d e7a8 04bc
00000130: f70a d13c 435c 653d 7b96 c23b 7939 543d
00000140: 24ae 90bc 7459 32bd 80da c13d 00fb 043c
00000150: 91de 1c3c 9a5b 29bd 54b3 133d 0ac0 d8bd
00000160: 1650 ea3d dac0 243c 689d ccbd 2677 113d
00000170: c876 aabc 843f b13d 90a4 bb3d 734f 35bd
00000180: 43f5 5bbd 9e8e afbd 21d8 0ebd 8298 cabd
00000190: d9f2 5f3c 901e c4bc 9a02 9d3c f75e 55bd
000001a0: db8a bb3d 3a4b dcbd 30e1 3a3d a306 b9bd
000001b0: 3771 c53c 6388 7c3d fbf9 ff3b 38c8 ef3c
000001c0: 3575 e7bd 7aaa 1abc 7b3a e63c 854d ec3d
000001d0: 0ecc cb3d 370b ea3c 4be3 043d b00e 56bd
000001e0: db75 a6bd fdb9 7abd 984d 64bd 312a 2ebd
000001f0: 8921 da3a 622e 22bd 410f c13d d6be 263d
00000200: de1a 833d 4ebf e9bd 6060 ffbc af99 703d
00000210: 48ca b5bd 898f 713c 2387 ccbc a09b e3bc
00000220: 0461 d6bd 39f9 a4bc 2094 373c 019e c5bd
00000230: 3c37 3bbd 174a 81bd 1ed8 89bd 6eea b2bd
00000240: 4142 c33d b85c 5ebd 0161 e0bd 94c6 383d
00000250: 6d3d 3c3c 353d 523d 83d1 99bd 75eb 6c3b
00000260: 36c4 243d b3aa 7e3d 069d 1abc 4b8f ce3d
00000270: afab d9ba 06de e73b 2665 88bd 8c9b 96bd
00000280: 0e53 afbd 3ade b23d e16e ebbd 7d8c 4f3c
00000290: 9157 c938 9777 db3c db36 a43d 2f7a ae3d
000002a0: 614e 1c3d fca4 bbbd a51c 94bc 55a3 95bd
000002b0: b64b e33d 2611 e13d 163c 823d 5a77 6bbd
000002c0: b0bc 533d 1239 babd 6331 c1bd d6c1 9a3a
000002d0: 9fae f1bc 54e5 0ebc 7bbe 6f3d c09e 0ebd
000002e0: 7bb3 b6bd ac3f 4b3d d25d e53d fcc4 eabc
000002f0: 1a6e 843d cf8e ecbd 6926 7d3c 9af3 f73c
00000300: a013 aa3c eba3 86bd 17f1 edbd 24bd 7dbd
00000310: 68fa f73b cd82 8cbd 903b adbc 5c42 debd
00000320: a04f 49bb f5f4 94bd b679 05bd 5e90 b43c
00000330: 2354 54bd 0796 be3d 2af3 9c3c d0b2 503d
00000340: 3a38 d03c 5f84 493d 84cd 9dbd 3821 9b3d
00000350: 12ac 7b3d 4a38 ffba e895 e23d 5668 92bb
00000360: 8838 9bbd d722 843d 95be a53d 0ecd 0cbd
00000370: 2b11 3c3d edd9 833c 45aa d23d 52f9 113c
00000380: 9203 463c fbac ae3d 2119 f13c 4f7d c83c
00000390: d430 4ebd 91cd 87bd 7485 24bd 04ad 983d
000003a0: 0718 763d fdb6 973c d946 6ebd 1276 df3d
000003b0: 84ab 873d 80ac 6839 fd9d 92bd 3315 53bd
000003c0: 9220 eb3d 77e8 94bd 1f9d b5bd 16b1 423d
000003d0: d973 ee3d 7264 7cbb ecfe 163c d180 2ebc
000003e0: d4dc d93d a444 5b3d ed29 2a3d aa17 a53d
000003f0: ca43 99bd e673 df3d 643a d73d 7271 d43d

bias f4 [8]
-0.094341315 -0.09816282 0.107537694 0.036880046 0.0920743 0.11141608 0.018394643 -0.041026335
00000000: 0536 c1bd 9709 c9bd b93c dc3d 880f 173d
00000010: 7391 bc3d 1d2e e43d 5db0 963c 3b0b 28bd

weight f4 [16, 8, 3, 3]
0.08259779 0.11007634 0.11465955 0.027357202 0.03620967 -0.028854504 -0.0041202907 0.057583097
0.006887502 -0.06016409 -0.001655005 -0.036141068 0.053824335 -0.031045096 0.038970143 -0.091891825
0.03538108 0.04353865 -0.051094677 0.07350126 0.08147395 -0.011095287 -0.10796582 0.09466541
-0.086372465 0.07414101 0.07916875 0.09725051 -0.08601104 -0.06775378 0.08638037 -0.045122366
0.023603968 0.04399095 0.11225569 -0.041848972 -0.046845317 -0.05484162 -0.014651362 0.024143817
-0.011161305 -0.042002346 0.047252864 -0.10319802 0.06309395 0.0022484416 -0.043713234 -0.063551076
0.030150553 -0.058728162 0.011558762 0.06116356 -0.081518844 -0.08034022 0.11349901 0.025818154
0.108652726 -0.0752001 0.045242615 0.08130117 0.04123135 -0.02564445 -0.08271968 -0.07150832
-0.11313845 0.004598583 0.10368425 -0.04096552 -0.056625474 0.014750373 0.09252374 0.06424815
-0.05329115 -0.058970947 -0.011186981 -0.052984487 -0.0856349 0.02953256 -0.053986788 -0.09449842
0.10906027 0.06252148 0.086658016 0.06933107 0.00013739009 -0.09768639 -0.035252795 0.051066503
0.056381043 0.031356424 0.010683575 0.0153959505 0.015699966 0.11414614 0.06467774 -0.086054385
0.022348061 -0.05024643 0.104196005 0.09841084 0.12429295 0.015992232 0.095776685 -0.09844204
0.12323031 0.07242703 -0.08705786 -0.034139596 -0.051348813 0.009052637 0.008352224 -0.065092266
-0.024781268 0.07518288 0.0044840924 -0.019899122 -0.014631217 -0.07323995 0.046924718 -0.06786668
0.046709288 0.08625338 -0.0241103 0.0143890185 -0.030164411 0.10484118 -0.032405283 0.11379496
0.12682967 -0.04261961 0.105265334 0.03700151 0.05469798 -0.08727383 0.02820477 0.033109665
-0.10052603 -0.049633823 -0.00012299049 -0.09291127 0.06200654 -0.08529644 0.096157 -0.02583208
-0.04510987 0.10089086 -0.093704686 -0.09084633 0.0011742144 -0.084736235 -0.011925139 0.051357575
0.019784827 -0.06357313 -0.098180935 0.05189404 0.009582317 -0.02900781 -0.10227693 0.027294315
0.020235777 0.10246508 0.08640747 0.051660016 0.108578764 0.08459353 0.04089522 0.035469763
-0.0570769 -0.046393055 0.083112665 -0.114391565 -0.08128938 0.019043002 0.07197809 -0.07725536
0.09314023 -0.015220209 0.08210933 -0.09847068 0.069145344 0.024412615 0.1090446 -0.113839254
-0.02356468 0.08398821 -0.049303714 -0.051504344 -0.006686789 0.0480484 -0.011146657 -0.10027076
0.030515036 0.09973596 0.062275957 0.0974042 -0.06882109 0.04844728 -0.08586578 0.05247138
-0.11208431 0.00882999 -0.11688575 0.014973553 -0.11397366 -0.06654162 0.0806055 0.02581577
0.0024117392 0.08114062 0.024247264 0.08026482 0.009928091 0.110670656 0.06322878 -0.06184617
0.040345892 -0.038974673 -0.06633523 -0.04956339 -0.012448486 -0.057999406 0.05610063 -0.02381556
0.05041238 0.11495123 -0.11022569 0.026206892 0.0068341745 0.11465237 0.07881489 -0.08360293
-0.089646764 -0.071582876 0.10196516 -0.0395471 -0.018459788 0.09732306 -0.057001904 -0.09577268
-0.091315165 0.037412666 -0.065000504 -0.08193764 0.039717 0.011872497 -0.039677016 -0.100990556
0.078239426 -0.08264219 -0.10790233 -0.06994064 -0.017375985 -0.09752171 0.019116351 0.042226568
00000000: 0829 a93d b46f e13d a0d2 ea3d 361c e03c
00000010: 9750 143d 4860 ecbc 8103 87bb 41dc 6b3d
00000020: 8eb0 e13b 9f6e 76bd c1ec d8ba a808 14bd
00000030: e876 5c3d 4952 febc 289f 1f3d c831 bcbd
00000040: c0eb 103d 9555 323d a748 51bd d487 963d
00000050: d0db a63d 02c9 35bc 2f1d ddbd f0df c13d
00000060: 0ce4 b0bd 3ed7 973d 3a23 a23d 462b c73d
00000070: 8e26 b0bd 7ec2 8abd 31e8 b03d 3bd2 38bd
00000080: 1c5d c13c db2f 343d 50e6 e53d d469 2bbd
00000090: e0e0 3fbd 9ba1 60bd 440c 70bc 41c9 c53c
000000a0: e8dd 36bc a70a 2cbd 388c 413d 7c59 d3bd
000000b0: 6737 813d 975a 133b a60c 33bd 1127 82bd
000000c0: 4bfe f63c f18c 70bd f660 3d3c a486 7a3d
000000d0: 5af3 a6bd 6a89 a4bd 2b72 e83d 9880 d33c
000000e0: 5285 de3d 8302 9abd 5250 393d 3a81 a63d
000000f0: 34e2 283d 4f14 d2bc f068 a9bd f472 92bd
00000100: 22b5 e7bd b6af 963b 6858 d43d 76cb 27bd
00000110: 1df0 67bd 8cab 713c 167d bd3d 8994 833d
00000120: d247 5abd 858b 71bd 9949 37bc 4306 59bd
00000130: 5a61 afbd 44ee f13c 4021 5dbd 6388 c1bd
00000140: fe5a df3d 430b 803d c279 b13d 73fd 8d3d
00000150: 5f10 1039 cd0f c8bd 3c65 10bd 1c2b 513d
00000160: cfef 663d 986f 003d 290a 2f3c 4c3f 7c3c
00000170: 379d 803c 74c5 e93d c375 843d 483d b0bd
00000180: 4813 b73c 33cf 4dbd b764 d53d 9f8b c93d
00000190: 4d8d fe3d 2402 833c 9126 c43d fb9b c9bd
000001a0: 2c60 fc3d 9f54 943d 644b b2bd f6d5 0bbd
000001b0: 2253 52bd 8351 143c c4d7 083c 184f 85bd
000001c0: 1602 cbbc 7bf9 993d 4bef 923b 7c03 a3bc
000001d0: c6b7 6fbc d4fe 95bd 2234 403d b0fd 8abd
000001e0: 3d52 3f3d 9da5 b03d f782 c5bc ebbf 6b3c
000001f0: 5b1b f7bc f9b6 d63d 67bb 04bd 550d e93d
00000200: a3df 013e e691 2ebd 5a95 d73d e58e 173d
00000210: fd0a 603d 9fbc b2bd b10d e73c 009e 073d
00000220: 97e0 cdbd d64c 4bbd 02f7 00b9 4448 bebd
00000230: 92fa 7d3d e6af aebd f6ed c43d cc9d d3bc
00000240: 21c5 38bd de9f ce3d 3ee8 bfbd a40d babd
00000250: 19e8 993a 318a adbd a961 43bc 525c 523d
00000260: ca13 a23c a132 82bd 1613 c9bd d88e 543d
00000270: 27ff 1c3c c9a1 edbc 9176 d1bd 5498 df3c
00000280: 80c5 a53c 36d9 d13d 66f6 b03d 7499 533d
00000290: 8b5e de3d 5f3f ad3d bf81 273d be48 113d
000002a0: 78c9 69bd a506 3ebd f936 aa3d 2046 eabd
000002b0: 0c7b a6bd 1200 9c3c 4069 933d 0f38 9ebd
000002c0: 4ec0 be3d 2f5e 79bc f028 a83d ffaa c9bd
000002d0: 139c 8d3d f7fc c73c c652 df3d 8e24 e9bd
000002e0: b70a c1bc 0302 ac3d b1f2 49bd 38f6 52bd
000002f0: da1c dbbb 66ce 443d 78a0 36bc c25a cdbd
00000300: abfa f93c 5e42 cc3d 1315 7f3d da7b c73d
00000310: 12f2 8cbd a870 463d 66da afbd 3bec 563d
00000320: 758c e5bd aaab 103c cc61 efbd a253 753c
00000330: 066b e9bd f946 88bd 7f14 a53d 987b d33c
00000340: 450e 1e3b 0e2d a63d 33a2 c63c e261 a43d
00000350: 6fa9 223c 4ca7 e23d 177e 813d 6952 7dbd
00000360: bc41 253d e8a3 1fbd c4da 87bd fb02 4bbd
00000370: bcf4 4bbc c990 6dbd c6c9 653d d918 c3bc
00000380: 367d 4e3d 8d6b eb3d 02be e1bd d6af d63c
00000390: 36f1 df3b ddce ea3d b369 a13d 0338 abbd
000003a0: b998 b7bd 0b9a 92bd 1cd3 d03d 24fc 21bd
000003b0: fb38 97bc 5051 c73d d47a 69bd 7824 c4bd
000003c0: 7203 bbbd 063e 193d fc1e 85bd ecce a7bd
000003d0: 4bae 223d dd84 423c 5e84 22bd 23d4 cebd
000003e0: fe3b a03d 4f40 a9bd e6fb dcbd 0a3d 8fbd
000003f0: 1558 8ebc 76b9 c7bd e599 9c3c c4f5 2c3d

bias f4 [16]
0.03633342 -0.03785586 0.06267933 0.06344103 0.0037073109 0.039696094 -0.051759023 0.09011624
-0.081532806 -0.008426108 -0.0047916207 0.012244418 0.014526613 0.024935331 -0.11523353 -0.039459057
00000000: 5ad2 143d bf0e 1bbd 055e 803d 5fed 813d
00000010: 5bf6 723b 5f98 223d 4501 54bd dd8e b83d
00000020: acfa a6bd a90d 0abc 0703 9dbb d09c 483c
00000030: 0801 6e3c 2e45 cc3c 8fff ebbd d29f 21bd

weight f4 [8, 16, 1, 1]
-0.09416668 -0.22180998 0.24050316 0.17266795 -0.1712292 0.23621082 0.11331604 0.09390953
-0.22014263 -0.22875892 0.17633334 -0.16016528 0.07054056 0.080939315 0.008043823 -0.17917281
-0.031763535 0.17097548 0.18900505 0.019781545 -0.073088005 -0.12626787 -0.17709301 -0.06297734
-0.0168981 0.1850554 -0.045812227 0.070062436 0.09012868 -0.17875816 0.088720575 -0.22619659
-0.0020428726 -0.21516623 0.17951083 -0.16937652 -0.12335257 0.2169057 0.031263933 -0.14603381
-0.23093289 0.020919986 0.14448118 -0.21693508 -0.20130599 0.1868149 -0.042751677 0.18812165
-0.15943746 0.12708944 -0.03761552 0.058003813 -0.16204092 -0.1432945 0.10049274 0.13991514
-0.00014477663 0.1324437 0.13287167 -0.20850933 -0.033814505 0.04145723 -0.029421164 0.1573469
0.17095582 -0.17828986 0.16271617 -0.21775293 0.018941758 0.123173945 -0.1794202 0.11692603
-0.19705747 0.2016466 0.21820864 -0.02035329 0.07984374 0.0453936 0.04900916 -0.057850063
-0.14104162 0.03376885 0.07788792 -0.104129806 -0.021689337 0.14100188 -0.17802101 -0.09445326
-0.012253515 -0.093098626 -0.19464672 -0.07048104 0.19167681 -0.06387289 -0.13405041 0.15212914
-0.20216912 0.19476928 -0.13303335 -0.23191723 0.118751325 -0.14879349 0.081466235 0.009495943
-0.019722419 0.15950017 -0.18205717 -0.058383565 0.19333619 0.12201453 0.05211418 0.00874788
0.05903988 0.22818366 0.23271666 -0.13820422 -0.2084578 0.0009458631 -0.0046512987 0.087252125
-0.18124975 -0.12578818 -0.032029923 -0.15232569 0.20370354 0.023514789 -0.23563313 -0.19403033
00000000: 76da c0bd 2822 63be 7646 763e decf 303e
00000010: b556 2fbe 40e1 713e 3d12 e83d a453 c03d
00000020: 126d 61be c73f 6abe ba90 343e 5e02 24be
00000030: 9277 903d 83c3 a53d 3dca 033c 1479 37be
00000040: 7b1a 02bd 3214 2f3e 8a8a 413e e80c a23c
00000050: 2aaf 95bd 5d4c 01be df57 35be 43fa 80bd
00000060: e26d 8abc 2a7f 3d3e 9aa5 3bbd e57c 8f3d
00000070: 6395 b83d 610c 37be 22b3 b53d 14a0 67be
00000080: b7e1 05bb 8954 5cbe b0d1 373e 0a71 2dbe
00000090: 46a0 fcbd 871c 5e3e 9c0e 003d e389 15be
000000a0: ac79 6cbe 6460 ab3c e0f2 133e 3b24 5ebe
000000b0: 2823 4ebe 684c 3f3e 621c 2fbd f6a2 403e
000000c0: 9343 23be bc23 023e bb12 1abd 6895 6d3d
000000d0: 0eee 25be cbbb 12be 23cf cd3d ea45 0f3e
000000e0: 2ecf 17b9 529f 073e 830f 083e 7883 55be
000000f0: 1481 0abd 0ecf 293d a704 f1bc 8c1f 213e
00000100: 0b0f 2f3e 9e91 36be 119f 263e a0fa 5ebe
00000110: bf2b 9b3c 9f42 fc3d eeb9 37be ea76 ef3d
00000120: 6fc9 49be 727c 4e3e 1672 5f3e f1bb a6bc
00000130: 1d85 a33d a4ee 393d d4bd 483d 30f4 6cbd
00000140: 376d 10be 3551 0a3d b483 9f3d 0242 d5bd
00000150: d6ad b1bc cc62 103e 244b 36be b670 c1bd
00000160: f8c2 48bc 7eaa bebd 7851 47be 5d58 90bd
00000170: ed46 443e cacf 82bd 8344 09be bec7 1b3e
00000180: 6c05 4fbe 9971 473e e539 08be b67b 6dbe
00000190: e533 f33d 525d 18be c5d7 a63d df94 1b3c
000001a0: e990 a1bc 0354 233e 326d 3abe 9b23 6fbd
000001b0: ecf9 453e c1e2 f93d ae75 553d 4553 0f3c
000001c0: cdd3 713d faa8 693e 474d 6e3e 6885 0dbe
000001d0: f675 55be ccf3 773a ec69 98bb 3eb1 b23d
000001e0: 8999 39be 9ece 00be cf31 03bd 44fb 1bbe
000001f0: a997 503e 16a2 c03c d049 71be e3af 46be

bias f4 [8]
0.21347834 0.15935493 0.009472104 0.20217082 0.20538837 0.06761953 -0.051474474 0.2414161
00000000: 119a 5a3e f02d 233e e230 1b3c de05 4f3e
00000010: 5451 523e 1c7c 8a3d e6d6 52bd c835 773e

weight f4 [8]
0.99269307 0.97758824 1.0365026 0.99051756 0.9925174 1.0207541 0.98939353 0.9868816
00000000: 2221 7e3f 3943 7a3f 1eac 843f 8f92 7d3f
00000010: 9f15 7e3f 12a8 823f e548 7d3f 46a4 7c3f

bias f4 [8]
0.0017819777 -0.0066756364 0.002488274 -0.0030175466 -0.0033085635 0.009883357 -0.0030222253 -0.003630331
00000000: 4091 e93a 4cbf dabb 4f12 233b 08c2 45bb
00000010: 7cd4 58bb ceed 213c 8710 46bb d9ea 6dbb

running_mean f4 [8]
-2.2136128 0.41871408 -3.6284277 1.0511872 6.6810775 -6.657808 -1.9765725 -1.4315649
00000000: d5ab 0dc0 b161 d63e 2938 68c0 4d8d 863f
00000010: 63cb d540 c30c d5c0 5400 fdbf 853d b7bf

running_var f4 [8]
0.030187605 0.0046462007 0.04311481 0.023139957 0.105153814 0.1243764 0.013155493 0.022059677
00000000: ff4b f73c 283f 983b 2899 303d 0290 bd3c
00000010: e25a d73d 0eb9 fe3d 238a 573c 7fb6 b43c

weight f4 [16, 8, 1, 1]
0.30144906 0.3537087 -0.18234639 -0.13704018 0.30707723 0.32972535 -0.3174802 0.12781523
-0.00042765334 -0.23730966 -0.09117351 0.33186775 0.09641933 0.20357078 0.2426459 0.3346141
-0.057569053 0.20163031 0.077285334 0.15426971 0.13029604 -0.22700433 0.26848415 0.06357494
0.2632026 0.056992494 -0.002800692 0.15472943 0.04397692 0.10626287 -0.14556244 -0.004226146
-0.06618432 -0.11040239 0.033968575 -0.03336671 -0.088901795 0.31830603 -0.118300974 0.17031625
-0.12962587 -0.1483104 0.055426624 0.19831176 0.2240772 -0.23071799 -0.25186542 0.35127175
0.23012723 -0.0006046043 0.18471965 0.014322701 -0.14508939 -0.15649147 0.036026828 0.22002032
0.07116924 -0.107062444 0.31123912 0.33678946 0.033374816 0.10367034 -0.1748519 0.13297458
-0.06976307 -0.21503411 -0.012450857 -0.098036885 0.09174884 0.26503846 0.30114856 0.23430622
0.3287126 0.04740359 -0.3026025 -0.022249607 -0.19243006 0.192077 -0.16730133 -0.29438147
-0.2439269 -0.24787204 0.23970786 -0.12599935 -0.13609979 -0.18143138 0.17052105 -0.0971663
0.03592319 0.04365491 -0.0796343 0.23686951 0.12288296 0.07909531 -0.09989509 0.011826568
0.30548918 -0.25415695 0.35124955 0.03427792 -0.2892288 0.3175009 -0.016850695 0.20120722
0.1555097 -0.028355196 -0.25247377 0.15357527 0.18263489 0.14818949 -0.11497213 0.3026704
-0.19639137 0.20085287 0.27113086 0.31801012 -0.33467585 -0.01030519 0.1540183 0.29720476
0.27374443 0.14047422 -0.006890204 -0.2884701 -0.026445458 -0.3023424 -0.026189553 -0.28876707
00000000: 8857 9a3e 4f19 b53e 03b9 3abe 4354 0cbe
00000010: 3a39 9d3e c3d1 a83e c48c a2be ffe1 023e
00000020: a936 e0b9 4e01 73be 2db9 babd 92ea a93e
00000030: 7f77 c53d dc74 503e 2b78 783e 8a52 ab3e
00000040: 87cd 6bbd 2d78 4e3e c647 9e3d e1f8 1d3e
00000050: 536c 053e d373 68be c176 893e 9433 823d
00000060: 7ec2 863e f670 693d d18b 37bb 6471 1e3e
00000070: 2521 343d 59a0 d93d 520e 15be 7b7b 8abb
00000080: a58b 87bd a61a e2bd a222 0b3d 88ab 08bd
00000090: 2512 b6bd 02f9 a23e c847 f2bd 6267 2e3e
000000a0: a5bc 04be aede 17be 0707 633d 3d12 4b3e
000000b0: 7e74 653e 5641 6cbe 81f4 80be e4d9 b33e
000000c0: 79a6 6b3e 4f7e 1eba 2627 3d3e c3a9 6a3c
000000d0: 5092 14be 4d3f 20be de90 133d 024d 613e
000000e0: 2ec1 913d 8e43 dbbd bc5a 9f3e ab6f ac3e
000000f0: 08b4 083d 1d51 d43d 600c 33be 7d2a 083e
00000100: f1df 8ebd e731 5cbe aefe 4bbc 90c7 c8bd
00000110: d1e6 bb3d 1fb3 873e 2530 9a3e f8ed 6f3e
00000120: 054d a83e 442a 423d b7ee 9abe cf44 b6bc
00000130: 630c 45be d5af 443e 0a51 2bbe 2bb9 96be
00000140: f9c7 79be 2bd2 7dbe fa75 753e f905 01be
00000150: be5d 0bbe 26c9 39be 129d 2e3e 20ff c6bd
00000160: 3224 133d 7ecf 323d 4f17 a3bd ec8d 723e
00000170: 10aa fb3d b9fc a13d cc95 ccbd 39c4 413c
00000180: 1469 9c3e dc20 82be fbd6 b33e 0167 0c3d
00000190: cc15 94be 7a8f a23e 780a 8abc 4409 4e3e
000001a0: ef3d 1f3e 2849 e8bc 3e44 81be d642 1d3e
000001b0: a404 3b3e fcbe 173e 8276 ebbd 9df7 9a3e
000001c0: d21a 49be 60ac 4d3e aad1 8a3e 39d2 a23e
000001d0: a25a abbe 1ad7 28bc f9b6 1d3e 392b 983e
000001e0: 3b28 8c3e 79d8 0f3e 38c7 e1bb 5ab2 93be
000001f0: 25a4 d8bc a0cc 9abe 798b d6bc 47d9 93be

bias f4 [16]
0.25485134 -0.16191494 -0.007253361 0.12248628 -0.12574545 -0.09372037 -0.32008618 0.3077321
-0.24573676 -0.088129826 0.33364528 -0.25392738 0.21460854 0.07760417 0.305817 -0.07154155
00000000: e07b 823e 08cd 25be 9aad edbb 16da fa3d
00000010: 6ac3 00be 77f0 bfbd 56e2 a3be 108f 9d3e
00000020: 6ba2 7bbe 697d b4bd 8ed3 aa3e c502 82be
00000030: 57c2 5b3e efee 9e3d 0c94 9c3e 6084 92bd

weight f4 [16, 8, 1, 1]
0.18921295 -0.23643081 0.048914656 -0.30487013 -0.29250377 -0.045544606 0.20496412 6.681851e-05
0.05246653 0.075812586 -0.175591 0.23636474 0.34511584 0.20977968 0.15138464 -0.026323508
0.002679572 -0.02924335 -0.07269925 0.048762094 -0.022602635 -0.12967369 -0.29858992 0.19840612
-0.22909261 0.060870767 -0.16044953 0.33521816 -0.27486107 0.3410261 -0.20049925 -0.060288437
0.030008385 -0.29491618 0.3205863 -0.28927448 -0.04935965 0.27509418 0.35299218 -0.31998625
-0.27207586 -0.2999172 0.12445337 0.1704881 0.24294811 0.1931693 -0.11186633 -0.060581926
-0.071610466 -0.14877959 -0.02682737 0.29456908 -0.055501983 0.29295474 -0.31766203 -0.09287284
0.24781112 0.26213095 -0.11739046 -0.24055651 0.2344279 0.30792418 -0.1666449 0.18151943
0.1057518 -0.3272728 0.27482292 0.18211448 -0.17838205 0.22079793 -0.05989219 -0.08844869
0.104873754 -0.3091299 0.0887221 0.26393336 -0.056104045 0.23226224 0.17709762 -0.31382304
0.24070619 -0.36293653 -0.31937853 -0.25205597 -0.3185404 0.30082372 -0.19042888 0.24812546
0.21713719 -0.06442568 0.2796305 0.10380201 0.3053383 -0.17444873 0.29233393 -0.09583137
-0.32181004 0.06212479 -0.23709324 -0.006409711 -0.06683585 0.045417726 -0.27522615 0.24345507
-0.037402216 -0.043802418 -0.1505288 -0.09891017 0.13985975 -0.3286714 -0.09093632 -0.03018639
-0.101676635 0.3442685 -0.2738248 -0.029410837 0.07977843 0.13837051 -0.11283715 -0.17441243
-0.20263432 -0.16661611 0.12685375 0.22327934 0.05116781 0.34641415 -0.020153651 0.030147996
00000000: 0ac1 413e eb1a 72be bc5a 483d f017 9cbe
00000010: 0ec3 95be fb8c 3abd 1de2 513e ea20 8c38
00000020: 25e7 563d a143 9b3d 21ce 33be 9909 723e
00000030: 06b3 b03e 7cd0 563e 9304 1b3e 66a4 d7bc
00000040: c29b 2f3b c08f efbc 58e3 94bd c3ba 473d
00000050: 2929 b9bc 2ec9 04be c7e0 98be f92a 4b3e
00000060: 4197 6abe a053 793d e24c 24be b7a1 ab3e
00000070: 97ba 8cbe f99a ae3e ad4f 4dbe 02f1 76bd
00000080: 25d4 f53c 41ff 96be e323 a43e c91b 94be
00000090: 582d 4abd 25d9 8c3e 64bb b43e 3dd5 a3be
000000a0: 874d 8bbe bf8e 99be 69e1 fe3d 6f94 2e3e
000000b0: 64c7 783e 2cce 453e 2d1a e5bd c124 78bd
000000c0: 82a8 92bd ad59 18be 13c5 dbbc c2d1 963e
000000d0: 0c56 63bd 2afe 953e 99a4 a2be 1e34 bebd
000000e0: 33c2 7d3e 0736 863e 696a f0bd 7254 76be
000000f0: de0d 703e 3da8 9d3e f6a4 2abe 3be0 393e
00000100: 6694 d83d 4d90 a7be 97b5 8c3e 387c 3a3e
00000110: c9a9 36be da18 623e 8351 75bd 9624 b5bd
00000120: 0dc8 d63d 4646 9ebe efb3 b53d 4622 873e
00000130: 5bcd 65bd 27d6 6d3e 1459 353e 6aad a0be
00000140: af7b 763e d1d2 b9be 9585 a3be 7b0d 81be
00000150: ba17 a3be 9105 9a3e caff 42be 9a14 7e3e
00000160: 3659 5e3e 9cf1 83bd bb2b 8f3e 2696 d43d
00000170: 4d55 9c3e b0a2 32be cbac 953e 3d43 c4bd
00000180: 49c4 a4be 9076 7e3d 92c8 72be 8e08 d2bb
00000190: 3ce1 88bd f007 3a3d 71ea 8cbe 494c 793e
000001a0: 1133 19bd 2a6a 33bd 3924 1abe 6a91 cabd
000001b0: 6537 0f3e 9e47 a8be d23c babd 7349 f7bc
000001c0: d73b d0bd f643 b03e c432 8cbe ffee f0bc
000001d0: e062 a33d 00b1 0d3e 2a17 e7bd 2c99 32be
000001e0: 5f7f 4fbe 6a9d 2abe f3e5 013e 57a3 643e
000001f0: 5695 513d 325d b13e 4519 a5bc eef8 f63c

bias f4 [16]
0.15077767 0.27819362 -0.29021034 0.34461677 -0.252353 0.31025842 0.0837365 -0.13131148
-0.30387062 -0.21803573 0.076236255 0.23482727 0.13180505 -0.15509363 0.26423776 -0.13706881
00000000: 7665 1a3e 656f 8e3e 7396 94be 9c71 b03e
00000010: 6a34 81be 31da 9e3e 0b7e ab3d 8476 06be
00000020: ee94 9bbe c244 5fbe c121 9c3d 8f76 703e
00000030: e7f7 063e ddd0 1ebe 2c4a 873e c45b 0cbe

weight f4 [16, 16, 3, 3]
0.052676104 0.030199036 0.049559217 0.059032578 0.057829335 0.07366673 -0.022197643 0.06594068
0.035764687 0.059269067 -0.00023095038 -0.05754728 -0.042048488 0.054613907 0.066044115 0.07873402
-0.034210123 -0.058839165 -0.010283798 0.051458113 -0.037676428 -0.014815608 -0.053948082 -0.031360332
-0.051930014 0.014932261 -0.07242801 0.0566898 0.06416931 0.06985916 -0.07670786 -0.0799212
0.05484334 -0.060216807 0.034169756 -0.05603407 0.060200993 0.000877825 0.024897173 -0.04570537
-0.046808187 0.016177068 -0.0092832465 0.0815334 0.04440858 -0.06458967 -0.013152669 0.011702128
0.04975071 0.024038767 0.0010461367 -0.07244474 0.047768954 0.0282293 0.0028055722 0.007943926
-0.034962755 0.06986833 0.01893471 -0.023650791 0.033769928 0.07249129 -0.03701459 -0.062486824
0.065728195 -0.05437058 0.0737045 0.025060704 0.009352927 0.043869045 -0.05513966 -0.050135948
0.02850565 0.076645985 -0.0031238592 0.07513652 0.07845426 -0.014342671 0.0035563204 -0.05392922
-0.06799943 -0.044408187 0.07197436 -0.02627139 -0.06433795 -0.017242646 -0.060397614 -0.014753151
-0.030349933 -0.060753807 -0.031316742 0.07427304 -0.003991051 -0.01788554 0.03693995 -0.017969929
0.066601425 0.08118967 0.046755638 0.028652107 0.051872477 -0.03554373 -0.07525181 -0.024355693
0.026322253 0.06696978 -0.026192026 -0.04111252 -0.05988505 -0.07260186 0.059466325 0.004057654
-0.062109217 -0.030427879 0.038556896 0.056177035 0.01762744 0.060418002 0.017366167 -0.04183011
-0.07621647 -0.04318381 0.039784588 0.05592092 0.0057350793 -0.006301956 -0.049760293 0.0552605
0.054531757 -0.07207706 -0.0015155114 -0.05556722 0.07415543 0.07055919 -0.05347406 0.022715528
0.051306307 -0.013698908 0.06335189 -0.002485221 -0.054911144 -0.013340779 -0.056402694 0.042595793
-0.01265692 0.025989316 0.019462787 -0.05929486 0.07751062 0.07214527 0.066721335 0.05040317
0.02929472 -0.028044403 -0.057001222 0.016975926 0.094651505 0.092579156 0.062288143 0.052648626
-0.0057703387 0.012021703 -0.060707588 -0.012139814 -0.0773612 -0.0047916 -0.07887294 -0.06369733
0.045139156 0.038724292 -0.05411497 0.008839436 0.042451188 -0.0060290876 -0.0530847 -0.076389045
-0.046097398 -0.030755367 0.073947415 0.04150371 0.03837388 -0.06795011 0.0553612 0.06250721
0.035231054 0.048415296 0.05679978 -0.058166403 0.016853707 0.051767074 -0.062132724 0.0794248
-0.048241705 -0.076848954 0.017285857 -0.018095061 -0.0009964067 0.055696618 0.080354616 -0.042790033
-0.040722445 -0.04105166 0.026778314 0.05745505 0.033918824 0.04025941 -0.07640477 -0.06682826
0.08286775 0.028921438 -0.023126388 -0.029489107 0.011941666 0.037298534 -0.05548377 -0.0563871
0.026874144 0.040991485 0.063361354 0.042538494 -0.012640127 -0.027330717 0.0651505 0.08441256
0.04987214 0.037535362 -0.015423081 0.026588032 -0.04680133 0.0042135497 -0.042263728 0.0069619296
0.005122208 -0.024383504 0.045733873 0.042161725 -0.0025224967 0.03233651 0.022307074 0.05530444
0.029337695 0.07102554 -0.0013201038 -0.004144512 0.023421962 -0.0020445832 -0.032721665 0.024819877
-0.027753595 0.051303778 -0.030753873 -0.017414853 -0.033633135 -0.048080772 0.049618203 -0.07467212
00000000: e6c2 573d f863 f73c 9bfe 4a3d 25cc 713d
00000010: 74de 6c3d 95de 963d d5d7 b5bc e80b 873d
00000020: fe7d 123d 1fc4 723d 452b 72b9 b2b6 6bbd
00000030: 093b 2cbd d5b2 5f3d 2342 873d 4d3f a13d
00000040: ea1f 0cbd 5601 71bd 607d 28bc bec5 523d
00000050: 9952 1abd 2abd 72bc aaf8 5cbd b173 00bd
00000060: 91b4 54bd 71a6 743c 2355 94bd 9033 683d
00000070: 336b 833d 5212 8f3d 0319 9dbd baad a3bd
00000080: 69a3 603d e6a5 76bd 96f5 0b3d fb83 65bd
00000090: 5195 763d d71d 663a 28f5 cb3c 8e35 3bbd
000000a0: f1b9 3fbd c585 843c c218 18bc fcfa a63d
000000b0: c5e5 353d 9747 84bd 4b7e 57bc 48ba 3f3c
000000c0: 67c7 4b3d f3ec c43c 861e 893a e85d 94bd
000000d0: 61a9 433d 2241 e73c b1dd 373b 3e27 023c
000000e0: 1b35 0fbd 2117 8f3d f71c 9b3c 4ebf c1bc
000000f0: 5652 0a3d 5076 943d 9c9c 17bd 2ff2 7fbd
00000100: 819c 863d afb3 5ebd 63f2 963d 1b4c cd3c
00000110: 053d 193c 07b0 333d 20da 61bd 5a5b 4dbd
00000120: ae84 e93c 92f8 9c3d a9b9 4cbb 2de1 993d
00000130: a1ac a03d 86fd 6abc 2811 693b e3e4 5cbd
00000140: 4943 8bbd 5ce5 35bd 4b67 933d 1937 d7bc
00000150: 9dc3 83bd 7340 8dbc 7d63 77bd 33b7 71bc
00000160: 6ca0 f8bc fcd8 78bd fc45 00bd 771c 983d
00000170: 5dc7 82bb b284 92bc 584e 173d ac35 93bc
00000180: 5466 883d c546 a63d d782 3f3d d3b7 ea3c
00000190: 3c78 543d 4d96 11bd 9f1d 9abd 9785 c7bc
000001a0: c4a1 d73c 7427 893d a990 d6bc 9a65 28bd
000001b0: 074a 75bd 49b0 94bd f692 733d 12f6 843b
000001c0: 3c66 7ebd e343 f9bc d6ed 1d3d e419 663d
000001d0: 6c67 903c de78 773d 7e43 8e3c 0d56 2bbd
000001e0: 6117 9cbd 82e1 30bd 2af5 223d 560d 653d
000001f0: 55ed bb3b a380 cebb 73d1 4bbd d658 623d
00000200: b15c 5f3d 239d 93bd 20a4 c6ba 749a 63bd
00000210: cdde 973d 5681 903d 9e07 5bbd ea15 ba3c
00000220: 9026 523d 6271 60bc a3be 813d 17df 22bb
00000230: 82ea 60bd 4893 5abc 8306 67bd ed78 2e3d
00000240: f85e 4fbc 8ce7 d43c 6c70 9f3c 2bdf 72bd
00000250: e3bd 9e3d e6c0 933d 32a5 883d 8e73 4e3d
00000260: 7bfb ef3c 60bd e5bc 1d7a 69bd 1911 8b3c
00000270: a6d8 c13d 249a bd3d da21 7f3d 16a6 573d
00000280: 1c15 bdbb adf6 443c 85a8 78bd 12e6 46bc
00000290: 8c6f 9ebd db02 9dbb 2388 a1bd bf73 82bd
000002a0: d6e3 383d 5d9d 1e3d a9a7 5dbd 48d3 103c
000002b0: 4ce1 2d3d a78f c5bb 586f 59bd dc71 9cbd
000002c0: a0d0 3cbd aef2 fbbc be71 973d cbff 293d
000002d0: ee2d 1d3d 6d29 8bbd 6dc2 623d c803 803d
000002e0: 704e 103d 1e4f 463d e3a6 683d e53f 6ebd
000002f0: c910 8a3c b609 543d e27e 7ebd 78a9 a23d
00000300: 1899 45bd fc62 9dbd 129b 8d3c 183c 94bc
00000310: dc99 82ba 2322 643d f690 a43d 9a44 2fbd
00000320: 94cc 26bd c925 28bd 325e db3c fd55 6b3d
00000330: 77ee 0a3d 0de7 243d 1b7a 9cbd 41dd 88bd
00000340: 91b6 a93d a7ec ec3c 8d73 bdbc 2493 f1bc
00000350: faa6 433c 59c6 183d f342 63bd 29f6 66bd
00000360: 2a27 dc3c b0e6 273d 99c3 813d d83c 2e3d
00000370: 8918 4fbc abe4 dfbc a06d 853d 7ee0 ac3d
00000380: bb46 4c3d aebe 193d 17b1 7cbc 25cf d93c
00000390: c0b2 3fbd d111 8a3b bb1c 2dbd e620 e43b
000003a0: 32d8 a73b eabf c7bc 7153 3b3d c6b1 2c3d
000003b0: 7950 25bb 4a73 043d 53bd b63c e986 623d
000003c0: 9b55 f03c d775 913d 5507 adba b0ce 87bb
000003d0: 6adf bf3c 6afe 05bb 2707 06bd 0e53 cb3c
000003e0: 825b e3bc e923 523d 8cef fbbc 98a9 8ebc
000003f0: e6c2 09bd 58f0 44bd 753c 4b3d b2ed 98bd

bias f4 [16]
-0.007543071 -0.05183634 0.096015655 -0.057788953 -0.00029599475 0.07433334 0.0133635 0.034540236
0.019674877 0.06792602 0.051784024 0.00844164 0.06324914 -0.02534413 0.04562948 0.09370446
00000000: de2b f7bb 5852 54bd dba3 c43d 1cb4 6cbd
00000010: be2f 9bb9 143c 983d 95f2 5a3c 107a 0d3d
00000020: 352d a13c cc1c 8b3d 7c1b 543d ce4e 0a3c
00000030: c488 813d 7e9e cfbc fae5 3a3d 20e8 bf3d

weight f4 [32, 16, 3, 3]
-0.04356712 -0.008744597 0.03388009 0.058207307 0.0734946 0.07864014 0.0095818145 0.062023044
-0.006083956 -0.053692836 0.06059842 -0.04267199 -0.012721136 0.03521901 0.042176068 0.038361635
-0.020553377 -0.006038114 -0.08920165 -0.055844773 0.047267944 -0.06216249 0.051893163 0.030880986
-0.04337102 -0.034497533 -0.0552761 0.07425078 0.05133369 -0.07221452 -0.03025397 -0.05123106
0.029886749 0.0705473 -0.024357745 0.06228758 -0.06496638 -0.041048784 0.03796929 0.054450713
0.0063420953 0.043083757 -0.025236655 0.02592786 0.043165416 -0.027394153 -0.015685165 0.06359483
0.0005432831 0.07262816 0.0571996 0.02753749 -0.024839705 -0.005410827 0.032475498 0.055208024
-0.0039404742 -0.04093818 -0.079404004 -0.07979037 0.018804792 -0.029014222 -0.031294618 -0.026485443
0.06634871 -0.007434948 -0.012015358 0.070074774 -0.04914518 0.04841062 -0.060639538 0.077924885
0.029775022 -0.005678854 0.066371694 -0.07476623 -0.037948452 0.026935225 -0.042150322 -0.041056152
0.056302235 0.075277746 -0.04091787 0.07221102 0.031241449 -0.06301864 0.050777186 0.012029772
0.07188144 0.057061296 0.02112937 0.05427428 0.038864467 0.025201365 -0.07871344 0.042163737
0.051588632 -0.033954926 -0.06465771 0.014144079 0.07261879 0.07488324 0.039867036 0.017598506
0.07750129 0.051443797 -0.044098526 0.0452072 0.052369867 0.005611629 -0.052963868 0.046410106
0.05661608 0.008747579 0.051147792 -0.02863822 0.034896858 -0.048258983 -0.051688753 -0.051375065
0.043768786 0.073631234 0.03409216 0.004655385 -0.061006296 -0.0432944 0.026149413 -0.061315626
0.025602072 -0.05953375 0.014628362 0.0061873044 -0.038515713 0.042098142 -0.017635169 -0.010870137
-0.035324365 -0.09406421 -0.099368826 0.017779293 -0.032174516 -0.124958836 -0.10904857 0.05056584
-0.0014405182 -0.030319717 0.05660992 0.08281656 0.005787822 0.08052154 -0.008795903 0.052778117
0.076654375 -0.050170965 -0.06484991 0.020930719 -0.014276551 -0.044814643 0.041729707 -0.023951545
-0.07420886 0.027597819 -0.039387822 -0.045076042 -0.06637966 -0.052662417 0.050881356 -0.0060970564
-0.06332059 0.06948623 0.022683494 -0.015975986 -0.020545017 -0.010057311 0.040576365 0.06918002
-0.04478168 -0.066979475 0.049353532 -0.06959078 0.042472355 0.06763671 -0.021156266 -0.036662042
0.07187241 -0.057549458 -0.03568154 0.00225321 0.034502022 -0.06959545 -0.053250376 -0.06731662
0.06673314 0.03182286 -0.052527506 -0.016423479 -0.02183485 0.06555261 0.043652467 -0.00777774
0.048772804 -0.019460643 -0.035905045 0.05351817 0.04182708 -0.07530832 -0.05974426 0.033440374
0.057821963 0.058389276 0.031145042 0.010570094 0.0044963383 0.016810168 -0.022021666 -0.05979517
0.015403781 -0.027974352 0.07544262 -0.003769091 0.07691426 0.0040539284 0.080122836 0.040373117
-0.016744813 0.0024513393 -0.02638588 -0.03417773 0.026199114 -0.0048026843 0.06994353 -0.0803308
-0.052000266 0.055358358 0.04593564 -0.052963354 0.009549381 -0.078535415 0.06584329 0.034631982
0.02373462 -0.00616947 0.03319756 -0.063452706 -0.005588417 -0.029767813 -0.023172501 0.03805734
-0.036315333 0.056348234 -0.02770686 -0.070512995 -0.028752051 0.06812992 -0.080511466 -0.009056591
00000000: 7073 32bd 8045 0fbc d9c5 0a3d c96a 6e3d
00000010: 5684 963d 150e a13d 0bfd 1c3c e00b 7e3d
00000020: ec5b c7bb 05ed 5bbd 0d36 783d d3c8 2ebd
00000030: 506c 50bc cf41 103d d0c0 2c3d 1721 1d3d
00000040: 8e5f a8bc 5fdb c5bb 5baf b6bd 7dbd 64bd
00000050: 089c 413d 189e 7ebd ed8d 543d 1ffa fc3c
00000060: d0a5 31bd 494d 0dbd 3169 62bd cb10 983d
00000070: 4643 523d 35e5 93bd 2cd7 f7bc a9d7 51bd
00000080: 0ed5 f43c 1a7b 903d e589 c7bc 4321 7f3d
00000090: 180d 85bd c522 28bd b085 1b3d b607 5f3d
000000a0: 5ad1 cf3b 9878 303d 1abd cebc aa66 d43c
000000b0: 38ce 303d b469 e0bc 2d7e 80bc 023e 823d
000000c0: 1d6b 0e3a 13be 943d 214a 6a3d 4d96 e13c
000000d0: a37c cbbc 4f4d b1bb 0705 053d cf21 623d
000000e0: 181f 81bb cbae 27bd 919e a2bd 2269 a3bd
000000f0: 820c 9a3c 3caf edbc c92e 00bd 00f8 d8bc
00000100: d5e1 873d dda0 f3bb 10dc 44bc 5d83 8f3d
00000110: 754c 49bd 374a 463d 2a61 78bd 1597 9f3d
00000120: bfea f33c ae15 babb e2ed 873d 0a1f 99bd
00000130: d66f 1bbd 43a7 dc3c d1a5 2cbd 7f2a 28bd
00000140: 2c9d 663d 382b 9a3d 7f99 27bd 5fe3 933d
00000150: 11ee ff3c eb0f 81bd bdfb 4f3d 8518 453c
00000160: 9436 933d 1bb9 693d 8017 ad3c b54e 5e3d
00000170: 5930 1f3d 1873 ce3c 8334 a1bd e2b3 2c3d
00000180: 9a4e 533d 5214 0bbd 436b 84bd 91bc 673c
00000190: 29b9 943d 625c 993d 9e4b 233d be2a 903c
000001a0: ffb8 9e3d bbb6 523d a8a0 34bd 2f2b 393d
000001b0: c981 563d c2e1 b73b a4f0 58bd 8618 3e3d
000001c0: 43e6 673d 0152 0f3c 5980 513d b39a eabc
000001d0: 02f0 0e3d 36ab 45bd 96b7 53bd a96e 52bd
000001e0: e646 333d f9cb 963d 39a4 0b3d 338c 983b
000001f0: bde1 79bd 7855 31bd 4b37 d63c 1826 7bbd
00000200: 70bb d13c a9d9 73bd ccab 6f3c dfbe ca3b
00000210: a7c2 1dbd 1a6f 2c3d a177 90bc a918 32bc
00000220: 48b0 10bd bda4 c0bd e281 cbbd e1a5 913c
00000230: 6dc9 03bd 6bea ffbd db54 dfbd 201e 4f3d
00000240: c5cf bcba 0e61 f8bc cedf 673d bb9b a93d
00000250: c5a7 bd3b 7ae8 a43d b11c 10bc de2d 583d
00000260: f8fc 9c3d 1280 4dbd 08d0 84bd e676 ab3c
00000270: 32e8 69bc 8f8f 37bd c5ec 2a3d 0836 c4bc
00000280: d1fa 97bd d214 e23c 2055 21bd a8a1 38bd
00000290: 0ff2 87bd 8cb4 57bd f868 503d d1c9 c7bb
000002a0: 3aae 81bd cc4e 8e3d bcd2 b93c 12e0 82bc
000002b0: 064e a8bc 6bc7 24bc 6733 263d 41ae 8d3d
000002c0: ff6c 37bd 892c 89bd ee26 4a3d 9c85 8ebd
000002d0: 7ef7 2d3d 1e85 8a3d e84f adbc f02a 16bd
000002e0: d831 933d fbb8 6bbd ce26 12bd 97aa 133b
000002f0: fe51 0d3d 0f88 8ebd 111d 5abd 4cdd 89bd
00000300: 62ab 883d b058 023d 1527 57bd 888a 86bc
00000310: 00df b2bc 7240 863d eecc 323d 69dc febb
00000320: fec5 473d ed6b 9fbc 2b11 13bd de35 5b3d
00000330: df52 2b3d 403b 9abd 66b6 74bd c6f8 083d
00000340: b9d6 6c3d 9829 6f3d e323 ff3c 302e 2d3c
00000350: 0556 933b 7ab5 893c c866 b4bc c8eb 74bd
00000360: 2460 7c3c 782a e5bc a981 9a3d db02 77bb
00000370: 3985 9d3d d1d6 843b 7117 a43d 485e 253d
00000380: 6b2c 89bc a6a6 203b 3327 d8bc f3fd 0bbd
00000390: 869f d63c d65f 9dbb 8e3e 8f3d 7984 a4bd
000003a0: 3bfe 54bd 72bf 623d 0227 3c3d 1af0 58bd
000003b0: 0275 1c3c 2dd7 a0bd d9d8 863d 44da 0d3d
000003c0: 1b6f c23c 4429 cabb 2afa 073d 7ef3 81bd
000003d0: 0a1f b7bb a1db f3bc 42d4 bdbc 03e2 1b3d
000003e0: 63bf 14bd 68cd 663d 7ff9 e2bc 1e69 90bd
000003f0: 6c89 ebbc b387 8b3d 32e3 a4bd 1962 14bc

bias f4 [32]
0.049871817 -0.018801082 -0.07138195 0.010129522 -0.060157977 0.062603675 -0.022458738 0.06594218
-0.06629237 -0.06288582 0.036013853 0.013373866 0.076832466 0.071703166 -0.061058745 0.02500273
-0.036515974 0.047559243 -0.057143632 0.05813851 0.07917035 0.06002566 -0.063949615 0.03422876
0.08397948 0.04088668 -0.018796517 -0.07511379 0.09019045 0.061294474 0.012593407 0.06681102
00000000: 6446 4c3d ba04 9abc b330 92bd 4bf6 253c
00000010: 3668 76bd 5b36 803d 63fb b7bc b20c 873d
00000020: 4bc4 87bd 48ca 80bd 4383 133d 0f1e 5b3c
00000030: 575a 9d3d 1cd9 923d bc18 7abd 86d2 cc3c
00000040: c691 15bd 7bcd 423d 710f 6abd a522 6e3d
00000050: 1124 a23d 77dd 753d 04f8 82bd 7533 0c3d
00000060: 6ffd ab3d cb78 273d 27fb 99bc 42d5 99bd
00000070: c5b5 b83d ea0f 7b3d 9454 4e3c 37d4 883d

weight f4 [32, 32, 3, 3]
0.051733196 0.030954313 -0.025516402 -0.032567196 -0.0438237 -0.043875866 0.0029007276 0.027909182
0.039491978 -0.055541053 0.045424663 -0.04721064 -0.044773947 0.04890204 -0.011614785 -0.03320587
-0.0066475854 -0.005230159 0.057174917 0.05515708 0.009654837 -0.0139628025 -0.0027445618 0.055385932
-0.053607665 0.008156566 -0.02553463 -0.012816268 0.018333616 -0.055611674 -0.0026841348 -0.041246854
0.022600848 0.039776936 -0.018029245 -0.032627422 0.024793077 -0.02486979 0.01841024 -0.011861947
-0.006850878 -0.008127654 -0.0031745282 -0.004198289 0.026277559 -0.042201106 0.02542853 0.008093581
-0.038844917 -0.031604886 0.011027062 0.0501233 -0.011467102 0.03337362 0.049785912 0.028388971
0.044798896 -0.0074557574 -0.017952682 0.025328437 -0.04340874 0.04381446 -0.05855366 -0.036162995
-0.0077577317 0.017202169 0.038569804 0.025258407 0.056241285 -0.034964357 0.007512954 0.006276608
0.007908475 0.049506795 -0.023743538 -0.04052414 -0.05920269 -0.030857416 -0.023251103 0.038783606
-0.012511002 -0.04505321 0.05026805 -0.047933385 0.029348774 -0.009620321 -0.012856808 -0.020593787
-0.030276384 0.048080247 -0.045877606 -0.03462304 -0.00064561266 0.00036220346 0.041562505 0.060571574
-0.00943537 0.034675464 0.008308719 -0.001203604 -0.01931736 -0.008950231 0.0019529704 0.007427976
-0.0036956856 0.037468527 -0.010032437 -0.053917296 0.032058097 -0.027544778 -0.015115822 -0.04646715
-0.0030726315 0.017072072 0.026411256 -0.017068118 -0.046201553 -0.0053466647 -0.04761635 0.02223939
0.037298035 0.014649868 -0.022660093 -0.033695143 -0.030921467 -0.053108774 0.003073051 0.056506444
0.044881705 -0.020699728 -0.050269537 0.037777156 0.026936265 -0.024851736 -0.041143313 -0.040142916
-0.020360185 -0.015488264 -0.055489495 -0.018613828 -0.015003964 0.053439476 -0.014755334 0.022121347
-0.032779165 0.010341915 0.023011018 0.04106743 -0.036405645 -0.03390266 0.045707043 0.037120268
0.036523733 0.013540435 0.022496007 -0.01185711 -0.021721425 -0.046089865 -0.034637284 -0.032439455
0.04775385 -0.033645865 -0.04038481 -0.025931284 -0.017089449 -0.010095552 -0.012441224 -0.009968241
-0.0019176042 0.062990226 -0.03525952 -0.047315322 -0.018337918 0.016900288 0.032926265 0.050067756
0.01752707 -0.01667618 0.027487503 -0.030532189 -0.05390845 0.044302963 0.038585026 0.01725503
-0.0085359905 0.029946683 -0.022218617 -0.0275149 -0.034993403 -0.005220388 -0.0054126703 0.01076265
-0.02022807 0.044400424 -0.023981905 -0.0121709565 -0.005384774 0.008230466 0.02386107 0.06090813
-0.00019530572 -0.022108106 0.057845157 0.017504022 0.03843285 -0.018724091 -0.040753704 -0.05144209
0.01992525 -0.06387089 0.0068092784 0.02217092 -0.057183914 -0.055775158 -0.047763843 -0.05127198
-0.030366713 0.059772894 -0.018753994 0.03151539 -0.03327426 -0.034273017 0.06056112 -0.034074184
0.020548364 -0.056529682 -0.034135167 -0.016637085 0.0030256626 0.010496896 -0.032912795 0.019784445
-0.03444052 0.0006722711 0.04515009 -0.019857036 -0.00034271943 0.028729383 -0.06858364 0.02287349
-0.015986802 0.02436223 0.008126617 0.024388537 0.0010581658 0.02642772 -0.043786738 -0.014988002
-0.022820309 0.024042925 0.032235198 -0.014355089 0.0021144908 0.013488184 0.031057063 -0.03992097
00000000: 30e6 533d e693 fd3c c607 d1bc 2e65 05bd
00000010: 7b80 33bd 2eb7 33bd 221a 3e3b cca1 e43c
00000020: 57c2 213d 047f 63bd 360f 3a3d f25f 41bd
00000030: e364 37bd 814d 483d f04b 3ebc e102 08bd
00000040: fdd3 d9bb c161 abbb 3f30 6a3d 64ec 613d
00000050: 522f 1e3c 3dc4 64bc 1bde 33bb 5cdc 623d
00000060: b693 5bbd 1ea3 053c 002e d1bc 53fb 51bc
00000070: 6130 963c 11c9 63bd 4fe8 2fbb 76f2 28bd
00000080: 6a25 b93c 24ed 223d 11b2 93bc 55a4 05bd
00000090: da1a cb3c bbbb cbbc 12d1 963c 9d58 42bc
000000a0: 547d e0bb da29 05bc bf0b 50bb cd91 89bb
000000b0: 0944 d73c 11db 2cbd 7e4f d03c f09a 043c
000000c0: d91b 1fbd 2074 01bd daaa 343c 174e 4d3d
000000d0: 83e0 3bbc c7b2 083d 50ec 4b3d fd8f e83c
000000e0: 0c7f 373d 6d4f f4bb 8111 93bc 957d cf3c
000000f0: 5dcd 31bd cb76 333d f6d5 6fbd a61f 14bd
00000100: 9234 febb 90eb 8c3c 5ffb 1d3d b8ea ce3c
00000110: 435d 663d c936 0fbd 3a2f f63b 01ac cd3b
00000120: 8c92 013c a3c7 4a3d cf81 c2bc a4fc 25bd
00000130: 857e 72bd b1c8 fcbc 1979 bebc 8fdb 1e3d
00000140: f2fa 4cbc b789 38bd dfe5 4d3d cc55 44bd
00000150: d76c f03c 8d9e 1dbc 5ca5 52bc 4db4 a8bc
00000160: 2e06 f8bc cbef 443d 28ea 3bbd e4d0 0dbd
00000170: 553e 29ba 20e6 bd39 723d 2a3d e619 783d
00000180: cf96 1abc dc07 0e3d 4b21 083c 40c2 9dba
00000190: 713f 9ebc fda3 12bc d0fa ff3a 6166 f33b
000001a0: 5133 72bb 9978 193d 175f 24bc 62d8 5cbd
000001b0: 5a4f 033d 96a5 e1bc 5aa8 77bc 5754 3ebd
000001c0: 345e 49bb bbda 8b3c 6b5c d83c 70d2 8bbc
000001d0: d73d 3dbd 1333 afbb 5d09 43bd 622f b63c
000001e0: d3c5 183d 0006 703c a9a1 b9bc eb03 0abd
000001f0: 044f fdbc 9688 59bd 3e65 493b 4d73 673d
00000200: e1d5 373d 7a92 a9bc 6ee7 4dbd 38bc 1a3d
00000210: 71a9 dc3c de95 cbbc e485 28bd e66c 24bd
00000220: 67ca a6bc 7dc2 7dbc f448 63bd 077c 98bc
00000230: 30d3 75bc 5ae3 5a3d 5bc0 71bc d437 b53c
00000240: 7243 06bd 2371 293c 9a81 bc3c 5236 283d
00000250: 161e 15bd 84dd 0abd 4f37 3b3d 6c0b 183d
00000260: e999 153d b3d8 5d3c 8c49 b83c 5344 42bc
00000270: 21f1 b1bc bac8 3cbd d3df 0dbd 3cdf 04bd
00000280: 8b99 433d 3fd0 09bd 8b6a 25bd d86d d4bc
00000290: 2cff 8bbc d067 25bc 47d6 4bbc d551 23bc
000002a0: 1f58 fbba 0501 813d 496c 10bd b6cd 41bd
000002b0: 6739 96bc 7972 8a3c b1dd 063d d913 4d3d
000002c0: ee94 8f3c 7c9c 88bc 792d e13c a41e fabc
000002d0: 1bcf 5cbd 0677 353d 550b 1e3d 6c5a 8d3c
000002e0: 8ada 0bbc bf52 f53c d103 b6bc ed66 e1bc
000002f0: 3e55 0fbd ca0f abbb c55c b1bb d355 303c
00000300: 56b5 a5bc 38dd 353d b375 c4bc b168 47bc
00000310: c272 b0bb 14d9 063c 4a78 c33c ce7a 793d
00000320: fbca 4cb9 0f1c b5bc 0bef 6c3d 9864 8f3c
00000330: c46b 1d3d 4463 99bc 5bed 26bd f1b4 52bd
00000340: 473a a33c bece 82bd 5e20 df3b ca9f b53c
00000350: ae39 6abd 7e74 64bd 05a4 43bd 9102 52bd
00000360: 9dc3 f8bc 6cd4 743d faa1 99bc 4816 013d
00000370: 974a 08bd dd61 0cbd f00e 783d 5f91 0bbd
00000380: 0b55 a83c ab8b 67bd 51d1 0bbd 7f4a 88bc
00000390: 324a 463b 2cfb 2b3c 91cf 06bd fd12 a23c
000003a0: 8111 0dbd 5a3b 303a 4def 383d 39ab a2bc
000003b0: 06af b3b9 e259 eb3c 9475 8cbd 2f61 bb3c
000003c0: c1f6 82bc 4d93 c73c 8125 053c 78ca c73c
000003d0: 27b2 8a3a f27e d83c b959 33bd 3d90 75bc
000003e0: a8f1 babc abf5 c43c 0e09 043d 9b31 6bbc
000003f0: 4593 0a3b 8bfd 5c3c 626b fe3c 2c84 23bd

bias f4 [32]
0.042575393 -0.027831683 -0.0072909 0.057274964 -0.012163722 0.04669929 0.044841673 0.0021947448
-0.019850768 -0.036529638 -0.0072406246 0.064787254 -0.03182599 0.00072153506 0.011295306 -0.029052788
-0.014364524 -0.056017328 0.025788305 0.047997378 -0.017574314 0.023176085 0.056484677 0.06752835
0.007890548 0.057639077 -0.034525797 -0.06026653 0.05394165 -0.004412025 0.01680399 0.02192397
00000000: 8963 2e3d 45ff e3bc 81e8 eebb 2799 6a3d
00000010: 594a 47bc c147 3f3d e7ab 373d b5d5 0f3b
00000020: 149e a2bc 1aa0 15bd c342 edbb 2eaf 843d
00000030: f85b 02bd 6625 3d3a f20f 393c 1d00 eebc
00000040: 2e59 6bbc 6d72 65bd ff41 d33c e698 443d
00000050: 02f8 8fbc c6db bd3c 7a5c 673d 4e4c 8a3d
00000060: 5b47 013c f416 6c3d ec6a 0dbd 09da 76bd
00000070: ebf1 5c3d c092 90bb 85a8 893c e699 b33c
