runs/80.pt (torch, 156610 bytes, 38 tensors)

weight f4 [8, 1, 3, 3]
000000 cd 88 8f be 11 1d a3 bd e8 d8 93 be 9b b1 83 3d
       -0.28034058 -0.07964528 -0.28876424 0.0643036
000010 c8 e0 c4 3d 6b 10 74 3e 78 c6 5f 3e 99 aa 96 be
       0.09613186 0.23834388 0.21853054 -0.2942703
000020 0d b8 7d 3e 79 a4 58 3e 41 1a 9a be b2 25 96 3e
       0.24777241 0.21156491 -0.30098155 0.29325634
000030 10 28 41 be 45 5c b1 3d f3 4d 22 be 38 1d 51 3e
       -0.18862939 0.08660177 -0.15850048 0.20421302
000040 21 cc 7d be c3 b8 25 3e af 2a a0 3c 45 ca 8f bd
       -0.247849 0.16183762 0.019551603 -0.07021002
000050 ad c4 fe 3d cb 39 37 3d f0 85 5e be fe 36 2c bd
       0.12439857 0.04473285 -0.2173078 -0.042044632
000060 3b 04 59 ba fb 3b 4f be 03 49 8d be b0 53 a4 3d
       -0.00082785235 -0.20237724 -0.27594766 0.080237746
000070 1b 4e 4d be 36 10 28 3e 8d 45 75 3e 70 6c ac 3c
       -0.20049326 0.16412434 0.23952313 0.0210478
000080 66 15 2b be e1 00 ec 3d d8 9b b4 3d 78 a9 a5 3d
       -0.16707382 0.11523605 0.08818787 0.08088964
000090 e4 b9 a0 3e ab 71 d6 bd a3 ce b7 3d 2c 92 82 be
       0.31391823 -0.10470899 0.0897496 -0.25502145
0000a0 db 76 54 3e e0 dc 03 3e 84 1e 87 bd 0b 87 a3 3e
       0.20748465 0.12877226 -0.06597617 0.31938967
0000b0 ef 5a 61 be a9 0a 5e 3c f6 bf 4a be 63 c2 81 3e
       -0.22007345 0.013552346 -0.1979979 0.25343618
0000c0 5a 0c 70 3b 3a 1f 40 3e 73 53 a3 bd df dd 8d 3d
       0.0036628456 0.18761912 -0.07974901 0.06927084
0000d0 50 5b 52 3b b9 bf bc bd 22 16 b5 3d f3 0a a2 3e
       0.0032097884 -0.09216256 0.08842112 0.3164898
0000e0 bb 46 a7 3e a4 fb 0b be bd af 9a be 33 f7 8d 3e
       0.3267115 -0.13670212 -0.30212203 0.2772766
0000f0 fa 0f a9 3e c1 f6 36 be f8 f9 7a bd da 87 75 be
       0.33020002 -0.17867567 -0.061273545 -0.23977605
000100 40 2f 90 3e be ab a9 be f3 3e 4b be 78 63 e9 bd
       0.2816105 -0.3313884 -0.19848232 -0.11395925
000110 da 28 a0 3d f3 fa 54 3e 1b 6c 86 bd 36 3a 5d 3e
       0.07820292 0.20798855 -0.06563588 0.21604237

bias f4 [8]
000000 ef 70 8c be 24 47 ae bc b8 31 88 3e a6 60 bd 3d
       -0.27429911 -0.021274157 0.26600432 0.0924695
000010 ee d0 10 3d 0b bc 8b bd cd 4c b1 bd 1b fd 94 bd
       0.0353555 -0.06822976 -0.08657227 -0.072748385

weight f4 [8, 8, 3, 3]
000000 df 9e cf bc 89 95 42 3c 09 82 bb bc 6d b4 8c 3c
       -0.02534431 0.011876472 -0.022889154 0.017175877
000010 dd ec 78 bd cb e4 19 bb 04 2d 45 bd fc dd cc 3d
       -0.060772765 -0.0023482319 -0.048138633 0.10003278
000020 99 53 27 bd ed 3e a4 3b ef 45 5d ba be 18 8d 3d
       -0.04085121 0.005012384 -0.0008440902 0.06889485
000030 e3 8a 93 bd 79 c6 ec 3d 8f 27 ed bd f8 62 0f 3c
       -0.07204225 0.11561293 -0.11579811 0.008751623
000040 89 1a 17 bc 24 12 59 3d cf 7f 18 3d 9c be 9e bd
       -0.009222635 0.052995816 0.037231263 -0.077511996
000050 22 5e cd 3d a1 b5 a7 3d 0d d8 65 3d 4b 33 3f bd
       0.1002772 0.0818894 0.056114245 -0.046679776
000060 67 52 f3 bc 30 00 ee 3d d7 2c 79 3d a5 9d b6 3d
       -0.029702378 0.116211295 0.06083378 0.08916787
000070 c0 4c bf 3d 82 b2 9a 3d 6e ae d2 bc 71 eb f2 3c
       0.09340811 0.07553579 -0.02571794 0.029653283
000080 51 14 94 3d 94 65 11 bd 30 67 48 3d 37 04 96 bd
       0.072304375 -0.035497263 0.048926532 -0.07325023
000090 c6 60 f2 3c 78 72 02 3d a4 7d c7 3d d1 30 b5 3d
       0.02958716 0.031847447 0.09740761 0.088472016
0000a0 20 c9 db bc 63 e0 80 3d e0 82 ef bd 60 ca bd bd
       -0.026829302 0.06292798 -0.11694884 -0.092671156
0000b0 e5 24 4d bd 40 7f 69 3d a2 4f 95 3b 66 66 31 bd
       -0.050084013 0.05700612 0.004556612 -0.043310545
0000c0 3e 38 d3 bd 28 72 50 3d 27 4c 81 3d a8 d6 fa bc
       -0.10313462 0.050890118 0.06313353 -0.030619934
0000d0 d5 8f 8a 3c 82 2a 8e 3d 3a f3 70 3d 9b 4d 8d 3c
       0.016914288 0.069417015 0.05882571 0.01724892
0000e0 8a 08 6b bd 80 e1 a3 3c 79 f7 ef 3d 60 90 d7 3b
       -0.05738119 0.020004988 0.117171235 0.00657849
0000f0 8d f8 43 bd 00 f4 e8 3d 28 64 df bd cb 92 31 3d
       -0.04784446 0.11374664 -0.10907775 0.043352883
000100 96 bb e9 3d be b3 be 3d dc 15 5d 3a 64 ea 97 bd
       0.11412732 0.09311627 0.0008433738 -0.07417753
000110 c3 95 22 3d a0 7a 92 3d 1d b4 b0 bd ca 1c e9 bc
       0.039693605 0.07152295 -0.08628104 -0.02845611
000120 f8 5e be 3c 60 9a f8 3c b6 21 79 3d c7 91 04 bc
       0.023238644 0.03034705 0.060823165 -0.008091397
000130 67 e6 d0 3c 43 34 65 3d 6b 74 c2 3b 6a 14 54 3d
       0.02550049 0.055958044 0.0059342883 0.05177728
000140 d4 94 90 bc 34 3a 32 bd c0 b8 c1 3d e0 e3 04 3c
       -0.017649092 -0.043512538 0.094590664 0.00811097
000150 11 c3 1c 3c ea 3d 29 bd ad 99 13 3d 3a 9a d8 bd
       0.009567992 -0.04131881 0.03603523 -0.105762914
000160 26 27 ea 3d 1a a4 24 3c c8 79 cc bd d6 5d 11 3d
       0.11433248 0.0100488905 -0.099841654 0.03548988
000170 18 59 aa bc 94 20 b1 3d c0 83 bb 3d e3 2f 35 bd
       -0.020794436 0.08648792 0.09155989 -0.04423512
000180 d3 ce 5b bd fe 6f af bd 21 bf 0e bd 32 75 ca bd
       -0.05366404 -0.08566283 -0.034850243 -0.098856345
000190 c9 cb 5f 3c 49 fc c3 bc 1a e7 9c 3c c7 39 55 bd
       0.013659426 -0.02392401 0.019153167 -0.052057054
0001a0 0b 6a bb 3d ca 24 dc bd b0 c0 3a 3d 73 e6 b8 bd
       0.091510855 -0.107492045 0.045593917 -0.0902833
0001b0 d7 4e c5 3c 53 5c 7c 3d 4b cd ff 3b 58 9e ef 3c
       0.024085445 0.061611485 0.0078064553 0.029250309
0001c0 e5 4c e7 bd 9a 8f 1a bc 2b 12 e6 3c 45 24 ec 3d
       -0.11293963 -0.009433651 0.028084835 0.11530355
0001d0 6e a8 cb 3d 47 e2 e9 3c 2b cc 04 3d 3a e9 55 bd
       0.09944235 0.02855028 0.032421272 -0.052224375
0001e0 cb 58 a6 bd 3d 8e 7a bd cd 25 64 bd e1 0b 2e bd
       -0.08122405 -0.061170805 -0.055700112 -0.042491797
0001f0 69 fb d9 3a f2 11 22 bd 81 ed c0 3d c6 a1 26 3d
       0.0016630712 -0.039567895 0.094203 0.040681623
000200 0e 04 83 3d 6f 96 e9 bd b0 33 ff bc cf 6f 70 3d
       0.06397258 -0.11405646 -0.031152576 0.05870038
000210 82 aa b5 bd 59 65 71 3c 83 63 cc bc f0 73 e3 bc
       -0.088704124 0.014733636 -0.024949795 -0.027765244
000220 84 3b d6 bd 79 dc a4 bc 0b 74 37 3c a1 7b c5 bd
       -0.104605705 -0.02012466 0.0111971 -0.09642721
000230 6c 16 3b bd 97 33 81 bd 0e c0 89 bd 2e cb b2 bd
       -0.04567568 -0.06308668 -0.06726085 -0.0873016
000240 31 20 c3 3d f8 35 5e bd f1 39 e0 bd 64 a6 38 3d
       0.095276244 -0.054250687 -0.109485514 0.045080557
000250 9d 1c 3c 3c a5 18 52 3d a3 b6 99 bd 35 c2 6c 3b
       0.011481431 0.051293034 -0.07505538 0.0036126499
000260 76 a7 24 3d 53 7e 7e 3d 26 82 1a bc 5b 6b ce 3d
       0.040198766 0.06213219 -0.009430444 0.1007907
000270 8f 85 d9 ba a4 b5 e7 3b 66 4d 88 bd 4c 81 96 bd
       -0.001659559 0.007071214 -0.066553876 -0.0734888
000280 6e 34 af bd fa be b2 3d e6 45 eb bd 3d 68 4f 3c
       -0.08554922 0.08727832 -0.114879414 0.01265913
000290 91 34 c9 38 27 51 db 3c 1b 1a a4 3d df 5b ae 3d
       9.594218e-05 0.026772095 0.08012792 0.08513617
0002a0 31 33 1c 3d 2c 84 bb bd b5 02 94 bc 15 89 95 bd
       0.038134757 -0.09156069 -0.018067697 -0.07301537
0002b0 06 24 e3 3d c6 e9 e0 3d 46 25 82 3d 4f 4e 6b bd
       0.11090855 0.10982089 0.063547656 -0.057447728
0002c0 d0 97 53 3d 92 18 ba bd a3 0f c1 bd f6 a6 9a 3a
       0.05165845 -0.09086718 -0.094268106 0.0011799026
0002d0 6f 84 f1 bc 54 cc 0e bc 9b 94 6f 3d c0 85 0e bd
       -0.029482095 -0.008715708 0.05849133 -0.034795523
0002e0 9b 93 b6 bd 39 1c 4b 3d d2 35 e5 3d 0c 9c ea bc
       -0.08914872 0.049587462 0.11191906 -0.028638862
0002f0 fa 56 84 3d 8f 65 ec bd 59 fa 7c 3c 76 c8 f7 3c
       0.06461902 -0.11542808 0.015440547 0.030246954
000300 f0 f5 a9 3c 7b 8c 86 bd 87 c7 ed bd c4 90 7d bd
       0.020747155 -0.06569763 -0.116103224 -0.061905637
000310 37 cf f7 3b 6d 6a 8c bd 40 1d ad bc 9c 1b de bd
       0.0075625437 -0.068562366 -0.021132112 -0.1084511
000320 a0 2c 49 bb 05 db 94 bd 46 62 05 bd ce 70 b4 3c
       -0.0030696765 -0.07268337 -0.032564424 0.022026446
000330 f3 2e 54 bd e7 74 be 3d aa d7 9c 3c 42 8e 50 3d
       -0.051802587 0.09299641 0.019145805 0.050916918
000340 fa 13 d0 3c 1a 61 49 3d 04 b2 9d bd 08 06 9b 3d
       0.02540015 0.04916487 -0.076999694 0.0756951
000350 0d 80 7b 3d b5 0b ff ba 47 6e e2 3d b6 4e 92 bb
       0.061401416 -0.0019458445 0.1105619 -0.0044649495
000360 58 1d 9b bd b7 0b 84 3d 85 a1 a5 3d 5e b4 0c bd
       -0.07573956 0.06447547 0.08087448 -0.0343517
000370 5b f0 3b 3d cd c2 83 3c 65 85 d2 3d c8 df 11 3c
       0.045883518 0.0160841 0.10279349 0.008903451
000380 e2 e0 45 3c 5b 8e ae 3d f1 ee f0 3c 4f 5a c8 3c
       0.012077542 0.08523246 0.029410811 0.024457125
000390 e4 0c 4e bd d1 b5 87 bd b4 68 24 bd 74 92 98 3d
       -0.050305262 -0.066264756 -0.040138915 0.07449809
0003a0 37 ed 75 3d 6d 9c 97 3c 49 1d 6e bd 02 4f df 3d
       0.06004068 0.018507207 -0.058133397 0.109037414
0003b0 c4 93 87 3d e0 83 68 39 5d 84 92 bd 53 f0 52 bd
       0.06619981 0.00022174371 -0.071541525 -0.051498722
0003c0 a2 f7 ea 3d 87 ce 94 bd 8f 7d b5 bd 06 8f 42 3d
       0.114730135 -0.072659545 -0.08861839 0.04749968
0003d0 49 4a ee 3d 62 38 7c bb ac e4 16 3c 81 62 2e bc
       0.116352625 -0.0038485755 0.009209793 -0.010643602
0003e0 b4 b6 d9 3d 84 1e 5b 3d 3d 0c 2a 3d ea fa a4 3d
       0.10630551 0.0534959 0.041515578 0.080556706
0003f0 ea 28 99 bd d6 4c df 3d e4 14 d7 3d 42 4c d4 3d
       -0.07478507 0.10903327 0.105020314 0.103661075

bias f4 [8]
000000 45 14 c1 bd 97 e6 c8 bd 49 16 dc 3d 48 f5 16 3d
       -0.09427694 -0.098096065 0.10746438 0.036855012
000010 a3 70 bc 3d 6d 06 e4 3d 1d 96 96 3c db ed 27 bd
       0.09201171 0.11134038 0.018382126 -0.04099832

weight f4 [16, 8, 3, 3]
000000 a8 0b a9 3d 54 48 e1 3d b0 a9 ea 3d 26 f5 df 3c
       0.082541764 0.110001236 0.114581466 0.027338576
000010 a7 36 14 3d 08 37 ec bc 0a ec 86 bb 01 b3 6b 3d
       0.036184933 -0.028834835 -0.0041174935 0.05754376
000020 32 89 e1 3b 7f 43 76 bd f1 c6 d8 ba b8 ee 13 bd
       0.00688281 -0.060122963 -0.0016538781 -0.03611633
000030 78 50 5c 3d e9 25 fe bc 58 83 1f 3d f8 10 bc bd
       0.05378768 -0.031023936 0.03894362 -0.09182924
000040 70 d2 10 3d 55 36 32 3d 17 24 51 bd 94 6d 96 3d
       0.03535694 0.043508846 -0.05105981 0.07345119
000050 c0 be a6 3d 3f a9 35 bc b2 f6 dc bd 30 be c1 3d
       0.081418514 -0.011087715 -0.10789241 0.094601035
000060 1c c5 b0 bd ae bc 97 3d ca 06 a2 3d 96 08 c7 3d
       -0.08631346 0.07409035 0.07911451 0.097184345
000070 ee 07 b0 bd 5e aa 8a bd 41 c9 b0 3d 0b b2 38 bd
       -0.085952625 -0.06770776 0.08632136 -0.04509167
000080 5c 3b c1 3c 4b 10 34 3d 50 be e5 3d d4 4b 2b bd
       0.023587875 0.04396085 0.1121794 -0.041820362
000090 70 bf 3f bd 8b 7a 60 bd 64 e2 6f bc e1 a6 c5 3c
       -0.04681343 -0.054804366 -0.014641378 0.024127426
0000a0 08 be 36 bc a7 ec 2b bd 78 6a 41 3d 9c 34 d3 bd
       -0.011153705 -0.041973736 0.047220677 -0.10312769
0000b0 e7 20 81 3d 02 41 13 3b 66 ed 32 bd 41 10 82 bd
       0.06305104 0.0022469168 -0.043683432 -0.063507564
0000c0 2b d3 f6 3c 11 63 70 bd d6 3f 3d 3c e4 5a 7a 3d
       0.03012999 -0.058688227 0.011550864 0.061121836
0000d0 4a d6 a6 bd aa 6c a4 bd 8b 49 e8 3d b8 5b d3 3c
       -0.08146341 -0.080285385 0.11342152 0.02580057
0000e0 92 5e de 3d a3 e7 99 bd 10 30 39 3d 2a 64 a6 3d
       0.108578816 -0.07514884 0.04521185 0.081245735
0000f0 d4 c4 28 3d bf ef d1 bc 40 4b a9 bd 54 59 92 bd
       0.041203335 -0.025627015 -0.08266306 -0.07145944
000100 d2 8c e7 bd 7a 95 96 3b 38 33 d4 3d 16 ae 27 bd
       -0.11306156 0.0045954557 0.10361332 -0.040937506
000110 97 c7 67 bd 5c 81 71 3c f6 5b bd 3d b9 7d 83 3d
       -0.056586828 0.014740314 0.09246056 0.06420464
000120 5b 21 5a bd 04 61 71 bd 36 28 37 bc 11 e0 58 bd
       -0.053254467 -0.058930412 -0.011179021 -0.05294806
000130 94 42 af bd cf c4 f1 3c 60 fa 5c bd 70 66 c1 bd
       -0.08557621 0.029512791 -0.053949714 -0.094433665
000140 1d 34 df 3d f2 e9 7f 3d e5 5a b1 3d c3 e4 8d 3d
       0.10898612 0.062478967 0.08659915 0.069283985
000150 5f f7 0f 39 cd ec c7 bd 98 4b 10 bd 8c 06 51 3d
       0.00013729696 -0.09761963 -0.03522834 0.051031634
000160 7f c7 66 3d 18 59 00 3d b3 ec 2e 3c 3c 13 7c 3c
       0.056342598 0.031334966 0.010676551 0.015385445
000170 b7 86 80 3c 89 9c e9 3d c8 5e 84 3d a8 1e b0 bd
       0.015689237 0.1140681 0.064633906 -0.08599597
000180 68 f3 b6 3c 43 ab 4d bd 87 3f d5 3d 7a 68 c9 3d
       0.022332862 -0.050212156 0.104125075 0.098343804
000190 1b 61 fe 3d 1b ec 82 3c 65 04 c4 3d 7d 78 c9 bd
       0.12420865 0.015981724 0.09571151 -0.098374344
0001a0 4a 34 fc 3d df 3a 94 3d f2 2b b2 bd 31 bd 0b bd
       0.12314661 0.07237791 -0.08699788 -0.034115974
0001b0 2f 2e 52 bd d1 38 14 3c 64 c1 08 3c ed 37 85 bd
       -0.051313575 0.009046749 0.008346889 -0.065048076
0001c0 82 de ca bc bd de 99 3d 4c d8 92 3b 59 e6 a2 bc
       -0.024764303 0.07513187 0.004481351 -0.019885229
0001d0 3f 8d 6f bc 70 e4 95 bd 14 13 40 3d 36 e5 8a bd
       -0.014621078 -0.073189616 0.046893194 -0.06782
0001e0 32 31 3f 3d dd 86 b0 3d 10 60 c5 bc 07 98 6b 3c
       0.046677776 0.08619473 -0.024093658 0.014379508
0001f0 74 ef f6 bc a6 91 d6 3d e8 a3 04 bd e3 e4 e8 3d
       -0.030143477 0.10476999 -0.032382876 0.11371782
000200 ea c8 01 3e 20 73 2e bd 02 70 d7 3d b3 74 17 3d
       0.12674299 -0.04259026 0.10519411 0.036976527
000210 4f e4 5f 3d 33 9d b2 bd 15 e6 e6 3c a2 86 07 3d
       0.05466109 -0.087213896 0.028185884 0.03308738
000220 a7 bc cd bd 45 29 4b bd 51 84 00 b9 12 27 be bd
       -0.10045748 -0.049599905 -0.00012256323 -0.09284796
000230 6e ce 7d 3d 46 91 ae bd 96 cb c4 3d ec 78 d3 bc
       0.061964445 -0.085238025 0.096091434 -0.025814496
000240 f1 a4 38 bd ee 7b ce 3d ce c6 bf bd 24 ed b9 bd
       -0.045079175 0.100822315 -0.09364091 -0.09078434
000250 39 cd 99 3a e1 6b ad bd 99 3f 43 bc bb 37 52 3d
       0.0011734135 -0.08467842 -0.011917018 0.05132268
000260 7c f7 a1 3c d1 1b 82 bd 16 f0 c8 bd a8 69 54 3d
       0.01977133 -0.06352962 -0.09811418 0.051858574
000270 a7 e3 1c 3c 39 78 ed bc 01 52 d1 bd 44 71 df 3c
       0.009575761 -0.02898799 -0.10220719 0.027275689
000280 70 a8 a5 3c a6 b4 d1 3d 76 d7 b0 3d 94 74 53 3d
       0.020221919 0.10239534 0.08634846 0.05162485
000290 cb 37 de 3d 0f 21 ad 3d 5f 64 27 3d 6e 2f 11 3d
       0.108504854 0.08453571 0.040867206 0.035445623
0002a0 88 a0 69 bd 85 e5 3d bd 49 19 aa 3d 30 1d ea bd
       -0.05703786 -0.046361465 0.08305604 -0.11431348
0002b0 fc 5d a6 bd e2 e4 9b 3c a0 4f 93 3d 8f 1c 9e bd
       -0.08123395 0.019030038 0.07192922 -0.07720291
0002c0 f4 9e be 3d bf 32 79 bc 90 0b a8 3d af 87 c9 bd
       0.09307662 -0.015209853 0.0820533 -0.09840333
0002d0 63 83 8d 3d f7 d9 c7 3c b6 2b df 3d ee fb e8 bd
       0.06909826 0.024395926 0.10897009 -0.11376177
0002e0 f7 e8 c0 bc 03 e4 ab 3d 61 cf 49 bd 58 d1 52 bd
       -0.023548586 0.08393099 -0.049270038 -0.051469177
0002f0 ba f6 da bb 06 ac 44 3d 98 80 36 bc d2 36 cd bd
       -0.006682244 0.048015617 -0.011139058 -0.10020222
000300 eb ce f9 3c be 1e cc 3d b3 e8 7e 3d 2a 59 c7 3d
       0.030494174 0.09966801 0.062233638 0.097338036
000310 62 d9 8c bd f8 4d 46 3d c6 bb af bd bb c6 56 3d
       -0.068774 0.0484142 -0.08580737 0.052435618
000320 75 64 e5 bd 5a 92 10 3c ec 37 ef bd d2 28 75 3c
       -0.11200801 0.008823955 -0.11680588 0.014963346
000330 66 42 e9 bd 39 2f 88 bd bf f7 a4 3d b8 56 d3 3c
       -0.113896176 -0.06649632 0.08055066 0.025798187
000340 c5 f2 1d 3b fe 0f a6 3d 83 7f c6 3c 22 45 a4 3d
       0.0024101 0.08108519 0.024230724 0.080209985
000350 ff 8c 22 3c 9c 7f e2 3d 97 67 81 3d 55 26 7d bd
       0.009921311 0.11059496 0.06318586 -0.061804134
000360 fc 24 25 3d 18 88 1f bd 04 c3 87 bd ab df 4a bd
       0.040318474 -0.03894815 -0.06628993 -0.049529713
000370 1c d1 4b bc 39 67 6d bd c6 a1 65 3d c9 f6 c2 bc
       -0.012439992 -0.05795977 0.056062482 -0.023799317
000380 46 59 4e 3d 99 42 eb 3d a2 96 e1 bd 56 8a d6 3c
       0.050378107 0.11487312 -0.11015059 0.02618901
000390 26 ca df 3b ed a5 ea 3d 93 4d a1 3d 03 1a ab bd
       0.006829518 0.11457429 0.07876124 -0.08354571
0003a0 99 78 b7 bd 6b 80 92 bd 8c ae d0 3d 04 e0 21 bd
       -0.08958549 -0.071534 0.10189542 -0.03952028
0003b0 bb 1e 97 bc a0 2e c7 3d 34 52 69 bd 23 02 c4 bd
       -0.01844727 0.0972569 -0.05696316 -0.0957072
0003c0 f2 e2 ba bd 26 23 19 3d dc 07 85 bd 8c b1 a7 bd
       -0.09125318 0.037387036 -0.0649564 -0.08188161
0003d0 db 91 22 3d cd 62 42 3c ee 67 22 bd 11 b0 ce bd
       0.03968988 0.011864376 -0.039649896 -0.10092176
0003e0 26 20 a0 3d ba 22 a9 bd 76 d5 dc bd 0a 24 8f bd
       0.07818632 -0.08258577 -0.10782902 -0.06989296
0003f0 52 3f 8e bc 82 96 c7 bd b5 7e 9c 3c 74 d7 2c 3d
       -0.017364178 -0.09745504 0.019103387 0.04219766

bias f4 [16]
000000 6a b8 14 3d 69 f3 1a bd 85 47 80 3d 8f d6 81 3d
       0.036308683 -0.03782979 0.06263641 0.06339752
000010 7c cc 72 3b e5 7b 22 3d 65 dc 53 bd c7 6e b8 3d
       0.0037048152 0.039668936 -0.051723856 0.09005504
000020 a5 dd a6 bd 99 f5 09 bc 6e e4 9c bb d0 79 48 3c
       -0.08147744 -0.008420371 -0.004787973 0.012236074
000030 78 d7 6d 3c 8e 21 cc 3c 4f d6 eb bd b2 83 21 bd
       0.014516704 0.024918344 -0.115154855 -0.039432235

weight f4 [8, 16, 1, 1]
000000 9d b8 c0 bd 69 fa 62 be 6c 1b 76 3e ee b0 30 3e
       -0.09410212 -0.22165836 0.24033898 0.17254993
000010 13 38 2f be 10 b7 71 3e 9d e9 e7 3d 4f 32 c0 3d
       -0.17111234 0.23604989 0.11323855 0.093845956
000020 b1 45 61 be cf 16 6a be 44 71 34 3e 8b e5 23 be
       -0.21999241 -0.22860263 0.17621332 -0.16005532
000030 42 5e 90 3d 73 a6 a5 3d 1d b3 03 3c 34 59 37 be
       0.07049228 0.08088388 0.008038309 -0.17905122
000040 45 03 02 bd a9 f5 2e 3e d3 68 41 3e ad f0 a1 3c
       -0.0317414 0.170859 0.18887644 0.019768083
000050 c3 94 95 bd d3 35 01 be 4a 38 35 be 90 e3 80 bd
       -0.07303765 -0.12618189 -0.17697254 -0.06293404
000060 4c 55 8a bc 1f 5e 3d 3e 56 84 3b bd 1b 64 8f 3d
       -0.016886376 0.18492936 -0.045780502 0.070015155
000070 3b 75 b8 3d 81 ec 36 be 99 93 b5 3d c4 77 67 be
       0.09006735 -0.17863657 0.08866043 -0.2260428
000080 fc cc 05 bb 26 2e 5c be 80 b1 37 3e ba 52 2d be
       -0.002041637 -0.21501979 0.17938805 -0.16926089
000090 3d 74 fc bd c7 f5 5d 3e 45 f0 ff 3c d1 6f 15 be
       -0.12326858 0.21675788 0.0312425 -0.14593436
0000a0 72 50 6c be 24 42 ab 3c d7 d8 13 3e 8c fd 5d be
       -0.23077562 0.020905562 0.14438187 -0.21678752
0000b0 38 ff 4d be f8 2a 3f 3e c2 fd 2e bd 36 81 40 3e
       -0.2011689 0.18668735 -0.04272247 0.1879929
0000c0 28 27 23 be eb 0c 02 3e ec f7 19 bd d8 6b 6d 3d
       -0.15932906 0.1270024 -0.037589952 0.057964176
0000d0 00 d1 25 be 2b a2 12 be 33 ab cd 3d e0 2c 0f 3e
       -0.16193008 -0.14319675 0.10042419 0.13981962
0000e0 80 ca 17 b9 8b 87 07 3e ac f7 07 3e 56 5e 55 be
       -0.0001447592 0.132353 0.13278073 -0.20836768
0000f0 04 69 0a bd 5e b1 29 3d 77 da f0 bc 6c 03 21 3e
       -0.033791557 0.041428916 -0.029401047 0.15723962
000100 65 f0 2e 3e d3 71 36 be 01 82 26 3e ac d3 5e be
       0.1708389 -0.17816858 0.1626053 -0.21760434
000110 5c 10 9b 3c 8f 16 fc 3d be 99 37 be dc 4c ef 3d
       0.0189287 0.1230899 -0.17929742 0.11684582
000120 20 a6 49 be 78 58 4e 3e ee 4a 5f 3e 7c 9f a6 bc
       -0.19692278 0.20150936 0.21805927 -0.02033972
000130 ad 68 a3 3d 24 ce 39 3d d4 9a 48 3d f0 ca 6c bd
       0.0797895 0.045362607 0.04897578 -0.057810724
000140 da 53 10 be 82 39 0a 3d e4 67 9f 3d d2 1c d5 bd
       -0.14094487 0.03374625 0.077834874 -0.10405888
000150 9b 8e b1 bc 7c 49 10 3e 44 2b 36 be cf 4e c1 bd
       -0.021674445 0.14090532 -0.17789942 -0.0943886
000160 31 9f 48 bc 3d 89 be bd ae 2e 47 be dd 3e 90 bd
       -0.012244985 -0.0930352 -0.194514 -0.0704324
000170 8d 24 44 3e fa b8 82 bd 73 2c 09 be 8e ac 1b 3e
       0.19154568 -0.06382938 -0.13395862 0.15202543
000180 3f e1 4e be d5 4e 47 3e 25 22 08 be 26 52 6d be
       -0.20203112 0.19463666 -0.13294275 -0.23175868
000190 4a 09 f3 3d c8 42 18 be aa ba a6 3d 29 78 1b 3c
       0.11867006 -0.14869225 0.08141072 0.009489098
0001a0 36 75 a1 bc 82 37 23 3e cc 4c 3a be 2b fa 6e bd
       -0.01970921 0.15939143 -0.18193358 -0.058344048
0001b0 3c d7 45 3e 0a b7 f9 3d 7e 50 55 3d 1f 3a 0f 3c
       0.19320387 0.12193115 0.052078716 0.0087418845
0001c0 c6 a9 71 3d 57 80 69 3e b7 23 6e 3e b8 6c 0d be
       0.0589998 0.22802864 0.23255812 -0.13811004
0001d0 c4 50 55 be 63 cb 77 3a fa 4e 98 bb 1c 92 b2 3d
       -0.20831591 0.0009452609 -0.0046480866 0.087192744
0001e0 02 79 39 be 16 b8 00 be 92 1a 03 bd 02 e0 1b be
       -0.18112567 -0.12570223 -0.03200776 -0.15222171
0001f0 56 73 50 3e 56 80 c0 3c a0 1f 71 be 33 8d 46 be
       0.20356497 0.023498695 -0.2354722 -0.193898

bias f4 [8]
000000 f8 73 5a 3e 94 11 23 3e 30 15 1b 3c 9b e1 4e 3e
       0.21333301 0.15924674 0.009465501 0.20203249
000010 bf 2c 52 3e 24 64 8a 3d 51 b2 52 bd ae 0a 77 3e
       0.20524882 0.067573816 -0.051439587 0.24125168

weight f4 [8]
000000 c2 f4 7d 3f 79 17 7a 3f fe 94 84 3f 2f 66 7d 3f
       0.99201596 0.97692066 1.0357969 0.98984045
000010 3f e9 7d 3f 42 91 82 3f d5 1c 7d 3f 36 78 7c 3f
       0.9918403 1.0200579 0.9887212 0.9862093

bias f4 [8]
000000 27 6a e9 3a 76 9a da bb fe f3 22 3b 13 a0 45 bb
       0.0017808125 -0.006671245 0.002486467 -0.0030155226
000010 0e b1 58 bb 7c d2 21 3c d9 f1 45 bb 1e bf 6d bb
       -0.0033064517 0.009876844 -0.0030203967 -0.0036277245

running_mean f4 [8]
000000 dc 2e 0d c0 df f6 d5 3e fb ac 67 c0 39 28 86 3f
       -2.205985 0.4178991 -3.619933 1.0481025
000010 cb 3b d5 40 42 7b d4 c0 38 8e fc bf 54 b1 b6 bf
       6.663549 -6.640046 -1.9730902 -1.4272866

running_var f4 [8]
000000 ee b1 f5 3c 3d 69 97 3b 54 be 2f 3d 62 74 bc 3c
       0.02999207 0.0046206997 0.04290612 0.023004714
000010 d7 39 d6 3d e0 67 fd 3d c7 a7 56 3c b2 cb b3 3c
       0.10460251 0.12373328 0.013101525 0.021947715

weight f4 [16, 8, 1, 1]
000000 a8 3c 9a 3e bf f9 b4 3e 83 98 3a be e3 3b 0c be
       0.30124402 0.3534679 -0.18222241 -0.1369472
000010 ba 1d 9d 3e 63 b4 a8 3e 54 70 a2 be 2f cb 02 3e
       0.30686742 0.32950124 -0.31726325 0.12772821
000020 99 0f e0 b9 ce d6 72 be ad 98 ba bd e2 cc a9 3e
       -0.0004273623 -0.23714754 -0.09111152 0.33164126
000030 1f 55 c5 3d 9c 50 50 3e bb 4c 78 3e 8a 34 ab 3e
       0.09635376 0.2034325 0.2424802 0.33438522
000040 47 a4 6b bd 3d 54 4e 3e 46 2c 9e 3d 61 dd 1d 3e
       -0.057529714 0.20149322 0.07723288 0.1541648
000050 05 55 05 3e 33 4b 68 be b1 5e 89 3e c4 1c 82 3d
       0.13020714 -0.22684936 0.26830056 0.06353143
000060 0e ab 86 3e 56 48 69 3d d1 6b 37 bb dd 55 1e 3e
       0.2630238 0.05695375 -0.0027987848 0.15462442
000070 95 01 34 3d 4a 7a d9 3d 62 f4 14 be 6b 63 8a bb
       0.04394682 0.10619028 -0.1454635 -0.0042232773
000080 e5 73 87 bd 46 f3 e1 bd 2b 0a 0b 3d ab 93 08 bd
       -0.06613902 -0.11032729 0.033945244 -0.033343952
000090 4f f2 b5 bd 92 dc a2 3e 98 1d f2 bd 12 49 2e 3e
       -0.08884107 0.31808907 -0.11822051 0.17020062
0000a0 85 a5 04 be 1e c4 17 be 57 df 62 3d ed ee 4a 3e
       -0.12953766 -0.14820907 0.055388775 0.19817705
0000b0 7e 4c 65 3e 16 18 6c be 01 de 80 be a4 ba b3 3e
       0.2239246 -0.23056063 -0.25169376 0.35103333
0000c0 39 7d 6b 3e a2 62 1e ba 06 06 3d 3e d3 80 6a 3c
       0.22996987 -0.0006041919 0.18459329 0.014312941
0000d0 60 78 14 be 6b 23 20 be 3e 77 13 3d a2 25 61 3e
       -0.14499044 -0.15638511 0.03600239 0.21987012
0000e0 03 a8 91 3d 79 1d db bd f2 3e 9f 3e b2 51 ac 3e
       0.07112124 -0.10698981 0.3110271 0.3365608
0000f0 08 9c 08 3d 12 2c d4 3d 11 ed 32 be cf 12 08 3e
       0.033351928 0.10359968 -0.17473246 0.13288425
000100 f1 c6 8e bd 77 0b 5c be 0e db 4b bc 90 a4 c8 bd
       -0.06971539 -0.21488748 -0.012442363 -0.09797013
000110 01 c6 bb 3d 5f 9b 87 3e 45 15 9a 3e 18 c4 6f 3e
       0.091686256 0.26485726 0.30094352 0.23414648
000120 a5 2f a8 3e 74 08 42 3d 9b d3 9a be ef 24 b6 bc
       0.3284885 0.047371343 -0.30239567 -0.022234408
000130 03 ea 44 be 75 8d 44 3e 0a 33 2b be eb 9e 96 be
       -0.19229893 0.19194587 -0.16718689 -0.2941812
000140 5e 9c 79 be d2 a5 7d be 3b 4b 75 3e 64 ef 00 be
       -0.24376056 -0.24770287 0.2395448 -0.1259132
000150 70 45 0b be 92 a8 39 be aa 7e 2e 3e 42 dc c6 bd
       -0.13600707 -0.1813071 0.17040506 -0.097099796
000160 a5 0a 13 3d 0a b5 32 3d c7 f7 a2 bd d3 63 72 3e
       0.035898823 0.043629684 -0.07957416 0.23670892
000170 e1 7d fb 3d b0 e2 a1 3d 57 70 cc bd db a2 41 3c
       0.12279869 0.07904565 -0.099823646 0.011818613
000180 e4 4d 9c 3e 0c 0a 82 be bb b7 b3 3e a1 4e 0c 3d
       0.30528176 -0.2539829 0.35101113 0.034254674
000190 dc fb 93 be 0a 73 a2 3e 68 f2 89 bc 54 e5 4d 3e
       -0.2890309 0.31728393 -0.016839221 0.20107013
0001a0 1f 22 1f 3e 88 20 e8 bc be 2d 81 be 56 27 1d 3e
       0.1554036 -0.028335825 -0.2523021 0.15347037
0001b0 24 e4 3a 3e 6c a4 17 3e 79 4d eb bd 6d dc 9a 3e
       0.18251091 0.14808816 -0.11489386 0.30246297
0001c0 d2 f7 48 be 70 88 4d 3e 58 b9 8a 3e c9 b5 a2 3e
       -0.19625786 0.20071578 0.2709453 0.31779316
0001d0 a2 3c ab be ba b9 28 bc 79 9b 1d 3e a9 10 98 3e
       -0.33444697 -0.010298187 0.1539134 0.2970021
0001e0 db 0f 8c 3e 79 bf 0f 3e d8 9f e1 bb b6 98 93 be
       0.27355847 0.14037885 -0.00688551 -0.28827447
0001f0 55 7e d8 bc c0 b1 9a be f9 65 d6 bc 57 bf 93 be
       -0.026427427 -0.30213737 -0.026171671 -0.28856918

bias f4 [16]
000000 10 65 82 3e f8 af 25 be 0a 84 ed bb 56 ae fa 3d
       0.2546773 -0.16180408 -0.0072484063 0.12240283
000010 ea ac 00 be 07 cf bf bd ad c5 a3 be 9a 73 9d 3e
       -0.12565961 -0.09365659 -0.31986752 0.3075226
000020 77 76 7b be d5 5d b4 bd e8 b5 aa 3e c7 eb 81 be
       -0.2455691 -0.088069595 0.33341908 -0.25375196
000030 e7 9b 5b 3e 1f d3 9e 3d dc 78 9c 3e c0 6a 92 bd
       0.21446191 0.07755112 0.30560958 -0.07149267

weight f4 [16, 8, 1, 1]
000000 4a 9f 41 3e bb f0 71 be bc 37 48 3d c0 fc 9b be
       0.1890842 -0.23626988 0.048881277 -0.3046627
000010 ce a8 95 be 7c 6c 3a bd 8d bd 51 3e a4 00 8c 38
       -0.2923035 -0.045513615 0.20482464 6.6758395e-05
000020 a5 c1 56 3d 71 28 9b 3d e1 ae 33 be 69 df 71 3e
       0.052430768 0.07576073 -0.1754718 0.2362038
000030 16 94 b0 3e fc aa 56 3e 63 e9 1a 3e e6 7e d7 bc
       0.3448798 0.20963663 0.15128092 -0.026305627
000040 22 7d 2f 3b e0 65 ef bc 68 c9 94 bd cc 97 47 3d
       0.0026777466 -0.029223382 -0.07264978 0.04872875
000050 f9 08 b9 bc 0e b2 04 be 37 c6 98 be a9 07 4b 3e
       -0.022587286 -0.12958547 -0.29838726 0.19827141
000060 51 6e 6a be 30 28 79 3d 22 30 24 be b7 83 ab 3e
       -0.22893645 0.06082934 -0.16033986 0.33498928
000070 e7 a1 8c be 80 7c ae 3e bd 2b 4d be e2 c5 76 bd
       -0.27467272 0.3407936 -0.20036216 -0.06024731
000080 65 a9 f5 3c 01 e5 96 be 23 07 a4 3e d9 01 94 be
       0.029988 -0.2947159 0.32036695 -0.2890766
000090 08 0a 4a bd 75 c0 8c 3e d4 9b b4 3e b8 b8 a3 be
       -0.049325973 0.27490583 0.35275137 -0.31976867
0000a0 27 35 8b be df 73 99 be 09 b5 fe 3d 08 76 2e 3e
       -0.2718899 -0.29971215 0.124368735 0.17037213
0000b0 f4 9b 78 3e cc ab 45 3e 2d f2 e4 bd 51 f9 77 bd
       0.24278241 0.19303817 -0.11179004 -0.0605405
0000c0 e2 8e 92 bd 1d 3f 18 be a3 9e db bc 82 b7 96 3e
       -0.07156159 -0.14867826 -0.026809042 0.2943688
0000d0 5c 2e 63 bd ea e3 95 3e 29 88 a2 be fe 12 be bd
       -0.055464134 0.29275447 -0.31744507 -0.09280966
0000e0 cc 95 7d 3e 90 1e 86 3e 99 40 f0 bd 52 29 76 be
       0.24764174 0.26195192 -0.11731071 -0.240392
0000f0 0f e4 6f 3e bd 8c 9d 3e 46 87 2a be b7 bf 39 3e
       0.23426841 0.30771437 -0.16653165 0.1813954
000100 96 6e d8 3d ed 72 a7 be e7 9c 8c 3e b8 5b 3a 3e
       0.105679676 -0.3270487 0.27463457 0.1819905
000110 e9 89 36 be 7a f1 61 3e b3 26 75 bd 06 05 b5 bd
       -0.17826046 0.22064772 -0.05985136 -0.08838849
000120 8d a2 d6 3d c6 2a 9e be 5f 94 b5 3d d6 0a 87 3e
       0.10480223 -0.3089201 0.0886619 0.26375455
000130 5b a5 65 bd 97 ac 6d 3e 84 39 35 3e 4a 91 a0 be
       -0.0560659 0.23210369 0.17697722 -0.31360847
000140 87 50 76 3e 59 b2 b9 be 2a 69 a3 be 00 f7 80 be
       0.24054156 -0.3626888 -0.3191617 -0.25188446
000150 41 fb a2 be b1 ea 99 3e c6 dd 42 be 30 e8 7d 3e
       -0.31832317 0.30061868 -0.19029912 0.24795604
000160 76 32 5e 3e 7c da 83 bd bb 12 8f 3e f6 70 d4 3d
       0.21698937 -0.06438157 0.27943978 0.10373108
000170 1d 3a 9c 3e 70 83 32 be 8b 92 95 3e dd 20 c4 bd
       0.30513087 -0.17432952 0.29213366 -0.09576581
000180 89 a7 a4 be 30 4a 7e 3d 12 9e 72 be fe e3 d1 bb
       -0.3215907 0.06208247 -0.23693112 -0.0064053526
000190 7c c9 88 bd 70 e7 39 3d c1 d1 8c be d9 20 79 3e
       -0.06679055 0.04538673 -0.2750378 0.24328937
0001a0 31 18 19 bd ea 4a 33 bd 59 09 1a be 1a 6e ca bd
       -0.037376586 -0.043772615 -0.15042628 -0.098842815
0001b0 65 1e 0f 3e 3e 2a a8 be 52 1c ba bd 53 1e f7 bc
       0.13976438 -0.32844728 -0.09087433 -0.030165827
0001c0 97 17 d0 bd 56 25 b0 3e 64 1a 8c be d6 c4 f0 bc
       -0.101607494 0.34403485 -0.27363884 -0.029390734
0001d0 70 46 a3 3d 50 98 0d 3e da ee e6 bd ec 79 32 be
       0.07972419 0.13827634 -0.11276026 -0.17429322
0001e0 1f 5b 4f be ba 7f 2a be 23 cf 01 3e 57 7b 64 3e
       -0.20249604 -0.16650286 0.12676673 0.22312675
0001f0 c6 70 51 3d 42 3e b1 3e 85 fc a4 bc ce cd f6 3c
       0.05113294 0.3461781 -0.020139942 0.030127432

bias f4 [16]
000000 96 4a 1a 3e 65 56 8e 3e 83 7c 94 be b4 52 b0 3e
       0.15067515 0.2780029 -0.29001245 0.34438097
000010 ea 1d 81 be 61 be 9e 3e 0b 60 ab 3d fa 5e 06 be
       -0.25218135 0.31004623 0.08367928 -0.13122168
000020 be 79 9b be b2 1d 5f be c8 06 9c 3d af 4c 70 3e
       -0.3036632 -0.21788672 0.07618481 0.23466752
000030 77 e0 06 3e 0d b5 1e be 6c 32 87 3e 64 43 0c be
       0.13171564 -0.15498753 0.26405656 -0.13697582

weight f4 [16, 16, 3, 3]
000000 4f 9d 57 3d d8 38 f7 3c 4b db 4a 3d f5 a1 71 3d
       0.052640256 0.030178472 0.04952554 0.058992345
000010 34 b5 6c 3d 55 c4 96 3d f5 b7 b5 bc 78 f4 86 3d
       0.057789996 0.07361666 -0.022182444 0.065895975
000020 5e 64 12 3d 9f 99 72 3d 8c fd 71 b9 72 8d 6b bd
       0.03574025 0.059228536 -0.00023078005 -0.05750794
000030 09 1d 2c bd c5 8b 5f 3d 63 2a 87 3d 2d 23 a1 3d
       -0.042019878 0.054576654 0.065998815 0.078680374
000040 8a 07 0c bd 26 d7 70 bd 00 60 28 bc de a0 52 3d
       -0.034186877 -0.05879893 -0.010276794 0.051422946
000050 b9 37 1a bd aa 92 72 bc 3a d2 5c bd 31 5d 00 bd
       -0.037650798 -0.014805475 -0.053911425 -0.031338874
000060 61 8f 54 bd a1 7b 74 3c 33 3b 94 bd f0 0a 68 3d
       -0.05189455 0.014922054 -0.07237854 0.056651056
000070 63 54 83 3d 52 f9 8e 3d 83 fd 9c bd 4a 91 a3 bd
       0.0641258 0.06981148 -0.07665541 -0.07986696
000080 59 7c 60 3d c6 7a 76 bd 36 dd 0b 3d fb 5b 65 bd
       0.054806087 -0.06017568 0.03414651 -0.055995923
000090 31 6a 76 3d c0 f5 65 3a 88 d1 cb 3c be 14 3b bd
       0.060159866 0.00087722763 0.024880186 -0.04567408
0000a0 81 98 3f bd a5 6e 84 3c 32 fe 17 bc ec dd a6 3d
       -0.0467763 0.01616604 -0.0092769135 0.08147797
0000b0 e5 c5 35 3d 77 30 84 bd cb 58 57 bc d8 98 3f 3c
       0.04437818 -0.064545564 -0.0131437285 0.011694156
0000c0 c7 a3 4b 3d 93 ca c4 3c 76 06 89 3a f8 43 94 bd
       0.049716737 0.024022376 0.0010454196 -0.072395265
0000d0 51 87 43 3d d2 18 e7 3c 81 bd 37 3b 6e 10 02 3c
       0.04773647 0.028210077 0.0028036537 0.007938487
0000e0 1b 1c 0f bd 21 fe 8e 3d c7 01 9b 3c 8e 9d c1 bc
       -0.034938913 0.06982065 0.018921746 -0.023634698
0000f0 46 3a 0a 3d 60 5c 94 3d 0c 82 17 bd 7f c5 7f bd
       0.03374698 0.07244182 -0.036989257 -0.062444206
000100 11 85 86 3d ef 8c 5e bd 23 d8 96 3d 2b 28 cd 3c
       0.06568349 -0.054333623 0.073654436 0.025043568
000110 28 22 19 3c c7 90 33 3d c0 b2 61 bd 6a 37 4d bd
       0.009346522 0.043839242 -0.05510211 -0.050101675
000120 0e 5c e9 3c 12 dd 9c 3d 09 96 4c bb 4d c6 99 3d
       0.028486278 0.07659353 -0.0031217358 0.07508526
000130 81 90 a0 3d 96 d4 6a bc a9 e9 68 3b 73 be 5c bd
       0.07840062 -0.014332911 0.0035539663 -0.053892564
000140 e9 2a 8b bd 7c c5 35 bd ab 4d 93 3d 99 11 d7 bc
       -0.06795294 -0.04437779 0.07192548 -0.026253508
000150 7d ac 83 bd c3 27 8d bc 5d 38 77 bd 03 8d 71 bc
       -0.06429384 -0.017230874 -0.060356487 -0.0147430925
000160 fc 74 f8 bc 8c ad 78 bd 7c 2f 00 bd e7 01 98 3d
       -0.03032922 -0.060712382 -0.031295285 0.07422238
000170 75 b0 82 bb 10 6b 92 bc fe 33 17 3d 0b 1c 93 bc
       -0.0039883205 -0.017873317 0.036914818 -0.017957708
000180 94 4e 88 3d b5 29 a6 3d 67 61 3f 3d e3 8e ea 3c
       0.066556126 0.08113424 0.04672375 0.028632587
000190 0c 53 54 3d fd 7c 11 bd bf 02 9a bd e7 62 c7 bc
       0.051837012 -0.03551959 -0.07520055 -0.024339153
0001a0 44 7c d7 3c 64 0f 89 3d 29 6b d6 bc 3a 48 28 bd
       0.026304372 0.06692389 -0.026174145 -0.041084506
0001b0 37 1f 75 bd 59 96 94 bd 76 68 73 3d f2 de 84 3b
       -0.059844222 -0.07255239 0.059425794 0.0040548975
0001c0 dc 39 7e bd 73 18 f9 bc 56 d2 1d 3d c5 f1 65 3d
       -0.062066898 -0.030407166 0.03853067 0.056138773
0001d0 1c 4e 90 3c be 4d 77 3d ce 2a 8e 3c 0d 38 2b bd
       0.01761537 0.060376875 0.017354395 -0.0418015
0001e0 31 fc 9b bd 92 c2 30 bd ba d8 22 3d 56 e5 64 3d
       -0.07616461 -0.043154307 0.039757468 0.055882774
0001f0 85 cc bb 3b b3 5c ce bb d3 ad 4b bd 76 31 62 3d
       0.0057311677 -0.0062976717 -0.04972632 0.05522295
000200 a1 35 5f 3d 83 83 93 bd 70 81 c6 ba c4 72 63 bd
       0.054494504 -0.07202818 -0.0015144777 -0.05552937
000210 3d c4 97 3d 06 68 90 3d 7e e1 5a bd 6a f5 b9 3c
       0.07410476 0.07051091 -0.053437702 0.02270003
000220 00 02 52 3d 52 4a 60 bc 23 a8 81 3d a7 c2 22 bb
       0.05127144 -0.013689594 0.06330898 -0.002483526
000230 22 c3 60 bd 28 6d 5a bc 33 de 66 bd 9d 5a 2e 3d
       -0.054873593 -0.013331689 -0.05636425 0.042566884
000240 b8 3a 4f bc 5c c2 d4 3c 9c 54 9f 3c ab b4 72 bd
       -0.012648277 0.025971584 0.019449525 -0.05925433
000250 13 a2 9e 3d 15 a7 93 3d 72 8d 88 3d 9e 4f 4e 3d
       0.07745757 0.07209603 0.066676036 0.050368898
000260 9b d1 ef 3c 60 95 e5 bc 7d 51 69 bd b9 f8 8a 3c
       0.029274752 -0.02802533 -0.05696248 0.016964303
000270 e6 b6 c1 3d 04 79 bd 3d 6d f5 7e 3d 96 80 57 3d
       0.09458713 0.092515975 0.062245775 0.052612863
000280 fc f3 bc bb 4d d4 44 3c 15 7d 78 bd 62 c3 46 bc
       -0.00576639 0.012013507 -0.060666163 -0.012131544
000290 0a 54 9e bd 5b e7 9c bb 03 6c a1 bd ef 5c 82 bd
       -0.07730873 -0.004788322 -0.0788193 -0.06365382
0002a0 a6 c3 38 3d 8d 81 1e 3d e9 80 5d bd f8 b9 10 3c
       0.04510846 0.038697768 -0.054078016 0.008833401
0002b0 fc c2 2d 3d 47 6d c5 bb 88 49 59 bd ac 56 9c bd
       0.04242228 -0.0060249898 -0.05304864 -0.07633719
0002c0 d0 af 3c bd 9e c6 fb bc 2e 57 97 3d 1b e2 29 3d
       -0.046066105 -0.030734356 0.07389675 0.041475397
0002d0 6e 12 1d 3d 0d 11 8b bd bd 9a 62 3d d3 da 7f 3d
       0.038347654 -0.067903616 0.05532335 0.062464546
0002e0 20 35 10 3d 6e 2c 46 3d 43 7e 68 3d 55 16 6e bd
       0.035206914 0.048382215 0.056761038 -0.058126766
0002f0 b9 f8 89 3c d6 e4 53 3d 82 52 7e bd 08 8d a2 3d
       0.016842233 0.051731907 -0.062090404 0.07937056
000300 b8 76 45 bd 7c 47 9d bd 62 82 8d 3c 28 22 94 bc
       -0.048208922 -0.0767965 0.017274085 -0.018082693
000310 0c 83 82 ba 73 fa 63 3d 36 74 a4 3d fa 25 2f bd
       -0.0009957268 0.05565877 0.08029978 -0.042760827
000320 84 af 26 bd 69 08 28 bd ee 37 db 3c 0d 2d 6b 3d
       -0.04069473 -0.041023646 0.026760068 0.05741601
000330 17 d6 0a 3d 4d ca 24 3d eb 5e 9c bd 81 c5 88 bd
       0.03389558 0.04023199 -0.07635292 -0.06678296
000340 e1 98 a9 3d 67 c3 ec 3c 6d 52 bd bc f4 68 f1 bc
       0.082811125 0.028901769 -0.023110593 -0.02946899
000350 ea 84 43 3c c9 ab 18 3d 43 1b 63 bd d9 cd 66 bd
       0.011933545 0.037273202 -0.05544592 -0.056348655
000360 ba 00 dc 3c 50 c9 27 3d 19 ad 81 3d 88 1e 2e 3d
       0.026855815 0.04096347 0.06331844 0.042509586
000370 49 f4 4e bc 9b bd df bc 4d 56 85 3d 2e c2 ac 3d
       -0.012631484 -0.02731209 0.06510601 0.08435474
000380 1b 23 4c 3d ce a3 19 3d 07 85 7c bc 05 a9 d9 3c
       0.049838167 0.037509732 -0.015412576 0.026569853
000390 50 91 3f bd c1 f9 89 3b 6b fe 2c bd 36 f9 e3 3b
       -0.04676944 0.004210681 -0.04223482 0.0069571985
0003a0 d2 ba a7 3b ea 9c c7 bc a1 32 3b 3d c6 93 2c 3d
       0.0051187063 -0.024366815 0.04570258 0.042133115
0003b0 b7 33 25 bb 2a 5c 04 3d 73 9d b6 3c 67 5f 62 3d
       -0.0025207826 0.032314457 0.022291875 0.055266764
0003c0 bb 2b f0 3c 87 5c 91 3d f8 e8 ac ba f0 b6 87 bb
       0.029317727 0.07097726 -0.0013191989 -0.004141681
0003d0 fa bd bf 3c fa e6 05 bb b7 ef 05 bd 70 2f cb 3c
       0.023406018 -0.0020431862 -0.032699313 0.024802893
0003e0 d2 33 e3 bc 59 ff 51 3d 7c c3 fb bc 98 90 8e bc
       -0.02773467 0.05126891 -0.030732863 -0.017402932
0003f0 d6 aa 09 bd f8 cd 44 bd 09 19 4b 3d 22 d3 98 bd
       -0.033610187 -0.04804799 0.049584422 -0.074621454

bias f4 [16]
000000 be 00 f7 bb 28 2d 54 bd 40 84 c4 3d dc 8a 6c bd
       -0.0075379303 -0.051800877 0.09595537 -0.057749614
000010 8e 14 9b b9 84 21 98 3d 75 cc 5a 3c 74 61 0d 3d
       -0.00029579218 0.074282676 0.01335441 0.034516767
000020 52 58 a1 3c 6c 04 8b 3d 9c f6 53 3d b9 36 0a 3c
       0.019695435 0.06787953 0.051748857 0.008435898
000030 ca 0e 82 3d 3e 7a cf bc 4c e9 3a 3d a7 41 c0 3d
       0.06350477 -0.025326844 0.045632645 0.09387522

weight f4 [32, 16, 3, 3]
000000 30 54 32 bd 80 2c 0f bc ae ad 0a 3d 39 41 6e 3d
       -0.04353732 -0.008738637 0.03385704 0.05816767
000010 16 6a 96 3d f5 f1 a0 3d 8b e1 1c 3c 80 df 7d 3d
       0.07344453 0.0785865 0.009575258 0.061980724
000020 3c 39 c7 bb 95 c6 5b bd 9d 0a 78 3d 33 aa 2e bd
       -0.006079821 -0.05365618 0.060556997 -0.042642783
000030 10 48 50 bc 7f 28 10 3d d0 a2 2c 3d 97 05 1d 3d
       -0.012712494 0.03519487 0.042147458 0.03833541
000040 2e 42 a8 bc e8 b8 c5 bb 7b 8f b6 bd 7d 95 64 bd
       -0.02053937 -0.0060340054 -0.089140855 -0.055806626
000050 48 7a 41 3d b8 71 7e bd bd 68 54 3d 0f ce fc 3c
       0.047235757 -0.06212017 0.0518577 0.030859975
000060 e0 86 31 bd 99 34 0d bd d1 41 62 bd 3b f6 97 3d
       -0.043341517 -0.03447399 -0.05523855 0.074200116
000070 b6 1e 52 3d 45 cb 93 bd 0c ac f7 bc 19 b3 51 bd
       0.05129882 -0.07216505 -0.030233406 -0.05119619
000080 3e aa f4 3c ca 61 90 3d 35 67 c7 bc d7 f4 7e 3d
       0.029866334 0.07049902 -0.024341205 0.062245216
000090 f8 f5 84 bd 65 05 28 bd 80 6a 1b 3d a7 e0 5e 3d
       -0.06492227 -0.04102077 0.037943363 0.054413464
0000a0 1a ad cf 3b a8 59 30 3d 2a 99 ce bc 7a 41 d4 3c
       0.006337774 0.043054253 -0.025219519 0.025910128
0000b0 48 af 30 3d a4 42 e0 bc ad 67 80 bc 32 27 82 3d
       0.04313591 -0.027375527 -0.015674436 0.06355132
0000c0 1d 52 0e 3a 23 a4 94 3d 31 21 6a 3d ed 6e e1 3c
       0.0005429106 0.07257869 0.05716056 0.027518714
0000d0 03 59 cb bc 5f 2e b1 bb e7 ed 04 3d 6f fa 61 3d
       -0.024822718 -0.005407139 0.032453444 0.055170473
0000e0 98 08 81 bb 6b 91 27 bd 21 82 a2 bd b2 4c a3 bd
       -0.003937792 -0.040910166 -0.07934976 -0.07973613
0000f0 a2 f1 99 3c ac 85 ed bc 49 18 00 bd 30 d2 d8 bc
       0.018791977 -0.028994404 -0.03127316 -0.026467413
000100 15 ca 87 3d 5d 76 f3 bb b0 b9 44 bc 5d 6a 8f 3d
       0.06630341 -0.0074298815 -0.012007162 0.07002709
000110 75 29 49 bd 87 27 46 3d ba 35 78 bd 45 7b 9f 3d
       -0.049111802 0.04837754 -0.060598113 0.07787184
000120 3f c0 f3 3c 2e f5 b9 bb 22 d6 87 3d 4d 04 99 bd
       0.029754756 -0.0056749796 0.066326395 -0.074715234
000130 a6 54 1b bd d3 80 dc 3c d1 87 2c bd 1f 0d 28 bd
       -0.037922524 0.026916897 -0.042121712 -0.04102814
000140 dc 74 66 3d 58 10 9a 3d 1f 7c 27 bd 6f c9 93 3d
       0.05626379 0.075226486 -0.040889855 0.07216155
000150 61 c1 ff 3c 6b f9 80 bd 7d d7 4f 3d 25 f6 44 3c
       0.03122014 -0.06297573 0.050742615 0.012021576
000160 f4 1c 93 3d 48 90 69 3d 30 f9 ac 3c f5 27 5e 3d
       0.07183257 0.057022363 0.021114916 0.054237325
000170 89 14 1f 3d 28 4f ce 3c 63 18 a1 bd e2 95 2c 3d
       0.038837943 0.025184229 -0.078659795 0.042135127
000180 ba 29 53 3d f2 fb 0a bd 23 54 84 bd 41 94 67 3c
       0.051553465 -0.03393168 -0.0646136 0.014134468
000190 39 9f 94 3d 82 41 99 3d 2e 2f 23 3d 91 11 90 3c
       0.07256932 0.07483198 0.039839916 0.017586501
0001a0 2f 9d 9e 3d db 91 52 3d 18 81 34 bd ff 0a 39 3d
       0.07744824 0.05140863 -0.044068426 0.045176502
0001b0 49 5c 56 3d 92 c1 b7 3b d4 ca 58 bd 66 f7 3d 3d
       0.052334104 0.005607792 -0.052927807 0.046378516
0001c0 d1 bd 67 3d 01 39 0f 3c c9 5b 51 3d c3 71 ea bc
       0.056577507 0.008741618 0.051112924 -0.028618699
0001d0 02 d7 0e 3d d6 88 45 bd b6 92 53 bd eb 49 52 bd
       0.034873016 -0.0482262 -0.051653586 -0.051340025
0001e0 a6 27 33 3d b9 b1 96 3d d9 8b 0b 3d a3 71 98 3b
       0.043738984 0.07358117 0.034068916 0.0046522184
0001f0 07 b6 79 bd 88 36 31 bd cb 11 d6 3c 58 fa 7a bd
       -0.06096461 -0.043264896 0.026131531 -0.061273903
000200 e0 96 d1 3c 29 af 73 bd ec 81 6f 3c 8f 9b ca 3b
       0.025584638 -0.059493218 0.014618378 0.006183095
000210 27 a7 1d bd 1a 51 2c 3d 51 5e 90 bc b9 f9 31 bc
       -0.038489487 0.042069532 -0.017623099 -0.010862761
000220 f8 96 10 bd fd 82 c0 bd 42 5e cb bd 91 8c 91 3c
       -0.035300225 -0.09399984 -0.099300876 0.017767223
000230 4d b2 03 bd bb bd ff bd cb 2d df bd e0 f9 4e 3d
       -0.032152463 -0.1248736 -0.10897406 0.050531268
000240 f5 ae bc ba 9e 35 f8 bc 68 b7 67 3d 0b 7e a9 3d
       -0.0014395403 -0.030299004 0.056571394 0.08275994
000250 a5 86 bd 3b ba cb a4 3d b0 03 10 bc 0e 08 58 3d
       0.005783873 0.0804667 -0.008789942 0.052742057
000260 78 e1 9c 3d 22 5c 4d bd e8 b8 84 bd e6 58 ab 3c
       0.07660192 -0.050136693 -0.064805806 0.020916414
000270 42 bf 69 bc 86 6f 37 bd 15 cf 2a 3d a8 13 c4 bc
       -0.014266791 -0.04478409 0.041701395 -0.023935154
000280 41 e0 97 bd 72 ed e1 3c 00 39 21 bd 78 81 38 bd
       -0.0741582 0.027579043 -0.039361 -0.045045346
000290 4f da 87 bd 0c 8f 57 bd b8 44 50 3d d1 a6 c7 bb
       -0.06633436 -0.052626655 0.050846785 -0.006092884
0002a0 ba 97 81 bd 1c 36 8e 3d 3c b2 b9 3c 42 c9 82 bc
       -0.06327768 0.06943914 0.022667997 -0.015965108
0002b0 a6 30 a8 bc ab aa 24 bc 57 16 26 3d 91 95 8d 3d
       -0.02053101 -0.010050456 0.04054865 0.06913293
0002c0 1f 4d 37 bd 79 14 89 bd 9e 03 4a 3d 9c 6c 8e bd
       -0.044751283 -0.06693358 0.049319856 -0.06954309
0002d0 2e d9 2d 3d 0e 6d 8a 3d 98 31 ad bc b0 10 16 bd
       0.042443447 0.06759082 -0.021141812 -0.03663701
0002e0 38 18 93 3d bb 8f 6b bd 2e 0d 12 bd f7 90 13 3b
       0.07182354 -0.05751012 -0.0356571 0.0022516826
0002f0 4e 39 0d 3d 0f 6f 8e bd f1 f6 59 bd 3c c5 89 bd
       0.034478478 -0.069547765 -0.053214017 -0.067270726
000300 a2 93 88 3d e0 41 02 3d 95 01 57 bd 18 73 86 bc
       0.06668784 0.031801105 -0.052491743 -0.016412303
000310 c0 bf b2 bc 02 29 86 3d ae ad 32 3d 09 b0 fe bb
       -0.02181995 0.0655079 0.043622665 -0.00777245
000320 fe a2 47 3d 1d 50 9f bc 8b f7 12 bd be 0f 5b 3d
       0.048739426 -0.01944738 -0.035880607 0.05348181
000330 df 34 2b 3d 60 20 9a bd 96 8b 74 bd f4 e0 08 3d
       0.04179847 -0.07525706 -0.059703432 0.033417657
000340 79 ad 6c 3d b8 ff 6e 3d 72 f7 fe 3c e0 0f 2d 3c
       0.057782624 0.05834934 0.03112385 0.010562867
000350 65 3c 93 3b 6a 9d 89 3c 38 47 b4 bc f8 c0 74 bd
       0.0044932836 0.016798694 -0.022006616 -0.05975434
000360 14 34 7c 3c 78 02 e5 bc c9 66 9a 3d bb d7 76 bb
       0.015393276 -0.027955279 0.07539136 -0.0037665206
000370 b9 69 9d 3d b1 bf 84 3b b1 fa a3 3d 88 41 25 3d
       0.076861806 0.0040511717 0.080068 0.0403457
000380 5b 14 89 bc 86 8a 20 3b 63 01 d8 bc 93 e5 0b bd
       -0.016733339 0.002449663 -0.026367849 -0.034154486
000390 06 7a d6 3c 56 44 9d bb 8e 25 8f 3d b9 67 a4 bd
       0.026181232 -0.004799406 0.06989585 -0.08027596
0003a0 0b d9 54 bd c2 97 62 3d 32 06 3c 3d 4a ca 58 bd
       -0.0519648 0.05532051 0.045904346 -0.052927293
0003b0 d2 59 1c 3c 0d bb a0 bd 69 c1 86 3d 94 c1 0d 3d
       0.009542899 -0.07848177 0.06579859 0.03460844
0003c0 0b 4d c2 3c f4 05 ca bb 6a e2 07 3d ae dc 81 bd
       0.023718378 -0.0061652604 0.03317491 -0.063409194
0003d0 2a ff b6 bb 21 b1 f3 bc 22 b3 bd bc d3 c6 1b 3d
       -0.005584617 -0.029747548 -0.023156706 0.03803141
0003e0 73 a5 14 bd 18 a5 66 3d cf d1 e2 bc ce 4f 90 bd
       -0.036290597 0.05630979 -0.027687935 -0.070464715
0003f0 3e 60 eb bc 53 6f 8b 3d 72 c6 a4 bd 29 48 14 bc
       -0.028732415 0.06808343 -0.08045663 -0.009050407

bias f4 [32]
000000 c4 22 4c 3d da e9 99 bc 13 17 92 bd 4f d9 25 3c
       0.049837843 -0.018788267 -0.07133307 0.010122611
000010 16 3d 76 bd db 1f 80 3d 33 db b7 bc 17 fe 86 3d
       -0.06011685 0.06256076 -0.02244339 0.065914325
000020 62 ab 87 bd c8 b3 80 bd 91 f1 13 3d ef f7 5a 3c
       -0.066244856 -0.062842906 0.036119048 0.013364776
000030 e5 4f 9d 3d 9e 60 94 3d fc ec 79 bd e6 ae cc 3c
       0.07681254 0.07244991 -0.06101702 0.024985742
000040 92 77 15 bd 9e 56 45 3d 81 e6 69 bd 39 0a 6e 3d
       -0.036490984 0.048178308 -0.05710459 0.058115218
000050 a1 07 a2 3d 5c b3 75 3d 34 e1 82 bd a4 32 0c 3d
       0.07911611 0.059985504 -0.0639061 0.034227982
000060 a1 30 ac 3d 7e 5b 27 3d 47 e0 99 bc 62 ba 99 bd
       0.08407713 0.040858738 -0.018783702 -0.07506253
000070 95 95 b8 3d 43 e4 7a 3d a4 30 4e 3c 77 bc 88 3d
       0.090129055 0.061252844 0.012584839 0.06676572
