runs/90.pt (torch, 156610 bytes, 38 tensors)

weight f4 [8, 1, 3, 3]
00000000: cd6f 8fbe a100 a3bd f8be 93be 7b9a 833d
00000010: 68be c43d ebe5 733e 689f 5f3e 5990 96be
00000020: ad8b 7d3e a97e 583e 61ff 99be 720b 963e
00000030: 5006 41be 553d b13d 8331 22be a8f8 503e
00000040: c19f 7dbe b39b 253e df0e a03c 45b1 8fbd
00000050: 4d98 fe3d eb19 373d 305f 5ebe fe18 2cbd
00000060: 6bde 58ba bb17 4fbe 5330 8dbe f036 a43d
00000070: 2b2a 4dbe d6f2 273e bd1a 753e 704e ac3c
00000080: 66f7 2abe a1d7 eb3d 487c b43d 888c a53d
00000090: c49d a03e 2b4c d6bd 73ae b73d 5c7b 82be
000000a0: ab51 543e c0c5 033e 1407 87bd 9b6a a33e
000000b0: 8f33 61be e9e3 5d3c a69c 4abe e3ab 813e
000000c0: 7ae2 6f3b cafd 3f3e 0337 a3bd 2fc5 8d3d
000000d0: bc36 523b e99e bcbd 92f6 b43d beee a13e
000000e0: ab29 a73e 44e3 0bbe dd94 9abe 83de 8d3e
000000f0: 9af2 a83e e1d6 36be 38ce 7abd 0a5d 75be
00000100: 0516 903e 0e8e a9be 821b 4bbe d83a e9bd
00000110: 0a0d a03d c3d5 543e ab54 86bd 7d13 5d3e
-0.28014985 -0.07959104 -0.28856635 0.06425949 0.096066296 0.23818175 0.21838152 -0.29407004
0.24760313 0.21142067 -0.3007765 0.29305607 -0.18850064 0.08654276 -0.158392 0.20407355
-0.24767973 0.16172676 0.019538341 -0.07016233 0.12431393 0.04470245 -0.21715999 -0.042016022
-0.0008272889 -0.20223896 -0.2757593 0.08018291 -0.20035617 0.16401228 0.23935981 0.021033496
-0.16695938 0.11515737 0.08812767 0.08083445 0.31370366 -0.10463747 0.089688204 -0.2548474
0.20734279 0.12868404 -0.06593147 0.3191727 -0.21992324 0.013543108 -0.19786319 0.25326452
0.0036603496 0.18749157 -0.07969477 0.069223754 0.0032076081 -0.09209997 0.08836092 0.31627458
0.32648978 -0.13660914 -0.301917 0.27708825 0.3299759 -0.17855407 -0.06123182 -0.23961273
0.281418 -0.33116192 -0.19834712 -0.11388177 0.07814987 0.20784669 -0.06559118 0.21589465

bias f4 [8]
00000000: 8f58 8cbe d428 aebc f819 883e 863f bd3d
00000010: 9eb7 103d aba3 8bbd dd2d b1bd 2be3 94bd
-0.27411315 -0.021259703 0.26582313 0.09240632 0.03533136 -0.068183266 -0.08651326 -0.07269891

weight f4 [8, 8, 3, 3]
00000000: 9f7a cfbc 7973 423c 3961 bbbc bd9b 8c3c
00000010: 6dc1 78bd ebc9 19bb a40a 45bd 5cba cc3d
00000020: 8936 27bd 2d22 a43b 2f1f 5dba 0e00 8d3d
00000030: 4371 93bd 399d ec3d 4ffe ecbd f849 0f3c
00000040: 4900 17bc 54ec 583d 3f65 183d cca2 9ebd
00000050: 323a cd3d 4198 a73d 0db0 653d db11 3fbd
00000060: e727 f3bc a0d6 ed3d 6701 793d c57d b63d
00000070: 502b bf3d a297 9a3d 8e89 d2bc f1c0 f23c
00000080: 61fa 933d 444c 11bd 3044 483d f7e9 95bd
00000090: 9636 f23c a85b 023d f45a c73d 4111 b53d
000000a0: b0a2 dbbc e3c9 803d 0059 efbd 40a9 bdbd
000000b0: f500 4dbd a056 693d b235 953b 7647 31bd
000000c0: 5e13 d3bd e84d 503d a735 813d e8aa fabc
000000d0: c577 8a3c d211 8e3d 0ac9 703d eb34 8d3c
000000e0: 9adf 6abd d9c4 a33c 99cd ef3d e06a d73b
000000f0: 7dd6 43bd 60cb e83d 183d dfbd db73 313d
00000100: be92 e93d 8292 be3d 6cef 5c3a d4cf 97bd
00000110: 5379 223d 0061 923d 2d95 b0bd 2af4 e8bc
00000120: d83d be3c f06e f83c 46f6 783d a77a 04bc
00000130: d7c1 d03c 430c 653d 5b52 c23b 8aef 533d
00000140: 847b 90bc 011b 32bd 0097 c13d c0cc 043c
00000150: 91a7 1c3c 5b20 29bd 0d80 133d 6a74 d8bd
00000160: 36fe e93d 5a87 243c 2856 ccbd 8644 113d
00000170: 683b aabc a401 b13d f062 bb3d 5310 35bd
00000180: 63a8 5bbd 5e51 afbd 21a6 0ebd e251 cabd
00000190: b9a4 5f3c 39da c3bc 9acb 9c3c 9714 55bd
000001a0: 3b49 bb3d 5afe dbbd 30a0 3a3d 43c6 b8bd
000001b0: 772c c53c 4330 7c3d 9ba0 ff3b 7874 ef3c
000001c0: 9524 e7bd ba74 1abc 1cea e53c 05fb eb3d
000001d0: ce84 cb3d 57b9 e93c 0bb5 043d 0ac4 55bd
000001e0: bb3b a6bd 7d62 7abd 1dfe 63bd 91ed 2dbd
000001f0: 49d5 d93a a9f5 21bd c1cb c03d b684 263d
00000200: 3eed 823d cf6d e9bd 2307 ffbc ef45 703d
00000210: f28a b5bd 293b 713c e33f ccbc 404c e3bc
00000220: 0416 d6bd b9bf a4bc 2b54 373c 4159 c5bd
00000230: e5f5 3abd 171d 81bd fea7 89bd eeab b2bd
00000240: 21fe c23d 380f 5ebd e112 e0bd 3486 383d
00000250: cdfb 3b3c 15f4 513d c39b 99bd f598 6c3b
00000260: b68a 243d f351 7e3d 4667 1abc 6b47 ce3d
00000270: b85f d9ba 548d e73b a635 88bd 0c67 96bd
00000280: ce15 afbd ba9f b23d f61c ebbd fd43 4f3c
00000290: 9111 c938 fe2a db3c 5bfd a33d 8f3d ae3d
000002a0: 0118 1c3d 5c63 bbbd c5e8 93bc fb6e 95bd
000002b0: 56fc e23d 66c2 e03d 760e 823d 5f25 6bbd
000002c0: f072 533d 12f8 b9bd e3ed c0bd 168c 9a3a
000002d0: 3f5a f1bc 54b3 0ebc bb6a 6f3d c06c 0ebd
000002e0: bb73 b6bd e9f8 4a3d d20d e53d 1c73 eabc
000002f0: da3f 843d 4f3c ecbd 49ce 7c3c 569d f73c
00000300: 40d8 a93c 0b75 86bd f79d edbd 6464 7dbd
00000310: 17a4 f73b 0d52 8cbd f0fe acbc dcf4 ddbd
00000320: a009 49bb 15c1 94bd 1a4b 05bd 3e51 b43c
00000330: fb09 54bd c753 be3d 2abc 9c3c 026a 503d
00000340: baef cf3c 1a3e 493d 8496 9dbd d8ea 9a3d
00000350: 4d54 7b3d 55df feba e746 e23d 1635 92bb
00000360: 2802 9bbd 97f4 833d ab84 a53d ae9b 0cbd
00000370: 8bcf 3b3d adab 833c 8560 d23d 78c6 113c
00000380: 5ebe 453c 0370 ae3d c8c4 f03c 4f37 c83c
00000390: f4e8 4dbd 119e 87bd f44b 24bd e477 983d
000003a0: 67c2 753d dd81 973c b9f3 6dbd f227 df3d
000003b0: 047c 873d 405b 6839 bd6a 92bd 73cb 52bd
000003c0: b2ce ea3d 97b4 94bd ff5d b5bd f66c 423d
000003d0: b920 ee3d 520c 7cbb 6cca 163c 3144 2ebc
000003e0: 9490 d93d 64f8 5a3d 8dee 293d 2ade a43d
000003f0: 100e 99bd c625 df3d 64ef d63d 1227 d43d
-0.025327025 0.011868351 -0.022873508 0.017164106 -0.06073134 -0.00234663 -0.04810585 0.09996483
-0.040823493 0.005008957 -0.00084351277 0.06884776 -0.07199337 0.11553425 -0.11571943 0.008745663
-0.009216377 0.052959755 0.03720593 -0.07745895 0.100208655 0.08183337 0.0560761 -0.046647888
-0.029682113 0.11613202 0.060792353 0.089107074 0.09334433 0.07548453 -0.025700357 0.029633017
0.0722549 -0.035473123 0.048893154 -0.07320016 0.029567044 0.03182569 0.09734145 0.088411815
-0.026810974 0.06288507 -0.11686897 -0.092607975 -0.05004974 0.056967378 0.00455352 -0.04328104
-0.103064284 0.050855547 0.063090615 -0.030599073 0.016902814 0.06936993 0.058785476 0.017237147
-0.05734215 0.019991325 0.117091365 0.00657402 -0.047811974 0.11366916 -0.109003246 0.04332338
0.11404942 0.09305288 0.00084280106 -0.07412687 0.039666485 0.071474075 -0.08622203 -0.028436739
0.023222849 0.030326337 0.06078174 -0.008085883 0.025483055 0.055919897 0.0059302277 0.051742114
-0.017637022 -0.043482784 0.09452629 0.008105457 0.009561435 -0.041290622 0.03601079 -0.10569079
0.1142544 0.010042036 -0.099773705 0.03546574 -0.02078028 0.08642891 0.0914973 -0.04420502
-0.053627383 -0.085604414 -0.0348264 -0.09878899 0.013650113 -0.023907768 0.019140054 -0.05202159
0.09144827 -0.10741873 0.045562923 -0.090221904 0.024069054 0.061569463 0.007801128 0.029230341
-0.11286274 -0.009427244 0.028065734 0.115224876 0.0993744 0.02853076 0.03239922 -0.05218891
-0.081168614 -0.061129082 -0.055662263 -0.04246289 0.001661935 -0.03954092 0.09413863 0.040653907
0.063929066 -0.113978975 -0.031131333 0.058660444 -0.08864392 0.014723578 -0.024932807 -0.02774632
-0.10453418 -0.020110952 0.011189501 -0.096361645 -0.04564466 -0.063043766 -0.06721495 -0.08724199
0.095211275 -0.054213732 -0.10941101 0.04504986 0.011473608 0.051258165 -0.07500412 0.0036101912
0.040171348 0.06208987 -0.009424036 0.10072216 -0.0016584313 0.007066408 -0.066508576 -0.073438734
-0.08549081 0.08721872 -0.11480133 0.012650487 9.587699e-05 0.026753899 0.08007308 0.08507835
0.03810883 -0.09149811 -0.01805533 -0.072965585 0.110832855 0.109745786 0.063504145 -0.057408687
0.051623285 -0.09080519 -0.09420373 0.0011791016 -0.029461978 -0.008709747 0.058451395 -0.03477168
-0.089087926 0.049553785 0.11184277 -0.028619342 0.06457491 -0.115349405 0.015430042 0.03022639
0.020732999 -0.06565293 -0.11602395 -0.061863318 0.007557403 -0.068515874 -0.021117657 -0.10837719
-0.0030675903 -0.0726339 -0.032542326 0.022011396 -0.05176733 0.09293323 0.019132692 0.050882347
0.025382865 0.04913149 -0.07694724 0.07564324 0.061359692 -0.001944522 0.1104868 -0.0044618947
-0.07568771 0.06443136 0.08081945 -0.034328155 0.045852225 0.016073072 0.10272316 0.008897416
0.012069313 0.08517458 0.029390708 0.024440436 -0.05027099 -0.06621946 -0.040111497 0.07444742
0.05999985 0.01849454 -0.05809376 0.10896291 0.06615451 0.00022159237 -0.07149265 -0.051463556
0.11465205 -0.07261007 -0.08855819 0.047467194 0.11627335 -0.0038459492 0.009203535 -0.010636375
0.10623279 0.05345954 0.041487265 0.08050187 -0.07473385 0.108958766 0.10494879 0.103590146

bias f4 [8]
00000000: 85f2 c0bd 97c3 c8bd d9ef db3d 08db 163d
00000010: d34f bc3d bdde e33d dd7b 963c 7bd0 27bd
-0.09421257 -0.09802931 0.10739107 0.03682998 0.09194913 0.11126468 0.01836961 -0.040970307

weight f4 [16, 8, 3, 3]
00000000: 48ee a83d f420 e13d c080 ea3d 16ce df3c
00000010: b71c 143d c80d ecbc 9ad4 86bb c189 6b3d
00000020: d261 e13b 7a18 76bd 21a1 d8ba c8d4 13bd
00000030: 082a 5c3d 89f9 fdbc 8867 1f3d 28f0 bbbd
00000040: 20b9 103d 2c17 323d 87ff 50bd 5453 963d
00000050: b0a1 a63d af89 35bc 42d0 dcbd 709c c13d
00000060: 2ca6 b0bd 1ea2 973d a0ea a13d e6e5 c63d
00000070: 4ee9 afbd 4e92 8abd 51aa b03d db91 38bd
00000080: 9c19 c13c bbf0 333d 5096 e53d d42d 2bbd
00000090: 009e 3fbd 7b53 60bd 84b8 6fbc 8184 c53c
000000a0: 289e 36bc a7ce 2bbd b848 413d bc0f d3bd
000000b0: 670a 813d 6227 133b 26ce 32bd 71f9 81bd
000000c0: 0ba8 f63c 3139 70bd b61e 3d3c 242f 7a3d
000000d0: 3ab9 a6bd ea4f a4bd eb20 e83d d836 d33c
000000e0: d237 de3d c3cc 99bd e00f 393d 1a47 a63d
000000f0: 74a7 283d 2fcb d1bc 902d a9bd b43f 92bd
00000100: 8264 e7bd 3a7b 963b 360e d43d b690 27bd
00000110: 479f 67bd 2c57 713c d63a bd3d e966 833d
00000120: 3bfb 59bd d436 71bd 5608 37bc 41ba 58bd
00000130: f423 afbd 9f9a f13c f0d3 5cbd b044 c1bd
00000140: 0d0d df3d 42bd 7f3d f53b b13d 13cc 8d3d
00000150: 5fde 0f39 cdc9 c7bd 4832 10bd fce1 503d
00000160: 2f9f 663d 9842 003d 13ce 2e3c 2ce7 7b3c
00000170: 3770 803c e973 e93d a847 843d 0800 b0bd
00000180: 88d3 b63c 5387 4dbd 571a d53d 7445 c93d
00000190: bb34 fe3d 4bd5 823c 55e2 c33d 5355 c9bd
000001a0: 3a08 fc3d ef20 943d e30c b2bd d1a4 0bbd
000001b0: 9f09 52bd e11e 143c a4a9 083c cd20 85bd
000001c0: 32bb cabc ddc3 993d acbe 923b e9c9 a2bc
000001d0: 5f63 6fbc 30ca 95bd a4f1 3f3d d6cc 8abd
000001e0: c20f 3f3d ed67 b03d b03d c5bc c76e 6b3c
000001f0: 54c4 f6bc 266c d63d c88c 04bd 43bc e83d
00000200: 6ab2 013e d054 2ebd 824a d73d 235a 173d
00000210: 3fbd 5f3d f37d b2bd c5bd e63c e26e 073d
00000220: b798 cdbd f505 4bbd d06d 00b9 f205 bebd
00000230: 0ea2 7d3d e772 aebd 36a9 c43d 0c54 d3bc
00000240: c184 38bd fe57 ce3d 5ea5 bfbd a4cc b9bd
00000250: 59b2 993a 914d adbd 891d 43bc 2b13 523d
00000260: 5cdb a13c 0105 82bd 16cd c8bd 7844 543d
00000270: 27c8 1c3c a94e edbc 712d d1bd 344a df3c
00000280: 838b a53c 1690 d13d 86b8 b03d b44f 533d
00000290: 0b11 de3d bf02 ad3d 4947 273d 1e16 113d
000002a0: e577 69bd 65c4 3dbd 99fb a93d 40f4 e9bd
000002b0: ec40 a6bd b2c9 9b3c 0036 933d 0f01 9ebd
000002c0: d47d be3d 4f07 79bc 30ee a73d 6264 c9bd
000002d0: b36a 8d3d f7b6 c73c a604 df3d 4ed3 e8bd
000002e0: 37c7 c0bc 03c6 ab3d 11ac 49bd 78ac 52bd
000002f0: 9ad0 dabb a689 443d b860 36bc e212 cdbd
00000300: 58a3 f93c 1efb cb3d 53bc 7e3d 7a36 c73d
00000310: b2c0 8cbd 482b 463d 269d afbd 3ba1 563d
00000320: 753c e5bd 0a79 103c 0c0e efbd 02fe 743c
00000330: c619 e9bd 7917 88bd ffda a43d d831 d33c
00000340: 45d7 1d3b eef2 a53d d35c c63c 6228 a43d
00000350: 8f70 223c 2858 e23d 1751 813d 45fa 7cbd
00000360: 3c08 253d 486c 1fbd 44ab 87bd 5bbc 4abd
00000370: 7cad 4bbc a93d 6dbd c679 653d b9d4 c2bc
00000380: 5635 4e3d a919 eb3d 426f e1bd d664 d63c
00000390: 16a3 df3b fd7c ea3d 7331 a13d 03fc aabd
000003a0: b958 b7bd cb66 92bd 078a d03d e4c3 21bd
000003b0: 7b04 97bc f00b c73d 9429 69bd 13e0 c3bd
000003c0: 72c2 babd 5d08 193d bcf0 84bd 2c94 a7bd
000003d0: 6b75 223d bd40 423c 7e4b 22bd 218c cebd
000003e0: 5604 a03d 5a05 a9bd 06af dcbd 0a0b 8fbd
000003f0: a226 8ebc d273 c7bd 8563 9c3c 39b9 2c3d
0.082485735 0.109926134 0.11450338 0.02731995 0.036160197 -0.028815165 -0.0041146995 0.05750442
0.006878116 -0.060081936 -0.0016527512 -0.036091596 0.05375102 -0.031002777 0.038917094 -0.091766655
0.0353328 0.04347913 -0.05102494 0.07340112 0.08136308 -0.01108019 -0.107819095 0.09453666
-0.08625445 0.07403968 0.07906079 0.097118184 -0.08589421 -0.06766187 0.08626235 -0.045060974
0.023571782 0.04393075 0.112103105 -0.041791752 -0.04678154 -0.054767113 -0.014631394 0.024111034
-0.011146106 -0.041945126 0.04718849 -0.103057355 0.06300812 0.0022453894 -0.04365363 -0.06346405
0.030109426 -0.058648292 0.011542967 0.061080113 -0.08140798 -0.08023055 0.113344036 0.025782987
0.10850491 -0.07509758 0.045181155 0.0811903 0.04117532 -0.02560958 -0.082606435 -0.07141057
-0.11298467 0.0045923265 0.10354273 -0.04090949 -0.056548383 0.014730256 0.09239738 0.06416113
-0.053218108 -0.05889018 -0.011171421 -0.052912 -0.085517794 0.029492674 -0.053913057 -0.09436929
0.10891161 0.06243635 0.08654014 0.0692369 0.00013720382 -0.09755287 -0.035204202 0.050996765
0.056304153 0.03131351 0.010669249 0.01537494 0.015678508 0.11399061 0.0645898 -0.08593756
0.022317663 -0.050177883 0.104054146 0.098277 0.12412401 0.015970847 0.09564654 -0.098307274
0.123062566 0.07232844 -0.08693864 -0.034092728 -0.051278707 0.009040565 0.008341227 -0.06500397
-0.024747465 0.07508061 0.0044782963 -0.019871669 -0.014611094 -0.07313955 0.046861306 -0.067773506
0.046645887 0.08613572 -0.024077266 0.014369673 -0.030122913 0.104698464 -0.032360822 0.11364033
0.12665716 -0.042561352 0.10512258 0.036951195 0.05462384 -0.08715429 0.028166661 0.03306473
-0.10038894 -0.049566228 -0.0001224794 -0.09278478 0.061922126 -0.0851801 0.09602587 -0.025796913
-0.04504848 0.10075377 -0.09357713 -0.09072235 0.0011726125 -0.0846206 -0.011908897 0.05128781
0.019757919 -0.06348611 -0.09804742 0.05182311 0.009569204 -0.028968172 -0.102137454 0.027257062
0.020208126 0.1023256 0.08628945 0.051589683 0.108430944 0.084477894 0.040839467 0.035421483
-0.056999106 -0.046329875 0.082999416 -0.1142354 -0.081178516 0.019017074 0.07188034 -0.07715046
0.093013436 -0.015199496 0.081997275 -0.098335996 0.06905117 0.024379237 0.108895585 -0.11368428
-0.023532493 0.08387377 -0.04923636 -0.05143401 -0.0066776993 0.047982834 -0.011131458 -0.10013367
0.030473396 0.09960006 0.06219132 0.097271875 -0.06872691 0.04838112 -0.085748956 0.052399855
-0.11193172 0.00881792 -0.11672601 0.014953138 -0.11381869 -0.06645102 0.08049583 0.025780603
0.002408461 0.08102976 0.024214184 0.08015515 0.009914531 0.11051971 0.06314295 -0.061762113
0.040291056 -0.038921624 -0.06624463 -0.049496036 -0.012431499 -0.05792013 0.056024335 -0.023783075
0.050343834 0.11479504 -0.11007549 0.02617113 0.0068248613 0.11449621 0.0787076 -0.08348849
-0.089524694 -0.071485125 0.101825766 -0.039493456 -0.018434754 0.09719074 -0.056924418 -0.09564223
-0.09119119 0.03736149 -0.06491229 -0.081825584 0.03966276 0.011856255 -0.039622776 -0.10085321
0.07813327 -0.08252974 -0.107755706 -0.069845274 -0.017352406 -0.09738888 0.019090423 0.04216883

bias f4 [16]
00000000: 7a9e 143d 3fd8 1abd 0531 803d e3bf 813d
00000010: fca1 723b 755f 223d 85b7 53bd 974e b83d
00000020: 95c0 a6bd 89dd 09bc eec8 9cbb d056 483c
00000030: e8ad 6d3c eefd cb3c 0fad ebbd 9267 21bd
0.036283948 -0.037803885 0.0625935 0.063354276 0.003702282 0.039641816 -0.05168869 0.08999365
-0.08142201 -0.0084146345 -0.004784695 0.012227729 0.0145067945 0.024901357 -0.11507618 -0.039405413

weight f4 [8, 16, 1, 1]
00000000: dd96 c0bd b9d2 62be 9cf0 753e fe91 303e
00000010: 7319 2fbe e08c 713e 24c1 e73d df10 c03d
00000020: 511e 61be dfed 69be b451 343e d9c8 23be
00000030: f244 903d 8b89 a53d fd9b 033c 5439 37be
00000040: bc3c 05bd 18e9 263e 1347 413e 8dd4 a13c
00000050: 98f1 96bd e634 01be ba18 35be 5d02 86bd
00000060: 3c3d 8abc 4972 3c3e 05f1 42bd 3f78 8d3d
00000070: 52f8 b73d a1cc 36be 0974 b53d 886a 67be
00000080: 8cb5 05bb b607 5cbe 5091 373e 6a34 2dbe
00000090: 2d48 fcbd 07cf 5d3e 95c3 ff3c e155 15be
000000a0: 3227 6cbe 2424 ab3c e7be 133e ccd6 5dbe
000000b0: 48db 4dbe 8809 3f3e 22df 2ebd a35f 403e
000000c0: 3cc3 24be b874 e83d 0cdd 19bd 4842 6d3d
000000d0: 870a 27be 0399 12be 4387 cd3d d62b 073e
000000e0: f0af 17b9 a88b 053e 6688 fc3d 0fd8 58be
000000f0: 843b 0bbd ae93 293d 74b0 f0bc 67d5 203e
00000100: c5d1 2e3e f351 36be f164 263e ecac 5ebe
00000110: 2cf5 9a3c 7fea fb3d 9b79 37be fc22 ef3d
00000120: d082 49be 8834 4e3e de23 5f3e 6c82 a6bc
00000130: 3d4c a33d a4ad 393d d477 483d b0a1 6cbd
00000140: 8a3a 10be 7221 0a3d 144c 9f3d a2f7 d4bd
00000150: ab6f b1bc 2c30 103e 640b 36be 0f2d c1bd
00000160: 317c 48bc 1d68 bebd fe0b 47be 8d25 90bd
00000170: 3802 443e 2aa2 82bd 6314 09be 5e91 1b3e
00000180: 10bd 4ebe 252c 473e 650a 08be ab28 6dbe
00000190: cade f23d 3828 18be 9a9d a63d f95c 1b3c
000001a0: 1659 a1bc 121b 233e 4c2c 3abe 9bd0 6ebd
000001b0: ceb4 453e 9a8b f93d 4e2b 553d 1f21 0f3c
000001c0: 967f 713d b757 693e 27fa 6d3e 0854 0dbe
000001d0: 942b 55be 43a0 773a 6a34 98bb dc72 b23d
000001e0: 8258 39be 96a1 00be c203 03bd d2c4 1bbe
000001f0: 164f 503e c55e c03c 70f5 70be 836a 46be
-0.09403775 -0.22150697 0.24017566 0.17243192 -0.17099552 0.23588896 0.113161355 0.09378218
-0.21984221 -0.22844647 0.17609292 -0.15994586 0.070444 0.08082875 0.008032796 -0.17892963
-0.032528624 0.16299856 0.18874769 0.019754672 -0.07370299 -0.12617835 -0.17685214 -0.065434195
-0.016874902 0.18402971 -0.047593135 0.06907701 0.0898291 -0.17851497 0.088600226 -0.22599232
-0.00204024 -0.21487316 0.17926526 -0.16914526 -0.12318454 0.21661006 0.03122119 -0.14583541
-0.23061827 0.020891257 0.14428292 -0.2166397 -0.2010318 0.1865598 -0.042693265 0.18786483
-0.16090101 0.11350387 -0.037564322 0.05792454 -0.1631261 -0.14316182 0.10035565 0.13200316
-0.00014466024 0.13041556 0.123307034 -0.2117617 -0.033992305 0.041400604 -0.029381014 0.15706407
0.17072208 -0.17804699 0.16249444 -0.21745652 0.018915735 0.12300586 -0.17917483 0.116765946
-0.19678807 0.20137227 0.21791026 -0.020325862 0.07973526 0.045331612 0.048942402 -0.057771385
-0.14084831 0.033723302 0.077781826 -0.10398795 -0.021659693 0.14080876 -0.17777783 -0.09432422
-0.012236641 -0.09297202 -0.19438168 -0.07038412 0.19141471 -0.063785866 -0.13386683 0.15192172
-0.20189309 0.19450434 -0.13285215 -0.23160045 0.118589 -0.14859092 0.08135529 0.009482616
-0.0196958 0.15928295 -0.1818096 -0.05830441 0.19307253 0.1218483 0.05204325 0.008735924
0.058959566 0.22787367 0.23239957 -0.13801587 -0.20817405 0.0009446183 -0.00464492 0.08713314
-0.1810017 -0.1256164 -0.031986006 -0.152118 0.20342669 0.02348269 -0.23531127 -0.19376568

bias f4 [8]
00000000: d84d 5a3e d03c 223e 00fa 1a3c 0f6a 4d3e
00000010: 2f08 523e 144c 8a3d 718d 52bd 8edf 763e
0.21318758 0.1584351 0.009459019 0.2005999 0.20510934 0.06752792 -0.05140442 0.24108717

weight f4 [8]
00000000: 62c8 7d3f 18c3 793f de7d 843f bf12 7d3f
00000010: dfbc 7d3f 727a 823f c5f0 7c3f 264c 7c3f
0.99133885 0.97563314 1.0350912 0.9885673 0.9911632 1.0193617 0.98804885 0.98553693

bias f4 [8]
00000000: 8741 e93a bc46 e5bb 8ed7 223b add2 57bb
00000010: 3e8b 58bb 5cb6 213c 2ecf 45bb 8e95 6dbb
0.0017796018 -0.0069969576 0.002484772 -0.003293197 -0.003304198 0.009870138 -0.0030183303 -0.0036252472

running_mean f4 [8]
00000000: 26c6 0cc0 a36a 8c3e 03ff 66c0 0113 203f
00000010: 3f95 d440 61d6 d3c0 d5e0 fbbf c1e9 b5bf
-2.199594 0.27425107 -3.6093147 0.62529 6.6432185 -6.6199193 -1.9677988 -1.4211961

running_var f4 [8]
00000000: 5f44 f43c 3613 813b 7fbf 2e3d 5075 ac3c
00000010: 72da d43d b5dc fb3d 926e 553c fcb5 b23c
0.029817758 0.0039390577 0.042663094 0.021052033 0.10393228 0.12297956 0.01302685 0.021815293

weight f4 [16, 8, 1, 1]
00000000: c821 9a3e 2fda b43e 0378 3abe 8323 0cbe
00000010: 3a02 9d3e 0397 a83e e453 a2be 5fb4 023e
00000020: 89e8 dfb9 4eac 72be 2d78 babd 32af a93e
00000030: bf32 c53d 5c2c 503e 4b21 783e 8a16 ab3e
00000040: 077b 6bbd 4d30 4e3e c610 9e3d e1c1 1d3e
00000050: e53d 053e 9322 68be a146 893e f405 823d
00000060: 9e93 863e b61f 693d f14b 37bb 5d3a 1e3e
00000070: 1ae2 333d 7a54 d93d 72da 14be 5b4b 8abb
00000080: 255c 87bd e6cb e1bd cbf1 0a3d eb7b 08bd
00000090: 6fd2 b5bd f4f1 a23e 68f3 f1bd c22a 2e3e
000000a0: 658e 04be 8ea9 17be a7b7 623d 9dcb 4a3e
000000b0: 7e24 653e d6ee 6bbe 81c7 80be 649b b33e
000000c0: 2254 6b3e 2247 1eba e6e4 3c3e e357 6a3c
000000d0: 705e 14be 9b07 20be 9e5d 133d 42fe 603e
000000e0: b38e 913d 59f7 dabd 2223 9f3e b233 ac3e
000000f0: 4884 083d 2007 d43d d1cd 32be 0ffb 073e
00000100: f1ad 8ebd 07e5 5bbe 6eb7 4bbc 9081 c8bd
00000110: 31a5 bb3d 9f83 873e 65fa 993e 389a 6f3e
00000120: 4512 a83e b4e6 413d bbb8 9abe 0f05 b6bc
00000130: a3c7 44be 156b 443e 0a15 2bbe ab84 96be
00000140: ee70 79be 7279 7dbe 6b20 753e e4d8 00be
00000150: 102d 0bbe 1288 39be 5a60 2e3e 92b9 c6bd
00000160: 05f1 123d ca95 323d 57db a2bd a339 723e
00000170: 2152 fb3d 63e3 a23d b74c ccbd 1b81 413c
00000180: b432 9c3e 3cf3 81be 7b98 b33e 4136 0c3d
00000190: ece1 93be 9a56 a23e 58da 89bc 64c1 4d3e
000001a0: 4f06 1f3e e8f7 e7bc 3e17 81be d60b 1d3e
000001b0: a4c3 3a3e dc89 173e 8924 ebbd 87c1 9a3e
000001c0: d2d4 48be 8064 4d3e 48a1 8a3e 5999 a23e
000001d0: a21e abbe 5a9c 28bc f97f 1d3e 19f6 973e
000001e0: 7bf7 8b3e 79a6 0f3e 7878 e1bb 167f 93be
000001f0: 8558 d8bc e096 9abe 7940 d6bc 8ba5 93be
0.30103898 0.3532271 -0.18209843 -0.13685422 0.3066576 0.32927713 -0.31704628 0.12764119
-0.00042707127 -0.23698542 -0.09104953 0.33141476 0.0962882 0.20329422 0.2423145 0.33415633
-0.057490375 0.20135613 0.07718043 0.1540599 0.13011892 -0.22669439 0.26811698 0.06348792
0.26284498 0.056915008 -0.0027968849 0.15451951 0.0439168 0.10611816 -0.14536455 -0.004220409
-0.06609372 -0.11025219 0.033921998 -0.033321302 -0.08878028 0.3182522 -0.11814004 0.17008498
-0.12944944 -0.14810774 0.055350926 0.19804235 0.22377202 -0.23040327 -0.2515221 0.3507949
0.22981313 -0.00060378213 0.18446693 0.01430318 -0.1448915 -0.15627901 0.035977952 0.21971992
0.07107296 -0.10691709 0.31081492 0.3363319 0.03332928 0.103529215 -0.17461325 0.13279365
-0.069667704 -0.21474086 -0.01243387 -0.09790337 0.09162367 0.26467606 0.30073848 0.23398674
0.3282644 0.047339156 -0.30219063 -0.022219209 -0.1921678 0.19181474 -0.16707245 -0.29398093
-0.24359486 -0.24753359 0.23938148 -0.12582737 -0.13591409 -0.18118313 0.17028943 -0.097033635
0.035874385 0.04359988 -0.07951992 0.23654799 0.12271524 0.07953527 -0.0997557 0.011810566
0.30507433 -0.25380886 0.3507727 0.034231428 -0.28883302 0.31706697 -0.016827747 0.20093304
0.1552975 -0.028316453 -0.25213045 0.15336546 0.18238693 0.14798683 -0.11481578 0.30225775
-0.19612435 0.20057869 0.27076173 0.3175762 -0.33421808 -0.010291183 0.15380849 0.29679945
0.2733725 0.14028348 -0.006880816 -0.28807896 -0.026409397 -0.30193233 -0.02615379 -0.28837237

bias f4 [16]
00000000: 404e 823e f692 25be 7a5a edbb 9682 fa3d
00000010: da8c 00be 97ad bfbd 3da9 a3be 1a58 9d3e
00000020: b74a 7bbe 453e b4bd 3898 aa3e 7fc1 81be
00000030: 7775 5b3e 4fb7 9e3d ac5d 9c3e 2051 92bd
0.25450325 -0.16169342 -0.0072434517 0.122319385 -0.1255373 -0.093592815 -0.31965056 0.3073128
-0.2454022 -0.088009395 0.3331926 -0.25342938 0.21431528 0.07749807 0.30540216 -0.071443796

weight f4 [16, 8, 1, 1]
00000000: 8a7d 413e 8bc6 71be bc14 483d 90e1 9bbe
00000010: 8e8e 95be fc4b 3abd fd98 513e 44e8 8b38
00000020: 259c 563d 410d 9b3d a18f 33be 39b5 713e
00000030: 2675 b03e 7c85 563e 56ce 1a3e 6659 d7bc
00000040: 825e 2f3b 003c efbc 78af 94bd 1c75 473d
00000050: c9e8 b8bc ee9a 04be a7ab 98be 59e4 4a3e
00000060: 6145 6abe c0fc 783d 6213 24be b765 ab3e
00000070: 3789 8cbe 305e ae3e cd07 4dbe c29a 76bd
00000080: 3fca f23c 738b 96be 076a a33e 3fb8 93be
00000090: accf 48bd 8577 8c3e 4269 b43e 94c6 a3be
000000a0: c71c 8bbe ff58 99be a988 fe3d b857 2e3e
000000b0: 8470 783e 6c89 453e 2dca e4bd 22ce 77bd
000000c0: 4275 92bd 8d24 18be 3378 dbbc 429d 963e
000000d0: ac06 63bd aac9 953e b96b a2be def1 bdbd
000000e0: 6c69 7d3e 2007 863e b916 f0bd 7efe 75be
000000f0: 2fba 6f3e 3d71 9d3e 9669 2abe 379f 393e
00000100: c648 d83d b055 a7be 4384 8c3e 383b 3a3e
00000110: 096a 36be 1aca 613e e3fb 74bd 76e5 b4bd
00000120: 0d7d d63d 460f 9ebe cf74 b53d 66f3 863e
00000130: 5b7d 65bd 0783 6d3e f419 353e 2a75 a0be
00000140: 6a25 763e d991 b9be ba4c a3be 80e0 80be
00000150: d1de a2be d1cf 993e b6bb 42be d0bb 7d3e
00000160: b60b 5e3e 5cc3 83bd bbf9 8e3e c64b d43d
00000170: ed1e 9c3e 3064 32be 5478 953e 91fe c3bd
00000180: c98a a4be d01d 7e3d cc73 72be 6ebf d1bb
00000190: bcb1 88bd f0c6 393d 11b9 8cbe 69f5 783e
000001a0: 88fd 18bd aa2b 33bd 79ee 19be ca4a cabd
000001b0: 6505 0f3e de0c a8be d2fb b9bd 33f3 f6bc
000001c0: 57f3 cfbd b606 b03e 0402 8cbe f69a f0bc
000001d0: 002a a33d a07f 0d3e 8ac6 e6bd ac5a 32be
000001e0: df36 4fbe 0a62 2abe 92b8 013e 5753 643e
000001f0: 364c 513d 521f b13e c5df a4bc aea2 f63c
0.18895546 -0.23610894 0.0488479 -0.30445528 -0.29210323 -0.04548262 0.20468517 6.671299e-05
0.052395005 0.07570887 -0.17535259 0.23604287 0.34464377 0.20949358 0.15117773 -0.026287746
0.0026759212 -0.029203415 -0.072600305 0.04869567 -0.022571938 -0.12949726 -0.2981846 0.1981367
-0.22878028 0.060787916 -0.16023019 0.3347604 -0.27448437 0.34056234 -0.20022507 -0.060206182
0.029637454 -0.29403266 0.3191683 -0.28851506 -0.049026176 0.27434936 0.35236555 -0.3198744
-0.27170393 -0.2995071 0.124284096 0.1702565 0.24261671 0.19290704 -0.111713745 -0.060499318
-0.071512714 -0.14857693 -0.026790714 0.29416853 -0.055426285 0.2925542 -0.3172281 -0.09274648
0.24747247 0.2617731 -0.11723084 -0.24022862 0.23410867 0.30750456 -0.1664184 0.18127142
0.105607554 -0.32682562 0.27444658 0.18186653 -0.17813887 0.22049752 -0.05981053 -0.08832829
0.1047307 -0.30871028 0.0886017 0.26357573 -0.05602775 0.23194514 0.17685682 -0.3133939
0.2403771 -0.36244085 -0.31894475 -0.2517128 -0.3181062 0.30041364 -0.19016919 0.24778676
0.21684155 -0.06433746 0.27924904 0.10366015 0.30492344 -0.17421031 0.29193366 -0.09570039
-0.32137135 0.06204015 -0.23676986 -0.006400994 -0.06674525 0.045355737 -0.27484944 0.24312367
-0.03735116 -0.043742813 -0.15032376 -0.09877546 0.13966902 -0.32822317 -0.09081234 -0.030145263
-0.10153835 0.3438012 -0.27345288 -0.029370766 0.07966995 0.13818216 -0.11268337 -0.17417401
-0.20235775 -0.16638961 0.12668064 0.22297417 0.05109807 0.34594208 -0.020126233 0.030106869

bias f4 [16]
00000000: b62f 1a3e a83d 8e3e 9362 94be 1434 b03e
00000010: b2e6 80be 91a2 9e3e 0b42 ab3d 8a47 06be
00000020: 8e5e 9bbe a2f6 5ebe 98eb 9b3d cf22 703e
00000030: 07c9 063e 3d99 1ebe dc1a 873e 042b 0cbe
0.15057263 0.27781415 -0.28981456 0.34414732 -0.25176007 0.30983403 0.08362206 -0.13113227
-0.30345577 -0.2177377 0.07613295 0.23450778 0.13162623 -0.15488143 0.2638768 -0.13688284

weight f4 [16, 16, 3, 3]
00000000: cf77 573d b80d f73c fbb7 4a3d c577 713d
00000010: f48b 6c3d 15aa 963d 5d98 b5bc 08dd 863d
00000020: be4a 123d 626f 723d 5cd3 71b9 3c64 6bbd
00000030: 09ff 2bbd b564 5f3d ee12 873d 0d07 a13d
00000040: 2aef 0bbd 2aad 70bd a042 28bc fe7b 523d
00000050: d91c 1abd 7a68 72bc caab 5cbd b146 00bd
00000060: 316a 54bd e750 743c 4321 94bd 50e2 673d
00000070: 933d 833d 52e0 8e3d 03e2 9cbd da74 a3bd
00000080: 4955 603d a64f 76bd d6c4 0b3d fb33 65bd
00000090: 113f 763d c0cd 653a e8ad cb3c 3bf4 3abd
000000a0: 1177 3fbd 8557 843c a2e3 17bc dcc0 a63d
000000b0: 2aa6 353d 5719 84bd 4b33 57bc 6877 3f3c
000000c0: 2780 4b3d 33a8 c43c 76ee 883a 082a 94bd
000000d0: 4165 433d 82f0 e63c 519d 373b 9ef9 013c
000000e0: 1b03 0fbd 21e5 8e3d 97e6 9a3c ce7b c1bc
000000f0: 3622 0a3d 7042 943d 7c67 17bd cf98 7fbd
00000100: a16d 863d 2f66 5ebd e3bd 963d 3b04 cd3c
00000110: 6207 193c 8771 333d 608b 61bd 7a13 4dbd
00000120: 6e33 e93c 92c1 9c3d 6972 4cbb 6dab 993d
00000130: 6174 a03d a6ab 6abc 09c1 683b 0398 5cbd
00000140: 8912 8bbd c2a5 35bd 0b34 933d 19ec d6bc
00000150: 5d95 83bd 130f 8dbc 3d0d 77bd d362 71bc
00000160: 8c49 f8bc 1c82 78bd fc18 00bd 57e7 973d
00000170: a599 82bb 7051 92bc be19 173d 6b02 93bc
00000180: d436 883d a50c a63d f73f 3f3d f365 ea3c
00000190: dc2d 543d ad63 11bd dfe7 99bd 3740 c7bc
000001a0: c456 d73c 54f7 883d a945 d6bc da2a 28bd
000001b0: 67f4 74bd 697c 94bd f63d 733d d2c7 843b
000001c0: 7c0d 7ebd 03ed f8bc d6b6 1d3d c5c9 653d
000001d0: cc34 903c 9e22 773d 1e12 8e3c 0d1a 2bbd
000001e0: 01e1 9bbd a2a3 30bd 4abc 223d 56bd 643d
000001f0: b5ab bb3b c338 cebb 338a 4bbd 160a 623d
00000200: 910e 5f3d e369 93bd c05e c6ba 144b 63bd
00000210: ada9 973d b64e 903d 5ebb 5abd ead4 b93c
00000220: 70dd 513d 4223 60bc a391 813d 37a6 22bb
00000230: e29b 60bd 0847 5abc e3b5 66bd 4d3c 2e3d
00000240: 7816 4fbc 2c9d d43c cc38 9f3c 3b8a 72bd
00000250: 4386 9e3d 758d 933d b275 883d ae2b 4e3d
00000260: bba7 ef3c 606d e5bc dd28 69bd 59e0 8a3c
00000270: 2695 c13d e457 bd3d 0dc9 7e3d 165b 573d
00000280: f6d2 bcbb edb1 443c a551 78bd b2a0 46bc
00000290: 8a38 9ebd dbcb 9cbb e34f a1bd 1f46 82bd
000002a0: 76a3 383d d765 1e3d 295a 5dbd a8a0 103c
000002b0: aca4 2d3d e74a c5bb b823 59bd 7c3b 9cbd
000002c0: 008f 3cbd 8e9a fbbc b93c 973d 6bc4 293d
000002d0: eef6 1c3d adf8 8abd 1373 623d 23ae 7f3d
000002e0: d21b 103d be09 463d a355 683d c5ec 6dbd
000002f0: a9e0 893c f6bf 533d 2226 7ebd 9870 a23d
00000300: 5854 45bd fc2b 9dbd b269 8d3c 3808 94bc
00000310: 3c6c 82ba c3d2 633d 7657 a43d 5a07 2fbd
00000320: 7492 26bd 09eb 27bd ce11 db3c 1d04 6b3d
00000330: b7bd 0a3d 8dad 243d bb43 9cbd c1ad 88bd
00000340: 317b a93d 279a ec3c 4d31 bdbc c43e f1bc
00000350: da62 433c 3991 183d 93f3 62bd 89a5 66bd
00000360: 4ada db3c f0ab 273d 9996 813d 3800 2e3d
00000370: 09d0 4ebc 8b96 dfbc 2d3f 853d 2ba4 ac3d
00000380: 7bff 4b3d ee88 193d f758 7cbc e582 d93c
00000390: e06f 3fbd b1e1 893b 1be0 2cbd 86d1 e33b
000003a0: 729d a73b 377a c7bc d511 3b3d c675 2c3d
000003b0: f716 25bb 0a45 043d 937d b63c 0738 623d
000003c0: db01 f03c 3743 913d a8ca acba 309f 87bb
000003d0: 8a9c bf3c 8acf 05bb 47d8 05bd 200c cb3c
000003e0: 220c e3bc c9da 513d 6c97 fbbc 9877 8ebc
000003f0: c692 09bd 98ab 44bd b9f5 4a3d 92b8 98bd
0.052604493 0.030157909 0.049491864 0.05895211 0.057750657 0.07356659 -0.022167379 0.06585127
0.03571581 0.059188254 -0.00023062289 -0.057468638 -0.041991267 0.0545394 0.065954074 0.07862673
-0.03416363 -0.058758892 -0.010269791 0.05138778 -0.037625168 -0.014795417 -0.05387477 -0.031317417
-0.051859085 0.014911867 -0.07232907 0.056612313 0.06408229 0.069763795 -0.07660296 -0.07981272
0.054768834 -0.060134552 0.034123264 -0.055957776 0.06011874 0.0008766316 0.024863198 -0.045643073
-0.04674441 0.016155014 -0.0092705805 0.08142254 0.04434792 -0.06450146 -0.013134788 0.0116861835
0.049682762 0.024005985 0.0010447043 -0.07234579 0.047703985 0.028190855 0.0028017352 0.0079330485
-0.03491507 0.069772966 0.018908782 -0.023618605 0.033724032 0.072392344 -0.036963925 -0.06240159
0.06563879 -0.05429667 0.07360437 0.025026431 0.009340139 0.04380944 -0.05506456 -0.050067402
0.028466906 0.07654108 -0.0031196123 0.075034 0.078346975 -0.014323151 0.0035515449 -0.053855907
-0.06790645 -0.044347532 0.07187661 -0.026235627 -0.06424973 -0.017219102 -0.06031536 -0.014733034
-0.030308507 -0.060670957 -0.031273827 0.074171714 -0.003985601 -0.017861098 0.036889784 -0.017945489
0.06651083 0.081078805 0.04669186 0.028613066 0.051801547 -0.03549545 -0.07514929 -0.024322612
0.02628649 0.06687799 -0.026156263 -0.04105649 -0.059803393 -0.07250292 0.059385262 0.0040521407
-0.06202458 -0.030386453 0.038504444 0.056100626 0.0176033 0.060335748 0.017342623 -0.04177289
-0.076112755 -0.043124802 0.039730348 0.055844627 0.005727256 -0.0062933876 -0.049692344 0.0551854
0.05445725 -0.07197931 -0.0015134439 -0.055491522 0.0740541 0.07046263 -0.053401344 0.022684533
0.05123657 -0.013680281 0.06326606 -0.002481831 -0.05483616 -0.013322599 -0.056325804 0.042537976
-0.012639634 0.025953852 0.019436263 -0.059213858 0.07740452 0.07204715 0.066630736 0.050334625
0.029254785 -0.028006256 -0.056923736 0.01695268 0.09452276 0.092452794 0.062203456 0.0525771
-0.005762453 0.012005311 -0.060624737 -0.012123274 -0.07725628 -0.0047850437 -0.07876565 -0.06361031
0.045077763 0.03867134 -0.05404106 0.008827366 0.04239337 -0.006020892 -0.05301258 -0.07628533
-0.046034813 -0.030713346 0.07384629 0.041447084 0.038321428 -0.067857124 0.055285525 0.06242193
0.03518278 0.048349135 0.056722295 -0.05808713 0.01683076 0.05169674 -0.062048085 0.07931632
-0.04817614 -0.07674405 0.017262314 -0.018070325 -0.0009950469 0.05562092 0.08024494 -0.04273162
-0.040667012 -0.04099563 0.026741888 0.05737697 0.033872332 0.040204573 -0.07630106 -0.06673766
0.0827545 0.0288821 -0.023094798 -0.029448874 0.0119254235 0.03724787 -0.05540807 -0.05631021
0.026837487 0.040935457 0.06327552 0.042480677 -0.012622842 -0.027293464 0.065061904 0.0842975
0.049804192 0.037484102 -0.01540207 0.026551673 -0.04673755 0.0042078127 -0.04220591 0.0069524674
0.0051152045 -0.024350269 0.045671303 0.042104505 -0.002519069 0.032292403 0.022276675 0.055229213
0.02929776 0.07092898 -0.0013182955 -0.0041388497 0.023390073 -0.0020417892 -0.03267696 0.024786055
-0.027715746 0.05123404 -0.030711852 -0.017391011 -0.03358724 -0.048015207 0.049550746 -0.07457079

bias f4 [16]
00000000: 9ed5 f6bb 3308 54bd a16e c43d 9c61 6cbd
00000010: 5ef9 9ab9 f406 983d 55a6 5a3c 3a54 0d3d
00000020: 3b3c a13c 0cec 8a3d bcd1 533d a91e 0a3c
00000030: fb71 823d fe55 cfbc cdc8 3a3d 192d c13d
-0.0075327894 -0.051765632 0.09591413 -0.057710275 -0.00029558962 0.07423201 0.013345321 0.034504153
0.01968204 0.067833036 0.05171369 0.0084301615 0.06369396 -0.025309559 0.045601655 0.0943243

weight f4 [32, 16, 3, 3]
00000000: f034 32bd 8013 0fbc 9e95 0a3d a917 6e3d
00000010: d64f 963d d5d5 a03d 0bc6 1c3c 20b3 7d3d
00000020: 8c16 c7bb 25a0 5bbd 4fdf 773d 938b 2ebd
00000030: d023 50bc 590f 103d d084 2c3d 17ea 1c3d
00000040: ce24 a8bc 8896 c5bb 9b6f b6bd 7d6d 64bd
00000050: 8858 413d 5845 7ebd 8d43 543d ffa1 fc3c
00000060: f067 31bd e91b 0dbd 711a 62bd abdb 973d
00000070: 26fa 513d 55b1 93bd ec80 f7bc 898e 51bd
00000080: 6e7f f43c 7a48 903d 8544 c7bc 77c8 7e3d
00000090: d8de 84bd 05e8 27bd 504f 1b3d e7b9 5e3d
000000a0: da88 cf3b fe3a 303d 3a75 cebc 5a1c d43c
000000b0: 5890 303d 941b e0bc 2d51 80bc 6210 823d
000000c0: 6d39 0e3a 338a 943d 41f8 693d 8d47 e13c
000000d0: 6335 cbbc 6f0f b1bb c7d6 043d 0fd3 613d
000000e0: 18f2 80bb 0b74 27bd b165 a2bd 4230 a3bd
000000f0: c2d6 993c 1c5c edbc c901 00bd 60ac d8bc
00000100: 55b2 873d dd4b f3bb 5097 44bc 5d51 8f3d
00000110: 7506 49bd d704 463d 4a0a 78bd 755f 9f3d
00000120: bf95 f33c aed4 b9bb 62be 873d bde9 98bd
00000130: 7639 1bbd 635a dc3c d169 2cbd bfef 27bd
00000140: 8c4c 663d 78f5 993d c95e 27bd 84af 933d
00000150: b194 ff3c ebe2 80bd 3db3 4f3d c5d3 443c
00000160: 5403 933d a867 693d e0da ac3c 3501 5e3d
00000170: b9f8 1e3d 382b ce3c 43fc a0bd e277 2c3d
00000180: da04 533d 92e3 0abd 033d 84bd f16b 673c
00000190: 4985 943d a226 993d be12 233d 91f8 8f3c
000001a0: 5f81 9e3d fb6c 523d 8861 34bd cfea 383d
000001b0: c936 563d 62a1 b73b 04a5 58bd 46d6 3d3d
000001c0: 8195 673d 0120 0f3c 3937 513d d348 eabc
000001d0: 02be 0e3d 7666 45bd d66d 53bd 5b25 52bd
000001e0: 6608 333d 7997 963d 7973 0b3d 1357 983b
000001f0: 978a 79bd 9817 31bd 4eec d53c 98ce 7abd
00000200: 5072 d13c a984 73bd 0c58 6f3c 3f78 ca3b
00000210: a78b 1dbd 1a33 2c3d 0145 90bc c9da 31bc
00000220: a87d 10bd 6661 c0bd a23a cbbd 4173 913c
00000230: 2d9b 03bd 0b91 ffbd bb06 dfbd a0d5 4e3d
00000240: 258e bcba 2e0a f8bc 188f 673d 5b60 a93d
00000250: 8565 bd3b faae a43d b0ea 0fbc 3ee2 573d
00000260: f8c5 9c3d 3238 4dbd c8a1 84bd e63a ab3c
00000270: 6396 69bc a64f 37bd 65b1 2a3d 7af1 c3bc
00000280: b1c5 97bd 12c6 e13c e01c 21bd 4861 38bd
00000290: 8fc2 87bd 8c69 57bd 7820 503d 0784 c7bb
000002a0: 3a81 81bd 6c1d 8e3d bc91 b93c 72b2 82bc
000002b0: 4613 a8bc eb8d 24bc 47f9 253d e17c 8d3d
000002c0: 3f2d 37bd 69fc 88bd 4ee0 493d 9c53 8ebd
000002d0: deba 2d3d fe54 8a3d 4813 adbc 70f6 15bd
000002e0: 98fe 923d 8166 6bbd 8ef3 11bd 5777 133b
000002f0: 9e20 0d3d 0f56 8ebd d1d0 59bd 2cad 89bd
00000300: e27b 883d 102b 023d 15dc 56bd a85b 86bc
00000310: 80a0 b2bc 9211 863d 6e8e 323d a983 febb
00000320: 3d80 473d 4d34 9fbc ebdd 12bd 9ee9 5a3d
00000330: df16 2b3d 8005 9abd c660 74bd 34c9 083d
00000340: 3984 6c3d 25d6 6e3d 12cb fe3c 90f1 2c3c
00000350: c522 933b 5a85 893c a827 b4bc 2896 74bd
00000360: 0408 7c3c 78da e4bc e94b 9a3d 9bac 76bb
00000370: 394e 9d3d 91a8 843b f1dd a33d c824 253d
00000380: 4bfc 88bc 666e 203b 93db d7bc 33cd 0bbd
00000390: 8654 d63c d628 9dbb 8e0c 8f3d f94a a4bd
000003a0: dbb3 54bd 1e70 623d 62e5 3b3d 7aa4 58bd
000003b0: a23e 1c3c ed9e a0bd f9a9 863d e4a8 0d3d
000003c0: 252b c23c a4e2 c9bb aaca 073d edc5 81bd
000003d0: 4adf b6bb a186 f3bc 0292 bdbc a3ab 1b3d
000003e0: 838b 14bd c87c 663d 1faa e2bc 7e36 90bd
000003f0: 4e37 ebbc f356 8b3d b2a9 a4bd 392e 14bc
-0.043507516 -0.0087326765 0.033834092 0.058128033 0.07339446 0.07853285 0.0095687015 0.061938405
-0.006075686 -0.053619523 0.060515698 -0.042613577 -0.012703851 0.035170887 0.042118847 0.038309183
-0.020525362 -0.0060299076 -0.08908006 -0.05576848 0.04720357 -0.06207785 0.051822234 0.030838965
-0.043312013 -0.034450445 -0.055200998 0.07414945 0.05126395 -0.07211558 -0.030212842 -0.051161323
0.02984592 0.07045074 -0.024324665 0.062202897 -0.064878166 -0.040992755 0.037917435 0.05437651
0.0063334526 0.04302501 -0.025202382 0.025892425 0.043106407 -0.0273569 -0.015663708 0.06350781
0.0005425427 0.07252922 0.05712152 0.027499938 -0.02480573 -0.005403451 0.03243139 0.05513292
-0.00393511 -0.04088215 -0.07929552 -0.07968189 0.018779162 -0.028974585 -0.031251702 -0.026449382
0.06625811 -0.007424815 -0.011998966 0.06997941 -0.049078424 0.04834446 -0.060556687 0.07781879
0.02973449 -0.0056711053 0.066281095 -0.07466457 -0.037896596 0.026898568 -0.042093102 -0.041000124
0.056225345 0.075175226 -0.04086188 0.07211211 0.031198831 -0.06293281 0.050708044 0.01201338
0.07178369 0.05698362 0.021100461 0.05420037 0.03881142 0.025167093 -0.07860615 0.042106517
0.0515183 -0.033908434 -0.064569496 0.014124856 0.072519846 0.07478072 0.039812796 0.01757458
0.07739519 0.051373463 -0.044038326 0.045145806 0.05229834 0.005603955 -0.052891746 0.046346925
0.056539062 0.008735658 0.051078055 -0.028599178 0.034849174 -0.048193417 -0.05161842 -0.051305156
0.04370918 0.0735311 0.03404567 0.004649052 -0.060923185 -0.04323539 0.026113655 -0.06123218
0.025567204 -0.059452686 0.014608394 0.006178885 -0.03846326 0.04204092 -0.017611029 -0.010855385
-0.035276085 -0.09393577 -0.09923293 0.017755153 -0.03213041 -0.124788366 -0.108899556 0.050496697
-0.0014385624 -0.030278292 0.05653295 0.082703315 0.0057799243 0.08041187 -0.008783981 0.052705996
0.07654947 -0.05010242 -0.0647617 0.020902108 -0.014257046 -0.044753693 0.041673083 -0.023918856
-0.074107535 0.027560268 -0.039334178 -0.04501465 -0.06628906 -0.05259089 0.050812215 -0.006088737
-0.06323476 0.069392055 0.0226525 -0.01595423 -0.020517003 -0.0100436015 0.040520933 0.069085844
-0.044720884 -0.066887684 0.04928618 -0.06949541 0.04241454 0.06754492 -0.021127358 -0.036611974
0.07177466 -0.057470802 -0.035632662 0.0022501552 0.034454934 -0.06950008 -0.05317766 -0.06722483
0.06664254 0.03177935 -0.05245598 -0.016401127 -0.021805048 0.0654632 0.043592863 -0.00776716
0.048706282 -0.019434119 -0.03585617 0.05344545 0.04176986 -0.0752058 -0.059662603 0.033395007
0.057743285 0.058309693 0.03110269 0.01055564 0.004490229 0.01678722 -0.021991566 -0.059713513
0.01538277 -0.027936205 0.0753401 -0.0037639502 0.076809354 0.004048415 0.08001316 0.04031828
-0.016721865 0.0024479865 -0.026349818 -0.03413124 0.02616335 -0.004796128 0.069848165 -0.080221124
-0.051929336 0.055282705 0.045873053 -0.052891232 0.009536417 -0.07842813 0.065753885 0.034584895
0.023702214 -0.006161051 0.03315226 -0.063365795 -0.0055808173 -0.029727282 -0.023140911 0.038005482
-0.03626586 0.056271344 -0.02766901 -0.070416436 -0.028712895 0.068036936 -0.08040179 -0.009044223

bias f4 [32]
00000000: 24ff 4b3d face 99bc 73fd 91bd 3fbc 253c
00000010: 1d12 76bd 5b09 803d 03bb b7bc d7df 863d
00000020: 812b 8bbd 489d 80bd a186 143d cfd1 5a3c
00000030: 6534 9d3d 4933 943d 3cc1 79bd 468b cc3c
00000040: a25d 15bd ecde 463d 91bd 69bd 263c 6e3d
00000050: 75eb a13d d08e 753d 64ca 82bd 7041 0c3d
00000060: dcf8 ab3d 6e3e 273d 67c5 99bc 829f 99bd
00000070: 6575 b83d aa3e 7a3d b40c 4e3c 44ab 883d
0.049803868 -0.018775452 -0.0712842 0.010115682 -0.060075868 0.062517844 -0.022428041 0.06585663
-0.06795407 -0.06279999 0.036261205 0.013355686 0.07676009 0.07236344 -0.0609753 0.024968755
-0.03646625 0.04855244 -0.05706555 0.05816283 0.07906238 0.05995065 -0.06386259 0.034242094
0.083970755 0.040831022 -0.018770887 -0.07501127 0.09006766 0.061094917 0.012576271 0.06673291

weight f4 [32, 32, 3, 3]
00000000: 709c 533d 4c3b fd3c a6be d0bc d836 05bd
00000010: fb41 33bd ae78 33bd e2d7 3d3b cc51 e43c
00000020: 178a 213d a42f 63bd 36ce 393d 721c 41bd
00000030: 2325 37bd 8107 483d b009 3ebc 61d3 07bd
00000040: bd87 d9bb c125 abbb 5fde 693d a49d 613d
00000050: 52f8 1d3c 3d74 64bc 9b9f 33bb fc8c 623d
00000060: e246 5bbd 3e74 053c e0e4 d0bc 33b2 51bc
00000070: e1fb 953c b179 63bd 0fab 2fbb b6b7 28bd
00000080: 0ae5 b83c 44b4 223d ce7e 93bc 7575 05bd
00000090: 3ad4 ca3c 7b74 cbbc 929c 963c db14 42bc
000000a0: 342f e0bb 9afb 04bc 3fc3 4fbb ad61 89bb
000000b0: 09f9 d63c cd9e 2cbd fe06 d03c b06c 043c
000000c0: 39e4 1ebd 2047 01bd ba6b 343c 3706 4d3d
000000d0: e39e 3bbc 4783 083d 10a5 4b3d bd3e e83c
000000e0: 4c3f 373d 6dfa f3bb 41de 92bc 1535 cf3c
000000f0: 7d8f 31bd 4b38 333d 3682 6fbd c6eb 13bd
00000100: d2db fdbb 30ba 8c3c 5fc4 1d3d 84a2 ce3c
00000110: a30c 663d c904 0fbd 8bd9 f53b 2164 cd3b
00000120: 8c65 013c 0381 4a3d af3d c2bc 84c2 25bd
00000130: 252a 72bd 9170 fcbc d936 bebc efa3 1e3d
00000140: b1b3 4cbc 5749 38bd ff9d 4d3d 0c11 44bd
00000150: 1719 f03c 8d67 1dbc 9c5b 52bc 8d79 a8bc
00000160: c8af f7bc 0bab 443d 88a8 3bbd 849f 0dbd
00000170: 6503 29ba e0a3 bd39 1202 2a3d 5bc3 773d
00000180: 0f61 1abc 7cd6 0d3d cbf1 073c 408b 9dba
00000190: 7108 9ebc bd70 12bc 70a1 ff3a 6111 f33b
000001a0: f1de 71bb d942 193d 9725 24bc 828b 5cbd
000001b0: ba21 033d d656 e1bc 1a52 77bc 1712 3ebd
000001c0: 3418 49bb fba9 8b3c cb10 d83c b0a1 8bbc
000001d0: 97fb 3cbd d3f5 aebb 3dc5 42bd a2ef b53c
000001e0: b390 183d 40b2 6f3c a960 b9bc cbd3 09bd
000001f0: e4f6 fcbc e93c 59bd 3e1f 493b ad22 673d
00000200: 8195 373d 1a57 a9bc 8e9f 4dbd 7886 1a3d
00000210: 915c dc3c 9e4e cbbc 244b 28bd 6633 24bd
00000220: 4790 a6bc bd69 7dbc 94f9 62bd e746 98bc
00000230: 907d 75bc 1a97 5a3d fb6b 71bc b4f8 b43c
00000240: 9214 06bd c335 293c fa3f bc3c 92fb 273d
00000250: 36ea 14bd fbac 0abd f8f5 3a3d 4cd6 173d
00000260: ac65 153d 338b 5d3c 2c09 b83c c100 42bc
00000270: 41b3 b1bc 1a87 3cbd 73ae 0dbd fcb0 04bd
00000280: 6b55 433d 1fa0 09bd 0b31 25bd 7823 d4bc
00000290: 6cce 8bbc 502e 25bc 078f 4bbc f518 23bc
000002a0: 9f00 fbba 05d4 803d a939 10bd 368a 41bd
000002b0: e704 96bc 5942 8a3c d1ae 063d 60cc 4c3d
000002c0: ee62 8f3c fc6c 88bc b9de e03c 24c7 f9bc
000002d0: 3b82 5cbd e637 353d 55d4 1d3d 0c29 8d3c
000002e0: caa9 0bbc 1ffd f43c 11c4 b5bc 2d18 e1bc
000002f0: 3e23 0fbd 28d4 aabb e51e b1bb 9318 303c
00000300: 857b a5bc b29d 353d f330 c4bc 5123 47bc
00000310: 3735 b0bb 34aa 063c 2a34 c33c ee23 793d
00000320: bb83 4cb9 efdc b4bc 8b9c 6c3d 9832 8f3c
00000330: c434 1d3d 842d 99bc 3bb3 26bd 316b 52bd
00000340: 6701 a33c 1ea1 82bd 5dd2 de3b aa60 b53c
00000350: cee7 69bd b524 64bd e55f 43bd 71b9 51bd
00000360: bd6c f8bc cc7e 743d 3a6c 99bc 48e9 003d
00000370: 171b 08bd 1d31 0cbd 7ab8 773d 9f60 0bbd
00000380: 4b1a a83c 0b3b 67bd 91a0 0bbd ff1a 88bc
00000390: d204 463b 2cbf 2b3c b1a0 06bd 91da a13c
000003a0: 21e0 0cbd 1afe 2f3a edae 383d 5972 a2bc
000003b0: 8670 b3b9 0208 eb3c d444 8cbd 8f1f bb3c
000003c0: 21c9 82bc ed4d c73c 41f7 043c ad84 c73c
000003d0: 0782 8a3a 5233 d83c 391b 33bd 9d3a 75bc
000003e0: a8b0 babc ebb0 c43c ceda 033d bbdf 6abc
000003f0: 2563 0a3b abb0 5c3c a212 fe3c 4c4b 23bd
0.051662862 0.030912064 -0.025481533 -0.032523006 -0.043764096 -0.04381626 0.0028967788 0.027871035
0.039438333 -0.055465356 0.045362674 -0.04714627 -0.04471315 0.04883528 -0.011598989 -0.03316057
-0.0066384957 -0.0052230065 0.057096835 0.05508198 0.009641724 -0.013943729 -0.0027408365 0.055310234
-0.053534396 0.00814539 -0.025499761 -0.012798834 0.018308582 -0.055535976 -0.002680484 -0.041190825
0.022570152 0.039722696 -0.018004801 -0.03258272 0.0247594 -0.024835816 0.018385205 -0.011845793
-0.0068415646 -0.008116627 -0.003170207 -0.004192552 0.026241796 -0.04214363 0.02539396 0.008082554
-0.03879187 -0.03156197 0.011012012 0.050054755 -0.011451456 0.03332832 0.049717963 0.028350228
0.0447381 -0.0074456246 -0.017928245 0.025293866 -0.04334973 0.043754857 -0.05847379 -0.036113523
-0.007747152 0.017178625 0.038517352 0.025223978 0.056164395 -0.034916673 0.00750274 0.00626804
0.007897746 0.04943944 -0.023711054 -0.040468708 -0.059122223 -0.030815395 -0.023219513 0.038730558
-0.012494014 -0.044991817 0.050199505 -0.04786782 0.029308839 -0.009607208 -0.012839224 -0.020565772
-0.030235186 0.04801468 -0.04581502 -0.034575954 -0.0006447344 0.00036170986 0.04150588 0.06048904
-0.009422555 0.034628376 0.008297394 -0.0012019649 -0.019291135 -0.008938012 0.0019503068 0.007417843
-0.0036906565 0.037417267 -0.010018728 -0.053843983 0.032014586 -0.027507227 -0.015095258 -0.04640397
-0.0030684592 0.017048826 0.026375195 -0.017044872 -0.046138372 -0.005339363 -0.047551382 0.022208992
0.03724737 0.0146299 -0.022629099 -0.033649247 -0.030879445 -0.053036604 0.0030688788 0.056429554
0.044820312 -0.020671416 -0.05020099 0.037725896 0.026899608 -0.024817761 -0.041087285 -0.04008808
-0.020332469 -0.0154671045 -0.055413797 -0.018588496 -0.01498355 0.053366758 -0.014735217 0.022091247
-0.03273446 0.010327759 0.022979725 0.0410114 -0.036356173 -0.033856373 0.04564473 0.037069604
0.036473915 0.013521957 0.022465311 -0.011841 -0.02169192 -0.04602728 -0.034590196 -0.032395348
0.047688883 -0.03359997 -0.040329974 -0.025895819 -0.017066203 -0.010081843 -0.012424237 -0.009954681
-0.0019149965 0.062904395 -0.03521124 -0.04725095 -0.018312884 0.01687734 0.03288156 0.049999595
0.017503228 -0.01665353 0.027449952 -0.030490465 -0.053835135 0.044242762 0.038532574 0.017231487
-0.008524368 0.029905854 -0.022188218 -0.027477348 -0.03494572 -0.0052132793 -0.0054052942 0.010748046
-0.0202005 0.044339843 -0.023949122 -0.012154416 -0.0053774375 0.0082192905 0.023828585 0.06082528
-0.0001950403 -0.022078006 0.05776648 0.01748018 0.0383804 -0.018698461 -0.04069827 -0.051371757
0.01989813 -0.06378387 0.0067999796 0.02214082 -0.05710583 -0.05569907 -0.047698874 -0.05120224
-0.030325288 0.059691235 -0.018728364 0.031472474 -0.03322896 -0.034226526 0.060478665 -0.034027692
0.02052035 -0.056452792 -0.034088675 -0.016614435 0.0030215275 0.010482591 -0.03286809 0.01975754
-0.034393433 0.00067135843 0.045088697 -0.019829916 -0.00034225377 0.028690342 -0.068490654 0.022842197
-0.015965046 0.02432915 0.008115591 0.024355257 0.0010567316 0.026391659 -0.043727133 -0.014967588
-0.022789314 0.024010142 0.03219109 -0.014335568 0.0021116224 0.013469855 0.031014744 -0.03986673

bias f4 [32]
00000000: e926 2e3d e5af e3bc 6195 eebb 22b5 683d
00000010: f904 47bc e104 3f3d 7abb 373d b5a3 0f3b
00000020: 3465 a2bc ca6b 15bd 26f0 ecbb 5c82 843d
00000030: 582e 02bd 6df4 663a 3c6f 3e3c d3af edbc
00000040: 4e07 6bbc 6d22 65bd 3ff8 d23c 6678 443d
00000050: b6b3 90bc 8699 bd3c 3579 673d 3b36 8a3d
00000060: bc86 0a3c 83d5 6b3d 8c39 0dbd c983 76bd
00000070: 0ba5 5c3d 42f2 90bb 6578 893c 665b b33c
0.042517576 -0.027793834 -0.007280991 0.056813367 -0.012147182 0.046635512 0.044856526 0.0021917645
-0.019823648 -0.03647975 -0.0072307764 0.064701766 -0.031782478 0.0008810226 0.0116232 -0.029014504
-0.014345003 -0.055941034 0.025753139 0.047966383 -0.017663818 0.023144495 0.056512076 0.06748625
0.008454975 0.057576668 -0.03447871 -0.060184274 0.053868335 -0.0044234106 0.016781041 0.021894168
