runs/last.pt (torch, 156698 bytes, 38 tensors)

weight f4 [8, 1, 3, 3]
00000000: e011 5abe 9cae 36bc e8bf 62be f1cd 083e
00000010: 8792 293e 5d00 9e3e d5cc 933e b869 68be
00000020: cfda a23e 292b 8e3e 9c69 73be c139 b83e
00000030: 1c75 ffbd 75ab 1b3e 6e69 c1bd 5979 8e3e
00000040: 6e86 34be 0a23 693e 500e a13c 4496 90bd
00000050: 2e17 003e d83d 383d 9bc1 5fbe 182b 2dbd
00000060: 0038 5aba 9b61 50be fb10 8ebe 2d1e 153e
00000070: 53f2 0bbe 067d 6b3e 0d90 9c3e 0d58 b03d
00000080: 0912 d3bd b026 393e 764d 1d3e 51ca 153e
00000090: 5df4 c63e 4788 04bd ca17 273e 98e8 3bbe
000000a0: b128 903e 8045 4f3e 3bda d73b cdc5 c93e
000000b0: d8ec 17be 8745 b13d 3832 01be b7d1 a73e
000000c0: a4e7 9c3d 91ee 853e 70e4 edbb 0802 123e
000000d0: cdf8 9b3d 08bb a1bc 148b 1d3e bb30 c43e
000000e0: cf73 c93e 7683 94bd 0c98 74be fdff af3e
000000f0: 953f cb3e 0df6 eabd b609 5a3b 0cbd 9ebe
00000100: 7a62 5b3e 42e7 cdbe ce7a 89be a3ed 3bbe
00000110: c0f2 1e3c 9292 0f3e 6d2c 0abe fedd 173e
-0.21295881 -0.011150029 -0.22143519 0.1335981 0.16559802 0.30859652 0.28867212 -0.22696579
0.31807563 0.27767304 -0.23770756 0.35981563 -0.12473509 0.15202124 -0.09443937 0.27826956
-0.17629406 0.22767273 0.019660145 -0.07059911 0.12508842 0.044980854 -0.21851198 -0.042277426
-0.00083243847 -0.20349734 -0.2774733 0.14562292 -0.13666658 0.22996911 0.30578652 0.08610544
-0.10306174 0.18081164 0.1536158 0.14627959 0.3885831 -0.032356527 0.16317669 -0.18350446
0.28156045 0.20241356 0.0065872944 0.39408723 -0.14836442 0.086558394 -0.12616813 0.32777187
0.076613694 0.26158574 -0.007259898 0.14258587 0.07615814 -0.019742504 0.15385085 0.38318428
0.39346167 -0.07251637 -0.23886126 0.3437499 0.39696947 -0.11472712 0.0033269948 -0.31003606
0.21424285 -0.40215498 -0.26851505 -0.1835237 0.009701431 0.14020756 -0.1349351 0.14830777

bias f4 [8]
00000000: 20db 53be 4cbc 423d 19f2 883e 16b6 213e
00000010: 572c de3d 4baf 8d3b f81f b5bc 637f 11be
-0.20689058 0.047542855 0.26747206 0.15792117 0.10848301 0.004323875 -0.02210997 -0.1420875

weight f4 [8, 8, 3, 3]
00000000: c481 723e c230 84be bf78 8dbe 4f76 81be
00000010: a2ad a9be 55cf 82be 4516 a3be 269d 2dbe
00000020: cca1 96be f8dd 7dbe d3f2 81be ad17 3cbe
00000030: 5c4e afbe 3566 1dbe a120 bdbe 9ccc 85be
00000040: 780d 8fbe 4376 4cbe ce57 193d e49f 9fbd
00000050: 3981 ce3d 91a3 a83d 321e 673d 2442 40bd
00000060: 38ab f4bc 7951 ef3d 2e8e 7a3d 6b38 27be
00000070: ccda 22be 0d41 35be 00c1 8ebe 097f 64be
00000080: e794 38be d1c9 93be fca6 50be 4d39 a7be
00000090: 6a90 64be b63c 62be 40bc 1ebe a2ef 27be
000000a0: 7453 8fbe 923c 42be 21b8 bdbe a638 b1be
000000b0: 4a4c 9bbe 2955 48be 1756 7ebe 89cf 97be
000000c0: 9d9b b6be 3ba1 4ebe 4e06 42be 0c47 91be
000000d0: c49c 71be ca8d 3bbe 9975 46be a844 71be
000000e0: fd0d 9fbe 186e 6ebe 5363 0abe 2941 7cbe
000000f0: 2825 9abe ede9 0dbe d1aa b9be d8f8 67be
00000100: 4c1a 1fbe 6b80 23be e6dd 85be f07c acbe
00000110: 87bb 63be cef7 4abe 06b9 b6be 804d 6f3e
00000120: 5b38 c53d e9db d33d 824f 093e b8b2 843d
00000130: c4e0 c93d 194d 043e 3295 a13d 7efe ff3d
00000140: ad07 623d 8d02 ef3c b713 2c3e bb10 a63d
00000150: fe10 a93d 398a 003d 1f93 df3d a3df 08bd
00000160: f466 403e 650e aa3d bf9b cdbd b62b 123d
00000170: 704a abbc 2d1b b23d 898d bc3d c430 36bd
00000180: 2c06 5dbd 3e68 b0bd a289 0fbd d4db d8bc
00000190: f87d b13d 4b2f 483d 73ce bc3d 2da1 a83c
000001a0: fce7 283e b2fe 0fbd 6d42 f33d 2c3f 92bc
000001b0: c2f6 c63d 441f 0a3e 5070 a53d ac99 d13d
000001c0: dc6e 26bd f4ee 813d 5d33 cf3d f566 413e
000001d0: 6312 313e aa28 d03d 4f21 d83d 553f a73c
000001e0: ac3b 0fbc ea1c 3b3c 059e 8a3c f56b f73c
000001f0: 55c9 983d 51c0 073d 73ad 2b3e 4e24 e93d
00000200: 678d 0c3e ed08 2bbd 3b69 2a3d 0220 073e
00000210: b83e 85bc 4db4 b33d f7f5 433d 6200 283d
00000220: f81b 04bd afd5 573d e26b ac3d eada c4bc
00000230: cd30 dd3c 5690 1b3c 5397 ad3b ee21 bbbc
00000240: c2af 32be 1352 a6be 5ac1 c2be 992f 5ebe
00000250: 1c7b 84be 6df8 5fbe 3bfc aebe 2588 88be
00000260: e964 6bbe 73cf 54be 213f 8fbe 0a02 2dbe
00000270: fc3e 8bbe 55c0 86be 63a7 acbe 4e39 b0be
00000280: c26e b6be c8eb 3abe c193 ecbd d88d 503c
00000290: 0054 ca38 7c88 dc3c fb02 a53d 7153 af3d
000002a0: a210 1d3d f48d bcbd ccd4 94bc 35fb afbe
000002b0: 7b97 22be ffb5 23be 405a 53be 76f7 a7be
000002c0: 2a98 5fbe 8f2b b9be caeb babe c3c8 89be
000002d0: c391 99be eee0 8ebe 338f 58be 184e 9cbe
000002e0: 1949 b8be f3b9 61be 0d8d 21be a322 99be
000002f0: 2840 52be 74d0 c5be 5271 82be e1a3 75be
00000300: f86b 7fbe 8f36 acbe 6129 c6be ef42 aabe
00000310: 947f 86be 56b0 adbe 5145 95be fa38 c2be
00000320: d4f8 8bbe 36cf afbe 1828 9bbe bb1a 7ebe
00000330: 7d0f a5be 5408 35be fa88 80be 855b 60be
00000340: 71a1 7abe 5429 62be 7454 453e 70d8 46be
00000350: 0390 55be b864 8bbe 85f2 22be 7e99 88be
00000360: 10d0 37bc c5e3 043e 57c6 153e 4d04 f93c
00000370: 8f7d e33d 321f a63d 6a57 2c3e 6a55 973d
00000380: cfde 9d3d fd42 1a3e 2591 c13d 5a5d b73d
00000390: 4236 6b3c c0b6 ddba d159 c93c 5b35 0f3e
000003a0: dc52 003e 9f1c ab3d c96e 6fbd 698b e03d
000003b0: 2354 883d 00ce 6939 ee53 93bd 021b 54bd
000003c0: e344 ec3d 12a1 95bd 347f b6bd dcd1 e63d
000003d0: 1f4d 3a3e 9f24 7a3d d8f6 973d f327 5e3d
000003e0: 0df5 2f3e 462b f33d a57e da3d 3172 153e
000003f0: 8c18 28bc d9c3 323e 3ba2 2e3e 183c 2d3e
0.23682314 -0.2581845 -0.27631184 -0.25285575 -0.33140284 -0.25548807 -0.31852928 -0.16954479
-0.29420316 -0.24791706 -0.25380573 -0.18368407 -0.3423947 -0.1537102 -0.36938956 -0.26132667
-0.27939963 -0.19966988 0.037437253 -0.077941686 0.10083241 0.08234323 0.05642528 -0.046938077
-0.0298668 0.116854616 0.06117075 -0.16330115 -0.15903777 -0.17700596 -0.27881622 -0.22314085
-0.18025552 -0.2886491 -0.203762 -0.32660905 -0.22320715 -0.22093472 -0.15501499 -0.16400006
-0.27993357 -0.18968418 -0.37054542 -0.34613532 -0.3033164 -0.19563736 -0.24837528 -0.29650524
-0.356656 -0.20178692 -0.18947718 -0.28374517 -0.23594958 -0.18315807 -0.19380797 -0.23561347
-0.3106536 -0.23284185 -0.13514452 -0.24634232 -0.30106473 -0.13858767 -0.36263135 -0.2265352
-0.15537375 -0.15966956 -0.26145858 -0.3368907 -0.22239505 -0.19821092 -0.35688037 0.23369408
0.096298896 0.10344679 0.13409236 0.064794004 0.09857324 0.12920035 0.07889785 0.124997124
0.0551831 0.029176021 0.16804396 0.0810866 0.08255194 0.03138182 0.10916733 -0.0334164
0.18789274 0.08303527 -0.10039472 0.035686217 -0.020909518 0.086965896 0.09206683 -0.0444801
-0.053960964 -0.086136326 -0.035043366 -0.02647201 0.08666605 0.048873227 0.092190646 0.020584667
0.16494745 -0.035155006 0.11877904 -0.017852388 0.09715034 0.1348849 0.080780625 0.10234389
-0.040633067 0.06344405 0.10117219 0.18886931 0.1729217 0.10164006 0.10553228 0.020415941
-0.008742254 0.011420468 0.016921053 0.030202845 0.07460276 0.03314239 0.16765384 0.11383878
0.13725816 -0.04175656 0.04160426 0.13195804 -0.016265258 0.08774624 0.047841992 0.04101599
-0.032253236 0.05269402 0.084190145 -0.024030168 0.02700081 0.009494862 0.0052975803 -0.022843327
-0.17449859 -0.32484493 -0.3803814 -0.21697845 -0.25875175 -0.2187211 -0.34176812 -0.2666637
-0.22987713 -0.2078226 -0.2797785 -0.16895309 -0.2719649 -0.26318613 -0.33721456 -0.3441872
-0.35631377 -0.18254006 -0.11551619 0.012729131 9.647757e-05 0.02692055 0.08057209 0.08560837
0.03834594 -0.09206763 -0.018167876 -0.34371343 -0.15878098 -0.15987395 -0.20639896 -0.32805985
-0.2183539 -0.36166045 -0.36508018 -0.26910982 -0.2999402 -0.27905983 -0.21148376 -0.3052833
-0.3599327 -0.2204359 -0.15776463 -0.29909238 -0.20532286 -0.386356 -0.25477082 -0.23988296
-0.2494353 -0.33635375 -0.38703445 -0.3325419 -0.2626921 -0.33923596 -0.29154447 -0.37934095
-0.27338278 -0.34337777 -0.30304027 -0.24814884 -0.3223838 -0.17678958 -0.25104505 -0.21909912
-0.24475648 -0.22086078 0.19270498 -0.19418502 -0.20855717 -0.2722528 -0.15912826 -0.26679605
-0.01121904 0.12977512 0.14626442 0.030397559 0.11107933 0.08111419 0.16830221 0.07389338
0.07708513 0.15064617 0.09451512 0.08953352 0.014356198 -0.0016915426 0.02457896 0.13985197
0.12531608 0.083550684 -0.058455262 0.109640904 0.06656673 0.00022297353 -0.07193743 -0.05178357
0.115365766 -0.07306112 -0.08910981 0.11270496 0.18193482 0.06107008 0.074201286 0.054237317
0.17183323 0.11873488 0.10668687 0.14594342 -0.010259759 0.17457522 0.17054074 0.16917455

bias f4 [8]
00000000: 420c b2be 6a99 d2bc 4223 26be e3e5 d03d
00000010: 1591 32be 9952 3d3e c237 bb3d 817f 9fbe
-0.34774977 -0.02570792 -0.16224387 0.102000974 -0.17438157 0.1848854 0.09141494 -0.31151965

weight f4 [16, 8, 3, 3]
00000000: 47ce 2dbe 087e 11be e5dd 0cbe 128c 66be
00000010: 84b5 5dbe 5420 90be f691 83be b7f5 47be
00000020: 9f99 7bbe c39b 9fbe 70d0 80be 0100 8fbe
00000030: 4614 49be 78d3 90be c5ab 50be 4808 b0be
00000040: d9dd 5cbe 67cf 54be 072a 9bbe 5d64 34be
00000050: 1625 2bbe d17f 86be 8cf4 b7be 85f5 20be
00000060: bb64 adbe c8db 33be f46f 2ebe 9efe 1dbe
00000070: 7a59 adbe 55e9 a3be 633c 29be d149 98be
00000080: ebd4 69be ffeb 54be 39b9 0ebe 9c98 96be
00000090: 241d 99be 994f 9dbe 11a4 88be 65b2 65be
000000a0: 2dd5 86be 9cc4 96be 69ac 4dbe c23b b4be
000000b0: 2149 41be 4f77 7fbe fee4 93be dcf5 9fbe
000000c0: c19d 5fbe a569 9fbe 176c 72be b873 43be
000000d0: 3306 abbe 0f92 aabe 5378 0dbe 50af 67be
000000e0: d17b 0ebe 5dc7 a7be d676 53be 5678 2abe
000000f0: efb6 53be dd48 8ebe 5282 abbe 09d8 a5be
00000100: 6847 bbbe 88c4 75be 6f97 17be c7be 95be
00000110: 4e0d 9ebe 5014 72be a684 22be db9e 3ebe
00000120: 4e15 b7be cca8 b9be ecf6 a1be c7cd b7be
00000130: b85c c7be 76ee 8cbe fdd9 b7be 1fa1 cdbe
00000140: 6fa6 48be 9de9 70be 3adf 57be bada 5ebe
00000150: 4c06 93be b259 c5be b108 adbe b2a5 71be
00000160: d02d 6cbe a8f6 82be 00f8 74b8 6878 7d3c
00000170: ac04 8bbe 76d1 cd3e c900 73be ee5d bfbe
00000180: 54bf 9c3c e8f1 acbe cf6d d63d c6c8 52be
00000190: 2fdc 38be 4638 94be 59df 55be 31fb cebe
000001a0: dcfc 39be 29b0 6ebe f3aa c9be 804a aebe
000001b0: 990b b7be be67 96be 4139 97be fee4 b8be
000001c0: 3c90 a4be 51d5 67be 5fec 98be c1fb a5be
000001d0: 6fe5 9fbe 5832 c0be 8852 84be 5b60 bcbe
000001e0: 11ae 84be 316f 60be f9a1 a6be 911f 94be
000001f0: 2fdd abbe 7560 4cbe efea acbe 1356 43be
00000200: 9ee4 34be c1a1 b2be de9a 4abe 5e2d 89be
00000210: 8063 80be 68fa c8be 3553 8dbe f967 89be
00000220: 8d36 d7bd cf02 aebe 9051 8c3e 8627 ccbd
00000230: 4cc8 6fbe 5d6d 4e3e 3241 43be 1650 a2be
00000240: e361 c13c 517e 323e 34e6 adbc d617 b7bc
00000250: 2dc7 973d c024 48bc 7e46 693d cb0e ff3d
00000260: 6c14 be3d 3b93 a53b bebf d2bc 9614 003e
00000270: 71e6 a03d 2b54 333d 7e97 0abd f859 c53d
00000280: f701 bf3d 9105 303e ff7f 1f3e 467f f73d
00000290: d572 df3d 9716 ae3d a386 e93d bafc 113d
000002a0: 20ec 6abd 258c d73c f309 ab3d 9d73 3cbd
000002b0: 3465 0fbc 568d bc3d 91a7 103e 2004 9abb
000002c0: e484 2a3e 84b6 5b3d 0a2b 1f3e 5022 d5bc
000002d0: 0cbd 0d3e 789a c73d bae1 3a3e 9d2e 3abd
000002e0: 6fbb 493d dd19 213e 43dc 9e3c 2579 ad3c
000002f0: 8d99 873d 4210 f03d e7d7 7c3d f0f2 e3bc
00000300: f3fa cb3d d64d 313e 79c3 0a3e c0d0 2a3e
00000310: 4663 773b 2011 f93d ec19 8ebc 9dac 003e
00000320: 7b98 22bd 0d5a 9f3d 185b 36bd 6c2d b43d
00000330: 9fbc 3abd cbcc c63b 079f 1d3e 3482 d43c
00000340: 2e53 9a3d 65fb a63d 9a14 bf3d 5645 1d3e
00000350: 30cb a93d f476 383e 3abe 0b3e 86ac 303c
00000360: 260f 263d ec69 20bd 6483 88bd 84ff 4bbd
00000370: b0f1 4cbc e1b7 6ebd 7ee7 663d bc0a c4bc
00000380: f67d 4f3d 6d90 ec3d 54d6 e2bd 1cba d73c
00000390: 5007 e13b 8ff2 eb3d e731 a23d 030d acbd
000003a0: 417d b8bd fa4f 93bd b5d6 d13d f6c5 22bd
000003b0: 6cf5 97bc 2549 c83d 359d 6abd 8818 c5bd
000003c0: 43ec bbbd d6fc 193d 86c4 85bd 7c9f a8bd
000003d0: 3278 233d b876 433c 464e 23bd 84d5 cfbd
000003e0: ad03 a13d 1813 aabd ce0e debd 8aee 8fbd
000003f0: 9409 8fbc f6b1 c8bd 045d 9d3c fecc 2d3d
-0.1697322 -0.14208233 -0.13756521 -0.2251437 -0.21651274 -0.28149664 -0.25697297 -0.19527327
-0.2457032 -0.31173524 -0.25159025 -0.2792969 -0.1963664 -0.28286338 -0.20378025 -0.34381318
-0.21569003 -0.20782243 -0.30305502 -0.1761641 -0.16713366 -0.2626939 -0.35928762 -0.15718658
-0.33865914 -0.17564309 -0.17034894 -0.1542916 -0.33857328 -0.32013956 -0.16526942 -0.29743817
-0.22835128 -0.2079315 -0.13937844 -0.29413307 -0.29905045 -0.3072479 -0.26687673 -0.22431333
-0.26334515 -0.29446876 -0.200853 -0.35201842 -0.18875553 -0.24947856 -0.28885645 -0.31242263
-0.21837522 -0.31135288 -0.23674046 -0.19087112 -0.33403167 -0.3331456 -0.13815431 -0.2262547
-0.1391442 -0.3276929 -0.20650801 -0.16647467 -0.20675252 -0.27789965 -0.33497864 -0.32391384
-0.36577916 -0.24000752 -0.14803861 -0.29247114 -0.30869526 -0.23640561 -0.15870914 -0.18615286
-0.35758442 -0.36261594 -0.316337 -0.35899183 -0.38937926 -0.2752568 -0.359085 -0.40161988
-0.1959474 -0.23526616 -0.21081248 -0.21763125 -0.28715742 -0.38544995 -0.33795694 -0.23598364
-0.23064351 -0.2557881 -5.84051e-05 0.015470602 -0.27152002 0.4019887 -0.23730768 -0.3737635
0.019134201 -0.3377831 0.10470163 -0.20584401 -0.18052743 -0.28949183 -0.20885982 -0.4042602
-0.18162864 -0.23309387 -0.39388236 -0.34041214 -0.35751036 -0.29376024 -0.2953587 -0.36112207
-0.32141292 -0.22639968 -0.29867837 -0.32418635 -0.3122973 -0.3753841 -0.25844216 -0.36792263
-0.25914052 -0.21917416 -0.3254545 -0.28930333 -0.33567187 -0.1995867 -0.3377299 -0.19075803
-0.17665336 -0.34889033 -0.1978564 -0.26792425 -0.25075912 -0.39253545 -0.27602544 -0.26837137
-0.105084516 -0.33986518 0.27405977 -0.09968476 -0.23416251 0.20158906 -0.19067839 -0.31701726
0.023606246 0.17430998 -0.021227933 -0.022350233 0.07411037 -0.012215793 0.056951992 0.124539934
0.09281239 0.0050529516 -0.025726195 0.12507853 0.07856453 0.04378144 -0.03383588 0.09636301
0.09326547 0.17189623 0.1557617 0.12084822 0.10910574 0.085004024 0.11402633 0.03564141
-0.057354093 0.026311943 0.08351507 -0.046008695 -0.008752156 0.09206645 0.14126422 -0.004700199
0.16652256 0.053640857 0.15543762 -0.026017338 0.13841647 0.097462595 0.1825017 -0.04545461
0.049251016 0.15732522 0.019392138 0.02117593 0.06621084 0.11721851 0.061729338 -0.027825803
0.09959974 0.17314848 0.1355113 0.16681194 0.003774838 0.121614695 -0.017346345 0.12565847
-0.039696198 0.07780848 -0.044520468 0.08797726 -0.04559004 0.0060668937 0.15392695 0.025940992
0.075353965 0.081534185 0.09330101 0.15358481 0.08290708 0.18014127 0.13646784 0.01078332
0.04054179 -0.039163515 -0.06665686 -0.049804226 -0.012508795 -0.05828083 0.056373112 -0.0239309
0.050657235 0.115509845 -0.11076036 0.026333861 0.006867327 0.11520874 0.07919674 -0.08400919
-0.09008265 -0.07192989 0.1024603 -0.03973957 -0.018549643 0.09779576 -0.05727883 -0.096238196
-0.09175923 0.03759464 -0.065316245 -0.08233544 0.03990955 0.01193016 -0.03986957 -0.10148147
0.07862029 -0.08304423 -0.108426675 -0.070279196 -0.017460622 -0.09799568 0.019209392 0.042431824

bias f4 [16]
00000000: 21b9 5cbe 1819 abbe 9f2d 0b3e 578f 823d
00000010: 51eb 85be 6c18 ed3d 38b9 adbe 13cc 5abe
00000020: ea3f aebe 955a 90be a915 9ebe fcc0 8dbe
00000030: c8a0 dc3d 1360 5cbe 67ac c5be 601c a3be
-0.21554996 -0.33417583 0.13591622 0.06374996 -0.26156095 0.11576924 -0.33930373 -0.2136691
-0.34033138 -0.2819411 -0.308759 -0.27686298 0.10772854 -0.21521024 -0.38608095 -0.31857586

weight f4 [8, 16, 1, 1]
00000000: 6de3 0fbd 9053 18be 741f 523e 86ab 313e
00000010: dbf6 d1bd 61e9 9d3e 19ca 4b3e 53b4 2f3e
00000020: 626e 21be b61b 1fbe 8604 793e 5073 c1bd
00000030: 0ef4 113e 357c 1f3e 711c 78bd 2b72 c7bd
00000040: f183 82bd 26ee 183e a042 043e d0d6 a23c
00000050: de73 02be a347 3cbe 9fb7 96bd e6b7 b9bd
00000060: cbaf 96bd 184f 943e b40f b53d e2f9 e43c
00000070: 9d8d 123d 28a9 7cbe 0b65 d0ba 3448 8dbe
00000080: 742f 6abd b078 14be d046 083e 4248 2ebe
00000090: 4906 35be b62c 293e 836d 6abd b028 74be
000000a0: 4846 96be a1e4 d33d b2f6 6e3e eee9 06be
000000b0: e22a 87be 7829 093e e9ad d53c 4573 893e
000000c0: 02b9 53be ac45 eb3d edbc 6d3d 80bc 6e3d
000000d0: 2e95 64be 40ab 2dbe 90f6 4f3c db59 dc3d
000000e0: c314 7ebd 7764 bc3d 873f df3d 5ee0 78be
000000f0: 9548 86bd 92f3 3abd 4d6d e93c 0e91 cd3d
00000100: 6d6f af3d 7f6e 82be dc67 1e3e f80f 60be
00000110: a550 8abd 703c 103d 75ec 8abe c251 243d
00000120: 33fc 8dbe b961 f43d f8c2 133e be86 cfbd
00000130: b6ad 2ebc 7a50 37bd a0d8 2abd c6ea 18be
00000140: 9931 bebd 0f65 3a3d ac11 f83d d04a d6bd
00000150: 6eb0 133d a476 513e f4a0 d7bd ef43 5ebd
00000160: e9a1 283d dd57 39bd 92d3 1cbe 300c 31be
00000170: ddab 873e 8238 3a3c f8bd 4abe becf 5d3e
00000180: 5c2e 05be dac8 793e 5631 30be ae38 55be
00000190: 76a4 4a3e 122f 4abe 0719 2c3e 0f3a a8bd
000001a0: 6f7d 90bd deef 713e 79ba ecbd 650a b13c
000001b0: 7e23 193e 07ab 4e3e 9bab de3d 3cb6 843d
000001c0: 203d 0b3e c064 a73e b2a8 8e3e b034 0ebe
000001d0: e64c 09be 9867 a93d 30fc b03d 6d3e 2c3e
000001e0: 1944 e0bd 147d 39be 1bb0 663d 1d6f 98bd
000001f0: 2af9 8f3e 96f5 c53d 1c50 98be 2036 c4bd
-0.035129 -0.14875627 0.20519811 0.17350587 -0.10252162 0.30842116 0.19901313 0.17158632
-0.15764764 -0.15537915 0.24318132 -0.09445822 0.14253256 0.15574725 -0.060574 -0.09738573
-0.06372822 0.14934596 0.1291604 0.019877821 -0.12739512 -0.18386702 -0.07359242 -0.09068279
-0.073577486 0.28966594 0.08840886 0.027951185 0.035779584 -0.24673903 -0.0015899254 -0.2759415
-0.05717416 -0.14499164 0.13308263 -0.17019752 -0.17678179 0.16520962 -0.057233345 -0.23843646
-0.29350495 0.10346342 0.23336294 -0.13175175 -0.26399904 0.13394725 0.026083903 0.26845756
-0.20676044 0.11487898 0.0580415 0.058285236 -0.22322533 -0.16959858 0.012693062 0.10759326
-0.06203152 0.0919885 0.10900789 -0.2430434 -0.06556813 -0.045642443 0.028494501 0.100374326
0.08566175 -0.25474927 0.15469307 -0.21881092 -0.06753663 0.035213888 -0.27133527 0.040117033
-0.27731475 0.119327016 0.14429843 -0.10133122 -0.010661533 -0.044754483 -0.041710496 -0.14933309
-0.09286804 0.045506533 0.12112746 -0.10463488 0.03605693 0.20455414 -0.10528746 -0.054264005
0.041170035 -0.04524981 -0.15315083 -0.17289805 0.2649831 0.011366012 -0.1979903 0.21661279
-0.13005966 0.24393025 -0.1720632 -0.20822403 0.197893 -0.19744518 0.16806422 -0.08214199
-0.070551746 0.23626658 -0.11559004 0.021611402 0.14954945 0.20182429 0.10872575 0.06480071
0.13597536 0.32694054 0.2786308 -0.13887286 -0.1340824 0.08271712 0.08641851 0.16820689
-0.109504886 -0.1811412 0.05632029 -0.07443068 0.28119785 0.096659824 -0.2974862 -0.09580636

bias f4 [8]
00000000: f9e3 933e c3b7 f43d 143a f43c e234 1e3e
00000010: 409e f53d 105f f83d 1044 18be 1532 ab3e
0.28884867 0.11949112 0.02981285 0.1544986 0.119930744 0.12127507 -0.14869714 0.33436647

weight f4 [8]
00000000: 7d5e 8b3f d74c 873f 30a2 6b3f 0643 693f
00000010: b6c8 693f a72b 883f 62f7 723f 5ceb 863f
1.088821 1.0570325 0.92044353 0.91117895 0.91321886 1.0638322 0.94908726 1.0540576

bias f4 [8]
00000000: 86b3 b83d 2718 8fbd 2fc5 a6bd 86b3 b8bd
00000010: 20a8 b7bd 0e18 ba3d 4d90 b13d c9b9 a53d
0.090186164 -0.069870286 -0.081430785 -0.090186164 -0.08967614 0.09086619 0.08670101 0.08092076

running_mean f4 [8]
00000000: d0b1 dc43 45fa 2fc2 377a aac1 6d6e 14c3
00000010: fa38 bb42 4bf9 d143 3d57 e0c2 e72d d243
441.38916 -43.994404 -21.309675 -148.43135 93.61128 419.9476 -112.17039 420.3586

running_var f4 [8]
00000000: 54f4 ed43 a572 a740 50fc c53f 61d9 5642
00000010: 3f36 af41 748b d643 b9c5 fe41 2cb3 d743
475.9088 5.2327447 1.5467625 53.712284 21.901487 429.08948 31.846544 431.39978

weight f4 [16, 8, 1, 1]
00000000: c36e c83e 3507 d93e 0c39 86be 1949 4ebd
00000010: 51ef b53e 6d03 d33e 04dc 7abe cb42 543e
00000020: 004c e1b9 0e2f 74be 48a1 bbbd 5bbd aa3e
00000030: f46c c63d 3a78 513e 92ac 793e 8b27 ac3e
00000040: 5d4d d0bd c28f 223e 6272 0a3d 22a6 4b3e
00000050: 7951 b23d b23e 8bbe a9d6 963e 0809 a43c
00000060: bf69 873e 4093 6a3d 8070 38bb de36 1f3e
00000070: 4001 353d 08af da3d 62c7 15be c027 8bbb
00000080: 4cf0 bbbc 86d8 24bd 1b64 88bd d5fe 9f3c
00000090: f850 17be 2565 bc3e e4a6 6abd 24cf 563e
000000a0: 5134 afbd 4608 b9bd b7e8 eebc 0f3e 8a3e
000000b0: 5633 093e ae18 1ebe b45e 94be 69b6 a93e
000000c0: 5acb 6c3e 0044 1fba 5612 3e3e 20cd 6b3c
000000d0: 784a 15be fd06 21be a048 143d 9264 623e
000000e0: 65b9 f3bc 98eb 57be 7f3c 993e 3247 783e
000000f0: 93ab 083e 2052 b63d 64f4 44be 6869 0f3d
00000100: 7091 8fbd 2a43 5dbe a0fb 4cbc e0c0 c9bd
00000110: c8cf bc3d bf5b 883e 33ef 9a3e de17 713e
00000120: ef1e ce3e 55e5 003e 8485 c7be 2153 603d
00000130: 06fa 88be d9bc 8b3e 5661 7dbe 36de babe
00000140: 06f1 2cbe 1e89 22be ae45 103e 6a8f 4fbd
00000150: bec4 59be 2783 d8bd 9472 853d 005d afbc
00000160: 6fca 523d 938e d43d a232 70be e14e 893e
00000170: e1cd b53d 7e61 cc3d 8581 41be e6ea eebd
00000180: c9c6 c93e 40f6 2bbe 2def 873e 86b8 fa3d
00000190: 38c2 c1be 87f4 cf3e 1864 b8bb fa6b 793e
000001a0: 335e 803e 7f90 793d c46d 45be 3a65 793e
000001b0: 5692 6f3e e673 793e d84d 81bd c9fd c73e
000001c0: df14 4abe 86ab 4e3e b97e 8b3e 219c a33e
000001d0: a22f acbe 00a9 29bc 5a7a 1e3e d1e7 983e
000001e0: 03ec a63e e57d 573e 5c9a debd 2289 5fbe
000001f0: 6258 debd 08a3 79be bcb9 f3bd cea9 70be
0.39147004 0.4238831 -0.26215398 -0.05036268 0.35534146 0.4121355 -0.24497992 0.20728604
-0.0004297197 -0.23846075 -0.09161621 0.33347592 0.0968875 0.20456019 0.24382237 0.3362392
-0.10171006 0.15875152 0.03380049 0.19887593 0.08706946 -0.2719627 0.29460648 0.020023838
0.26447865 0.057269335 -0.0028143227 0.15548274 0.044190645 0.10677916 -0.1462684 -0.004246682
-0.02294173 -0.040245555 -0.066597186 0.019530693 -0.14776981 0.36795917 -0.057288066 0.20977455
-0.085549004 -0.09034781 -0.029163701 0.27000472 0.1339849 -0.15439102 -0.28978503 0.3314698
0.23124447 -0.00060755014 0.18561682 0.014392167 -0.14579189 -0.15725322 0.036202073 0.22108677
-0.029751489 -0.21085966 0.29928967 0.24245909 0.133467 0.08902383 -0.19233853 0.035012633
-0.07010162 -0.21607652 -0.012511164 -0.09851241 0.09219319 0.26632497 0.3026062 0.23544261
0.40257975 0.12587483 -0.38969052 0.054766778 -0.26753253 0.27292517 -0.24744162 -0.36497658
-0.16888818 -0.15872619 0.1408908 -0.05067388 -0.21266457 -0.1057189 0.06515995 -0.02140665
0.051462587 0.103787564 -0.23456815 0.26817992 0.08877159 0.09979533 -0.18897064 -0.11665897
0.39409474 -0.16793156 0.26549664 0.12242226 -0.3784349 0.40616247 -0.0056271665 0.24357596
0.25071868 0.060928818 -0.19280154 0.24355021 0.23395666 0.24360618 -0.06313676 0.3906081
-0.19734524 0.20182618 0.2724512 0.31955054 -0.3363009 -0.010355234 0.15476361 0.29864362
0.32601938 0.21044119 -0.108692855 -0.21829656 -0.108567014 -0.24378598 -0.119006604 -0.23502275

bias f4 [16]
00000000: 97af b13e 609b 26be edcb 153d b411 fc3d
00000010: d68d 41bd 12ea abbd 3eb9 d2be 964e 493e
00000020: 42db 7cbe 1963 16be b66a 673e f816 babe
00000030: ff52 8b3e 41fd 3c3e 1d57 9d3e 1991 21be
0.34704277 -0.16270208 0.036571432 0.12308064 -0.047254406 -0.08394255 -0.41156954 0.19658884
-0.24693015 -0.1468624 0.225993 -0.3634565 0.27211758 0.18455984 0.30730525 -0.15778007

weight f4 [16, 8, 1, 1]
00000000: 6d6a 813e a36c 04be e346 d53d b28d c4be
00000010: 0ae0 59be 5474 713d bdb4 943e 8ab7 c13d
00000020: e0f1 573d a804 9c3d f1ad 34be 5636 733e
00000030: ad8e b13e 06db 573e 9ac5 1b3e b0b0 d8bc
00000040: dcad 3e3d 2c06 5ebd a88d 45bd e065 a83b
00000050: 693d ad3c 1c07 b1bd 9994 9cbe fe10 793e
00000060: 86ba 6bbe 8089 7a3d 0219 25be b776 ac3e
00000070: df69 8dbe 6974 af3e d54e 4ebe 9023 78bd
00000080: f541 993d a852 71be a257 443e eaad 7bbe
00000090: 4d6d f13c 5de3 b03e e75e e23e 925b 8dbe
000000a0: 5036 8dbe d7b9 c5be 67fc d13d e30f dd3d
000000b0: 7764 883e 788a f13d 0609 f7bd d0fe 32bc
000000c0: 705e 93bd 5816 19be 00d6 dcbc f98c 973e
000000d0: 3870 64bd 8bb8 963e 806e a3be 6c20 bfbd
000000e0: 8672 213e 1ed9 2a3e 58a3 ebbd 7b0d acbe
000000f0: 451a aa3e 2a0d 5a3e fe8a 87bd 676c a73d
00000100: 20a1 d93d dd60 a8be df64 8d3e be63 3b3e
00000110: 3a8c 37be e631 633e 2882 76bd 7805 b6bd
00000120: 8035 473e 24cf 64be 6d37 0e3e 5f5a b53e
00000130: e05d 8aba 99cd a53e 5ea6 6f3e d44c 66be
00000140: e2e5 233e c223 b4be 4cbf ccbe 02f7 79be
00000150: 820c abbe 8245 5f3e ba8d 3abe 5e38 2d3e
00000160: c9a6 8b3e a4c9 2abc 21fe 8d3e 3811 453e
00000170: 7938 ca3e 2140 f7bd 5e12 533e 7116 40be
00000180: 6264 6fbe 6c51 1b3e 120d 76be 0fc7 95bb
00000190: 886d 6cbc bd79 0a3e 6238 51be 451f ab3e
000001a0: a38e be3b e523 f53c 7de7 b9bd da49 45be
000001b0: 62f2 773e 6385 8dbe b826 f7bb b10a 103d
000001c0: b83e d1bd 6f1f b13e f6e0 8cbe 801a f2bc
000001d0: d42d a43d 7660 0e3e 2236 e8bd 0c77 33be
000001e0: 6211 99be bb1a b6bd 4218 3b3d 4695 063e
000001f0: eb0a 173e 8f97 833e 1cee 983d 3f3a 85bd
0.2527651 -0.12932067 0.10413911 -0.38389355 -0.2127687 0.05894883 0.29044142 0.094588354
0.052720904 0.076180756 -0.17644478 0.23751196 0.34679165 0.21079645 0.15212098 -0.026451439
0.046552524 -0.054205105 -0.048230797 0.0051390976 0.021147447 -0.08643934 -0.3058212 0.24322888
-0.23020372 0.061166286 -0.16122821 0.33684322 -0.27619836 0.342685 -0.2014726 -0.06058079
0.074832834 -0.23566687 0.19174054 -0.24578062 0.029471064 0.34548464 0.4421303 -0.27608925
-0.275805 -0.38618347 0.1025322 0.10794046 0.2663915 0.11793989 -0.12062268 -0.01092501
-0.07195747 -0.1494993 -0.026957512 0.2959974 -0.055771083 0.2943767 -0.31920242 -0.09332356
0.15766343 0.16684386 -0.11505765 -0.33604035 0.33223167 0.21294084 -0.066183075 0.08174973
0.10626435 -0.328864 0.2761602 0.18299767 -0.17924586 0.22187003 -0.06018272 -0.08887762
0.19454002 -0.22344643 0.13888331 0.3542051 -0.0010556541 0.3238342 0.23403308 -0.22490245
0.16005662 -0.3518353 -0.39989698 -0.24410632 -0.3340798 0.21803859 -0.18218127 0.16916034
0.27275684 -0.010424051 0.27732947 0.1924485 0.3949621 -0.120727785 0.20612475 -0.1875856
-0.23378137 0.15167779 -0.24028423 -0.004570849 -0.014430411 0.13523002 -0.20431665 0.33422294
0.0058153435 0.029924342 -0.09077356 -0.19266453 0.24213555 -0.27640828 -0.0075424574 0.035166446
-0.10217041 0.34594294 -0.27515382 -0.029553652 0.080165535 0.13903984 -0.1133845 -0.17525882
-0.29896075 -0.08891817 0.04567743 0.13142881 0.14750259 0.25701568 0.07467291 -0.0650525

bias f4 [16]
00000000: aa73 783e 722e 3e3e 16b4 7dbe 454d b13e
00000010: c6de 35be f3b4 b83e 0c53 ac3d 228a 78be
00000020: f655 9cbe 0de5 0abe 8997 07bd 9a38 123e
00000030: 409b 603e ac30 50bd cbf2 873e 94b6 54be
0.24262872 0.18572405 -0.24775729 0.34629264 -0.17760763 0.36075553 0.084142774 -0.24271443
-0.30534333 -0.13563938 -0.0331035 0.14279404 0.21934223 -0.050827667 0.26552424 -0.20772773

weight f4 [16, 16, 3, 3]
00000000: a9ae 0d3e b5de ec3d b323 0a3e c626 143e
00000010: 372c 133e aef6 223e 5581 813d ec78 1b3e
00000020: 8b21 f83d c8bd 023e a859 863d 1652 2b3c
00000030: 397a c13c a20d f73d 5396 093e 46dd 153e
00000040: 9d77 cb3c da35 143c 32dd b83d 99ae 163e
00000050: 808b 813d 0520 8f3d e3b7 e93c d142 673d
00000060: d71b f83c 21df d13d fd88 9d3c 0254 693d
00000070: d10e 843d d1c3 8f3d 43dc 9dbd 8079 a4bd
00000080: eaba 613d 16d8 77bd fea2 0c3d 26a1 66bd
00000090: 1346 133e 72d3 ab3d 8bb5 db3d a900 193d
000000a0: 986d 133d ec3e c93d 56b0 983d 652d 293e
000000b0: 790a 023e 5f47 9e3c 7818 903d 8342 c23d
000000c0: 5ade 083e 7260 dd3d 9ad3 ac3d c6fa 463c
000000d0: f132 073e c974 e43d 05f2 b73d 422e bd3d
000000e0: a31a 473d 4805 203e 1e80 d93d 5583 733d
000000f0: b748 f43d 8ffd 1f3e 908b 473d 35da 813c
00000100: 0c2e 123e d76d d83c cfe5 173e 216d cf3d
00000110: 045e b63d ac09 f53d f527 a03c 1540 e03c
00000120: 3a9d f33d c682 283e 126c af3d 923d 2c3e
00000130: ce76 2f3e a831 993d 0c31 b93d c1fc 063d
00000140: d1ad 9e3c a5f5 1e3d 25e8 203e 4a2c 633d
00000150: 812b 983c 46eb 863d b5cb b33c e592 8e3d
00000160: fa3e 593d a180 ae3c 7059 5b3d 175b 253e
00000170: a286 a53d 321e 8a3d 19ff fa3d d2b0 8e3d
00000180: 7636 1c3e e7ef 2c3e dfcb 073e 70cd e73d
00000190: 2237 0c3e a002 4c3d 1a36 0c3c a67d 733d
000001a0: 4722 e63d 45c5 1a3e 6b5a 6d3d cbcc 333d
000001b0: 491e bc3c ceb8 143c 19c4 113e 30c8 b13d
000001c0: 15d9 9e3c 748b 583d a375 f93d 6416 103e
000001d0: 6b5d d03d e0cc 143e 61b4 d13d a234 303d
000001e0: 6ee4 153c 0764 2a3d ee22 003e bf5e 103e
000001f0: b199 b93d f313 a13d 489a 443d ea77 1b3e
00000200: d89f 193e 65eb 8f3c 8717 903d ee23 1c3d
00000210: b087 2c3e b145 2c3e d7e9 103d 45d5 dd3d
00000220: 972f 0c3e a1af 953d 41d9 183e 36c5 a83d
00000230: 7949 f93c d4d3 933d 2717 e93c f1bb 023e
00000240: 9242 9b3d 4b7b ea3d 9138 dc3d 8ded ec3c
00000250: 572c 2a3e 093e 243e 7752 1f3e 7b57 0e3e
00000260: 5667 f03d ae2e 3d3d ea61 403c 05a6 ba3d
00000270: 867a 2d3e 1bc9 2a3e 2454 093e 7f55 ff3d
00000280: 6bca 843d cb88 b13d e91b ca3c c10c 9e3d
00000290: de51 4f3c c942 ac3d 9edd 2e3c b39b ca3c
000002a0: a762 073e 885b 003e fbf2 0a3d 0087 113c
000002b0: fab8 2e3d 5085 c6bb e07d 5abd 8734 9dbd
000002c0: b0bb 3dbd 862b fdbc 552e 983d 92d2 2a3d
000002d0: 0a21 013e d1f3 973c f229 113e 58f9 193e
000002e0: af34 fa3d 01ef 093e 1416 143e 414f e83c
000002f0: 0bfe d23d ba99 0e3e 39be c93c e278 2a3e
00000300: e215 1e3d 1684 203c 62d7 d43d fd3c 8d3d
00000310: f924 b03d 2909 123e 8259 2d3e c7c7 433d
00000320: 6326 433d ff55 453d 249c ee3d 9042 173e
00000330: 0d98 fa3d 3c67 033e 368e 363c 4d05 8d3c
00000340: 9e27 2a3e 5b4e f03d 283f 763d 1d7e 5c3d
00000350: 1144 cb3d 7401 f93d a70d e13c 0fba f73c
00000360: edd5 e03d 08e8 fd3d adc5 1a3e f773 ff3d
00000370: 220e 913d a539 7a3d 8ae0 1d3e b6ab 293e
00000380: b141 083e 41de 003e b66e 933d a4c3 e73d
00000390: 74f2 273d f79b bb3d 1a1b 343d d8b8 c23d
000003a0: 11a6 bd3d f4d1 7d3d 7ed9 093e 5978 063e
000003b0: 6568 b03d c488 f93d 0415 e43d dcf3 133e
000003c0: b430 f23d 4b33 243e facc b23d 3b45 ad3d
000003d0: 037a e53d 7432 b33d c344 643d bf7c e83d
000003e0: 4047 7c3d eda1 0f3e 183a 6c3d eb59 933d
000003f0: cacb 543d 0f95 193d 660d 0b3e ea2a 2d3c
0.13836159 0.115659155 0.1349018 0.14467916 0.14372335 0.15914413 0.06323496 0.15182847
0.12115773 0.12767708 0.06560069 0.0104565825 0.02361785 0.12063147 0.1343625 0.1463519
0.02483731 0.009046042 0.09026565 0.14715041 0.06325436 0.06988529 0.028530067 0.056460205
0.030286713 0.102476366 0.01923036 0.05696488 0.064481385 0.07019771 -0.07708027 -0.08030987
0.055109896 -0.06050881 0.03433513 -0.056306027 0.143822 0.08389939 0.10727986 0.037354145
0.03599319 0.098264545 0.074555084 0.16521223 0.12699308 0.019321142 0.07035917 0.09485342
0.1336607 0.10809411 0.08438797 0.01214475 0.13203026 0.111550875 0.089817084 0.092373386
0.048609387 0.15627015 0.106201395 0.05945142 0.11927932 0.15624069 0.04871708 0.01585112
0.14275378 0.026419563 0.14833759 0.101282366 0.08904651 0.119647354 0.019550303 0.027374307
0.11895223 0.16456136 0.08565535 0.16820362 0.17135164 0.07480174 0.09042558 0.03295589
0.019369991 0.038808484 0.15713556 0.05546216 0.018575432 0.065878436 0.021947721 0.06961612
0.053038575 0.02130157 0.05355209 0.1614803 0.0808232 0.067440405 0.12255687 0.069673195
0.1525515 0.1688839 0.13261364 0.11318481 0.13692906 0.04980719 0.008557821 0.059446
0.11237007 0.15114315 0.057947557 0.043896478 0.02296366 0.009077264 0.14234962 0.08680761
0.019390622 0.052867368 0.121806405 0.14071041 0.10174068 0.14531279 0.10239483 0.043018945
0.0091487 0.0415993 0.12513325 0.14098643 0.090625174 0.07865133 0.047998697 0.15182462
0.15002382 0.0175683 0.070357375 0.038120203 0.16848636 0.1682346 0.035379257 0.108316936
0.13690029 0.07308889 0.14926626 0.0824074 0.030430542 0.072181374 0.028453423 0.12767006
0.07581057 0.114492975 0.10752977 0.028921867 0.16618477 0.1603929 0.15558802 0.13900559
0.1173846 0.046187095 0.0117420945 0.09113697 0.1694127 0.16678278 0.13411003 0.12467479
0.06483921 0.08668669 0.024671512 0.07717276 0.012653796 0.08411176 0.010672955 0.024732446
0.13221227 0.12534916 0.03392313 0.008882284 0.042656876 -0.0060583726 -0.0533427 -0.076760344
-0.04632157 -0.030904543 0.07430712 0.04170472 0.1261026 0.018548878 0.14176157 0.15036523
0.1221708 0.13470079 0.14461547 0.028358104 0.10302361 0.1392583 0.024626838 0.16647676
0.038595088 0.009797117 0.103926435 0.06896398 0.08600802 0.14261307 0.16928676 0.047797944
0.04764403 0.048177715 0.11650875 0.14771485 0.12236033 0.1283235 0.011142304 0.017214442
0.16616675 0.11733695 0.060118824 0.05383121 0.09925092 0.1215848 0.02747233 0.030240087
0.10978303 0.12397772 0.1511447 0.124732904 0.07082774 0.06109013 0.15417686 0.16569409
0.1330631 0.12584783 0.07198851 0.11316612 0.041002706 0.09160607 0.04397116 0.095079124
0.0926019 0.061967805 0.13461873 0.13131846 0.08613662 0.12184289 0.11136821 0.14448494
0.11825696 0.16035192 0.087305024 0.0846047 0.112049125 0.087498575 0.05572964 0.113519184
0.061591387 0.14026614 0.05767259 0.07194885 0.05195216 0.03749567 0.1357933 0.010569314

bias f4 [16]
00000000: 9d19 9e3d 8f14 143d 262b 74be a29a 0e3d
00000010: 8210 8a3d 4ed9 293e 4a01 86be 01b7 fb3d
00000020: 2256 89be fbda 233e e7a3 143e baaf 8fbe
00000030: bd64 77be 613e 903d 41bc 7ebe 0dbf a63e
0.07719729 0.03615242 -0.23844585 0.034815438 0.0674143 0.16586801 -0.26172858 0.122907646
-0.26823527 0.16001503 0.14515649 -0.28063756 -0.24159522 0.07043148 -0.248765 0.32567635

weight f4 [32, 16, 3, 3]
00000000: ab3d e33c 35a3 823d dde2 da3d 193f 053e
00000010: cd3f 163e a858 1c3e c5f7 a63d 7666 0a3e
00000020: 608e 893d 2bc4 a63c 2ce9 0b3e 00ac 063d
00000030: 7e77 7d3d 7e4a e33d 9171 f23d b87c e73d
00000040: be38 603d 3037 8e3d 9479 1cbe 82f4 903d
00000050: 36e9 63bc ad1d 7d3d 0e83 313e 7f8d f0bc
00000060: 78a7 9f3d 2ed4 b03d a8a6 f4bd dfa0 163e
00000070: e221 003e ab58 c13a f66c 2b3d dfa8 b73c
00000080: c0ea d43d 0c33 123e 5c20 483d fa69 0b3e
00000090: 00b7 fbbb 27ba ee3c 6b58 c83d d277 db3d
000000a0: 709c a63d 4edf d23d 0522 c63c c208 d23d
000000b0: 1e0a d33d 7885 1b3d 18ad 523d 343c 013e
000000c0: 8bdd 853d e63d 113e b2a0 f73d 5e20 bd3d
000000d0: dacc 2a3d 8925 6e3d 9dd3 f83d a79e 1e3e
000000e0: f0a5 af3d b055 3b3d 1e76 683c 2a5c 063c
000000f0: aeb5 db3d a374 8b3d 66c8 583d aa08 1a3d
00000100: 1f40 0a3e b88b 793d 662b 5d3d 7375 0d3e
00000110: 1945 a43c 1aae e53d 0304 b43b 295d 133e
00000120: 135a 003e 733a b2bd dbc4 293e 7745 ac3c
00000130: 757f f2bd 00d2 55bd 3bdd fbbd f4e9 603d
00000140: 633a 213e 36e5 113e 6987 cf3c 596b 0f3e
00000150: 3f80 c53d 7ba6 943b bef3 ef3d 9295 a13d
00000160: bf1a 0f3e 90b7 fd3d fbbe c43d 2c24 033e
00000170: cdfa e93d f94f cb3d 9826 9ebb 33bc ef3d
00000180: aa2d 003e b43d 243d 26a2 173c 31f5 d23d
00000190: 686d 253e d5ce 263e ebc8 033e c83b da3d
000001a0: 9a26 2a3e aa58 103e f6a6 363d e70d 093e
000001b0: c8c5 0d3e ce87 b93d fa81 053d 0b69 073e
000001c0: e06e 123e 4280 c23d 29f6 0b3e 3cab 6c3d
000001d0: 9649 f73d ef6d df3c 11cf c23c 75b4 ce3c
000001e0: bc87 f73d 7c40 193e 2943 e23d 093c a33d
000001f0: b673 633c a3aa ff3c 4e99 e83d e3ad d13c
00000200: 0e8f e83d 4f54 d33c 19ce d13d 4f55 c13d
00000210: 25e4 463d e6d0 043e 95ba 8f3d 79a8 5abd
00000220: 6857 90bd 49a2 19be 2240 fcbd f235 1cbc
00000230: ddcc b5bd 55a9 14be b33f 07be fbe3 aabb
00000240: 5bc6 94be 7695 f9bc 3e00 693d ab16 55be
00000250: 70c3 e73b 6179 923d e06f 9fbe 1a7e 373d
00000260: 0dd0 8b3d 9632 b0be 8274 85bd e44b ac3c
00000270: cfa9 9ebe a6be 3cbd 5265 023d 5aa0 a4be
00000280: a855 a5bd b0bc a23c 181d 22bd c886 39bd
00000290: af9a 88bd 48af 74bd 4aff 303d d0ec 83bc
000002a0: 2975 b9be a2b1 783d e0ed 533c 2131 9ebe
000002b0: 0fbc a0be 8893 25bc b666 83be 4734 6abe
000002c0: 1ea9 24bd 03a2 b7be 9d39 80be 4fb6 98bd
000002d0: 6acf 2e3d 7131 8b3d 2027 aebc 50e5 16bd
000002e0: 73e8 933d dbdd 6cbd bedc 12bd a062 143b
000002f0: 4601 0e3d 8f39 8fbd 5eb1 afbe 2488 8abd
00000300: 4955 893d 48f9 82be 5832 58bd 0c31 87bc
00000310: 4efe a0be b564 803d 5dc1 7abe 2014 98be
00000320: 7ebe 483d 14bc 9bbe e7bd a6be 9646 5c3d
00000330: 36db 7cbe c363 bcbe 5ee6 75bd db7f 83be
00000340: 4eb0 72be ea52 703d 9b12 86be 6aa8 91be
00000350: 3384 94be 1e41 8cbe 9abe 9fbe ea53 87bd
00000360: c36e 8cbe 9ab4 a2be 6519 963d e02b 17bc
00000370: 3a9d 54be 8018 02bb 7315 9f3d df2e 82be
00000380: 20e6 84bc 606e 213b ac33 d9bc 76ab 0cbd
00000390: c4a9 d73c 1023 9ebb 0df0 8f3d 4ffe 9abd
000003a0: 53e5 43bd ba06 653d ed71 7bbe 16ad 4fbd
000003b0: b837 1d3c 90ca bdbe 5a57 743d b046 f43c
000003c0: 76d5 87be 608f 4abb cae2 0b3d 87f7 b5be
000003d0: 6815 99be a60a f5bc bc0c a6be dd0c 85be
000003e0: 4832 30bd 6ac4 77be b19b a5be 64a6 a4bd
000003f0: b1d4 a4be 536d 62be 93af a5bd 90b7 98be
0.027739367 0.063787855 0.10687802 0.13012351 0.14672776 0.15268195 0.08152727 0.13515648
0.06716609 0.020357212 0.13663167 0.032878876 0.061881535 0.11098193 0.11838067 0.11303085
0.054741614 0.0694412 -0.15280753 0.07077886 -0.013910582 0.06179588 0.1733515 -0.029364346
0.07795614 0.0863422 -0.1194585 0.14709805 0.12512925 0.0014751157 0.04185196 0.022419391
0.103963375 0.14277285 0.048858985 0.13614646 -0.0076817274 0.029141499 0.097824894 0.10716213
0.08135307 0.10296498 0.024186144 0.10255577 0.10304664 0.037969083 0.051434606 0.12620622
0.065363966 0.14183769 0.12091197 0.09234689 0.041699268 0.058141265 0.12149737 0.15490209
0.08576572 0.045736015 0.014188318 0.008200685 0.10728012 0.06809356 0.05292549 0.03760592
0.13501023 0.06092426 0.053996466 0.13814335 0.02005248 0.11214848 0.0054936423 0.14391007
0.1253436 -0.087025546 0.16579 0.021029217 -0.11840717 -0.052202225 -0.12298056 0.054910615
0.15744929 0.14247593 0.025333123 0.14005794 0.096436016 0.0045364476 0.11716412 0.078898564
0.13975047 0.123885274 0.09606739 0.12806767 0.114247896 0.09927363 -0.004826378 0.11705818
0.1251742 0.040097907 0.009254968 0.10300673 0.16155016 0.16289838 0.12869613 0.106559336
0.16616288 0.14096323 0.04459282 0.1338421 0.13844979 0.09059106 0.03259466 0.13223664
0.14300108 0.094971195 0.13668121 0.05778049 0.12074582 0.0272741 0.023780378 0.025232533
0.12086436 0.14966005 0.11047966 0.07970435 0.013882568 0.031209296 0.113573655 0.025595611
0.113554105 0.025797037 0.10244388 0.094400994 0.04855742 0.12970313 0.070180096 -0.053383324
-0.070479214 -0.15003313 -0.1231692 -0.009534346 -0.08876965 -0.1451772 -0.13207893 -0.0052151657
-0.29057583 -0.030466776 0.056884997 -0.20809428 0.0070728585 0.071520574 -0.3114004 0.044797994
0.06826792 -0.34413594 -0.06516363 0.021032281 -0.3098893 -0.046080254 0.031834908 -0.3215359
-0.08072978 0.019865364 -0.039578527 -0.045294553 -0.066701286 -0.059737474 0.043212213 -0.016104132
-0.362222 0.06071628 0.012935132 -0.30896857 -0.31393477 -0.010105975 -0.256643 -0.22871505
-0.040200345 -0.35865793 -0.25043955 -0.074566476 0.042678274 0.067965396 -0.02125889 -0.036839783
0.072220705 -0.057828765 -0.035855047 0.0022641793 0.034669183 -0.069934 -0.34315008 -0.06764248
0.0670572 -0.25580812 -0.052782387 -0.01650288 -0.3144402 0.06269208 -0.24487825 -0.29702854
0.049009793 -0.3041693 -0.3256676 0.053778253 -0.24692997 -0.36794862 -0.06003415 -0.25683483
-0.23700067 0.058672823 -0.2618607 -0.28448802 -0.2900711 -0.2739343 -0.31200105 -0.06607802
-0.27428254 -0.31778413 0.07329062 -0.009226769 -0.20763102 -0.001985103 0.07767763 -0.25426385
-0.016223013 0.002463244 -0.026513897 -0.034343205 0.026326068 -0.004825957 0.07028208 -0.07568037
-0.047826122 0.055914618 -0.24555178 -0.050702177 0.009595804 -0.37068605 0.059653617 0.029818863
-0.26530045 -0.0030908212 0.03415183 -0.3554041 -0.29899144 -0.029912304 -0.3243159 -0.25986376
-0.043016702 -0.2419602 -0.32345346 -0.08039549 -0.3219352 -0.22112016 -0.08090129 -0.29827547

bias f4 [32]
00000000: 2d7f 083e ea9d a2be ad87 9d3c c953 c63d
00000010: 2e28 a9be 4ef6 1f3e 8efa 7c3d 2694 043e
00000020: 14e7 a9be f1b4 a83c c696 eb3d 9488 b23d
00000030: 921c 0f3e 2168 eb3d 61db cf3c 95c2 9d3e
00000040: 0dcc 95be a986 80be 923e 153d d8f7 ae3e
00000050: 4e2c 4ebe fe3f 113e 2597 b2be f4a4 b63d
00000060: 66ac 5dbe 4c22 2dbd 137b 883d 92b1 b5be
00000070: 67b4 2f3e a47d 1a3e 7d21 bf3d afe1 63be
0.13329764 -0.31761104 0.019229734 0.096839495 -0.33038467 0.15621302 0.061762385 0.12947139
-0.3318411 0.020594092 0.11503367 0.087174565 0.13975742 0.114944704 0.025373163 0.30812517
-0.2925724 -0.25102738 0.036436625 0.34173465 -0.20134088 0.14184567 -0.3488094 0.08918181
-0.21647796 -0.042269036 0.066640995 -0.35487038 0.17158662 0.1508699 0.09332559 -0.2225406

weight f4 [32, 32, 3, 3]
00000000: 5e72 ca3d c4f8 9e3d 7566 9c3c 1aba 3c3c
00000010: a195 f039 dc86 7ab9 3275 3a3d 5efb 903d
00000020: 7f55 a73d 8099 64bd ae2c 0a3e bf4f 42bd
00000030: 2a49 38bd 0146 493d 7838 3fbc 81ab 08bd
00000040: b0e2 dabb c036 acbb d2fb b83d 3b76 b43d
00000050: 7a2c 273d 9f70 803c 95e9 d73c 42fb a93d
00000060: ccda dcbc 3a6a 0c3d 6035 81ba f4b1 64bd
00000070: f3a2 cabc 34dd cabd 4a20 4fbd 34d4 b6bd
00000080: 393d d0bc f3d9 b8bb 468c 83bd cdbe 9fbd
00000090: e7d1 d03d 66c4 573d 261a c33d 6c5e 853d
000000a0: 9ce8 8d3d e8ab 8a3d a509 943d eccc 913d
000000b0: 6be1 d13d 49b2 2dbd 8a52 d13c 243f 053c
000000c0: 50e1 1fbd e614 02bd f48a 353c 3f4d 4e3d
000000d0: 7cc9 3cbc c75c 093d 1bb4 b33d af19 853d
000000e0: 3086 a63d a7b6 da3c 7f2c 823c 3e94 6c3d
000000f0: 3491 4bbc b933 993d 6096 eebc 7850 1fbc
00000100: 9606 7e3c 9515 233d ca53 843d 9731 3f3d
00000110: 8391 a33d 1037 5fbc 40a9 153d bae8 f33c
00000120: 8dd2 c03d cd4f c3bc 409b cfbd f276 ecbd
00000130: a2e3 0bbe 8c0b d9bd 9d93 d6bd 47fd 27bd
00000140: fbfc b7bd 200d a7ba 2264 c43d bc94 0abc
00000150: aac4 8e3d fcf5 043d 93cb c73c 017d 9a3c
00000160: 9242 4e3c 2802 b53d 1a48 84bc 9885 bdbb
00000170: 3f12 e13c 9755 d53c e818 8a3d c836 ae3d
00000180: 6b2b 803c 2d24 723d 805a 023d 5c47 2d3d
00000190: 3347 bf3c 309b 0c3d 03cc 2e3d 1006 433d
000001a0: c2b0 163d 8b19 9d3d f715 ed3c 76f3 87bc
000001b0: 1cfa d23d 67b5 293d 55ef 613d 8916 143d
000001c0: 1044 a83d 6220 d13d d56e af3d fd4f 173d
000001d0: 6a86 303c ef45 053d c648 203c 89f0 713d
000001e0: 7691 963d 8360 8b3d b63a 7c3c 0b6c f13a
000001f0: ef1a bf3c 8c48 76bc c15f a7bd 307b 2a3b
00000200: 1399 dd3d ed46 923d d926 213d 186b 053e
00000210: 513e ec3d de6f 833d 60f3 353d a48b bbbd
00000220: 4c67 90bd 75c9 86bd 5894 dabd ad57 8fbd
00000230: b476 87bd 10f8 133b ae0e 89bd 8d7c f2bc
00000240: 05e1 ef3c e565 b73d a858 d73d aea1 f73d
00000250: 6dbb 2e3d bdb2 1b3d 9f4e fc3d 5aba ef3d
00000260: 539e e23d a222 e03d 05b3 f43d 65df 9f3d
00000270: c97a 9f3d 777f 7f3d 991e 853d d4b5 6b3d
00000280: 1b75 0b3e ceda 5c3d 1897 2bbc d686 453b
00000290: 2225 18bd 65ac 8e3c de4d 7b3c 0706 08bd
000002a0: fb92 a83c 2a34 c33c 0bc0 97bd a80a bbbd
000002b0: 7099 81bd 9fe5 e8bc ce53 1bbc 88dc f13b
000002c0: bf3a d7bc 1454 80bd af95 8abc 64e9 9cbd
000002d0: c82a 0e3d dfb5 083e a950 033e ec88 d73d
000002e0: ca08 a33d 939f f13d de3e 893d 376b 763d
000002f0: 82b1 593d 9c65 47bd 7456 49bd 7562 07bd
00000300: 6c36 84bd 40de f73a bb5c 8abd d5d8 6ebd
00000310: c0cc 53bd 0119 1bbd c229 e93d 4c83 1a3e
00000320: 18fe b73d 602d 8b3d d5a0 173e d3c4 dc3d
00000330: 3637 033e f79f 913d 19a2 483d c67b 4e3c
00000340: 93ac ad3d 1bcc 9d3b 0d88 993d 6c87 b73d
00000350: 1683 2f3c ea93 203c bcfb 7b3c 644f 413c
00000360: 1a13 613d b41f 153e ee34 8a3d b0e2 ee3d
00000370: e03b 583d ef8b 563d d8d7 163e ce41 593d
00000380: 5ab0 dd3d f030 c5bb 8f87 8b3c be53 0d3d
00000390: 29c8 583d 246d 7a3d 6726 893c a3b8 903d
000003a0: cbcb 823c 0f27 4e3d b95b b83d abba c03c
000003b0: 1e5a 2e3d 75f3 903d fe50 e4bc 37ec 823d
000003c0: af7f ca3c c350 853d 5c99 493d d59c f53d
000003d0: 5925 c73d fd74 033e cd5f 7b3d 4433 c03d
000003e0: d30e b23d 94f3 f73d fd40 033e 2520 a13d
000003f0: a262 303d 00d4 5d3d 1e9b 923d a02c ccba
0.09885095 0.07762292 0.019091824 0.011518979 0.0004588785 -0.00023892097 0.045521922 0.070791945
0.08170604 -0.05581045 0.13493606 -0.047439333 -0.04499165 0.049139027 -0.011671178 -0.033366684
-0.0066798553 -0.00525555 0.09032406 0.08811613 0.0408139 0.015678702 0.026356498 0.08299877
-0.0269598 0.034280993 -0.0009857826 -0.05583377 -0.024735903 -0.099054724 -0.050567903 -0.08927193
-0.025419818 -0.005641216 -0.064232394 -0.07800064 0.10196286 0.052677535 0.09526472 0.0651215
0.06929132 0.0677107 0.07228402 0.07119164 0.10248073 -0.042406354 0.025552053 0.00813273
-0.039033234 -0.03175821 0.011080492 0.050366636 -0.011522647 0.033535745 0.08774587 0.064990394
0.08131063 0.026698424 0.015890358 0.057758562 -0.012424756 0.074805684 -0.029124439 -0.009723775
0.0155045 0.039815504 0.06461294 0.046678152 0.079867385 -0.013623968 0.036538363 0.029774059
0.094151594 -0.023841763 -0.101370335 -0.115461245 -0.13661054 -0.105979055 -0.10477374 -0.04101303
-0.08983799 -0.0012745 0.09589411 -0.008458313 0.069711044 0.03246115 0.024389064 0.018858435
0.012589114 0.08838302 -0.016147662 -0.005783748 0.02747452 0.026041789 0.06743032 0.085065424
0.015645703 0.05911653 0.03182459 0.04230438 0.02334938 0.034327686 0.04267503 0.047613204
0.036789663 0.076708876 0.028941138 -0.016595583 0.10301611 0.041432764 0.055159885 0.036154304
0.08216107 0.10211255 0.085660614 0.036941517 0.010774234 0.032537397 0.009782976 0.059067283
0.07351963 0.068055175 0.015394857 0.001841904 0.023328273 -0.015031945 -0.081725605 0.0026013367
0.10820212 0.07142434 0.03934369 0.13029134 0.115353234 0.06417821 0.044421554 -0.09157494
-0.07050952 -0.06581394 -0.106728256 -0.06999145 -0.06614438 0.0022578277 -0.06692253 -0.029600406
0.029282102 0.08954982 0.10514957 0.12091385 0.042659212 0.038012255 0.12319683 0.117054656
0.11065354 0.10944106 0.11948208 0.07806281 0.07787091 0.06237742 0.06499977 0.05754645
0.13618891 0.053919606 -0.010473035 0.0030140183 -0.037144788 0.017416188 0.015338389 -0.033208873
0.020577898 0.023828585 -0.07409676 -0.09132892 -0.06328094 -0.028429804 -0.00948043 0.0073810257
-0.02627313 -0.06266037 -0.016917078 -0.07661703 0.034708768 0.13350628 0.12823738 0.10524163
0.07960661 0.117980145 0.06701444 0.06016084 0.0531478 -0.048680887 -0.049154714 -0.03305288
-0.06455693 0.001891084 -0.06755968 -0.058312256 -0.051708937 -0.037865642 0.11384918 0.15089148
0.089840114 0.06795764 0.14807446 0.10779729 0.1281403 0.07110589 0.048982713 0.012602752
0.084801815 0.004815591 0.07496653 0.089613765 0.010712406 0.00980089 0.015379842 0.011798713
0.054949857 0.14562875 0.06748377 0.11664331 0.052791476 0.052379545 0.14730775 0.053041272
0.10824652 -0.0060177967 0.017032413 0.03450369 0.052925263 0.06113924 0.016741944 0.07066467
0.015966317 0.050330218 0.0900187 0.02352651 0.04256641 0.07077686 -0.027870651 0.06392711
0.024719087 0.06509545 0.04921852 0.11992804 0.097239204 0.12837596 0.06137066 0.09384778
0.08694234 0.12107006 0.1281776 0.07867459 0.043062814 0.054157257 0.071584925 -0.0015577264

bias f4 [32]
00000000: 5ad2 e93d dc47 9dbe a811 f0bb 1fa7 a83e
00000010: baac 4abe a38c 4bbe 87ac a73e 880d 963d
00000020: 08d1 993d c8ca a4be 36af 90be ab13 50be
00000030: 52e6 babc 007f 893d 5f98 89be 2297 6a3d
00000040: afcc 92be c6f8 abbe 6c89 84be 4733 9c3e
00000050: ec12 9abe 0fab 85be 491f 65be 8a7e 35be
00000060: 2833 913e a8e1 0e3e 6316 a2be 108b a6be
00000070: ca10 0f3e 644c 823d a872 88be 9362 85be
0.114170745 -0.30718887 -0.0073263235 0.32940003 -0.19792452 -0.19877867 0.32748815 0.073268
0.07510573 -0.3218596 -0.28258675 -0.20320003 -0.022814903 0.067136765 -0.26874062 0.057273038
-0.28671786 -0.33588237 -0.25886095 0.30507872 -0.3009256 -0.2610707 -0.22375216 -0.17724052
0.28359342 0.13953269 -0.31657705 -0.3252797 0.13971248 0.063622266 -0.26649976 -0.2605177
